figs/grid_search_recon/skmodel/sv-depolar-0.001-0.02-p=2/recon-cs_seed=12-sf=0.050-skmodel-sv-depolar-0.001-0.02-n=12-p=2-seed=3-12-15.npz (npz, 248452 bytes, 2 tensors)

recon f8 [12, 12, 15, 15]
000000 9f f6 a8 9a 15 14 cc 3f 3c f2 47 bf ed 90 d3 3f
       0.21936292697676138 0.3057207458475977
000010 ee 76 32 c5 de 13 d1 3f 3b 40 fd 50 5f a3 b6 3f
       0.2668377805474468 0.088430363915223
000020 06 dd 0f ab dc 16 be 3f b9 e3 3b ee 4b 0c aa 3f
       0.1175363462096933 0.05087506564263528
000030 45 15 67 5a 2e c9 c0 bf 37 d0 93 ea 37 39 a2 3f
       -0.13113955892746723 0.035592791924415605
000040 88 93 5e e9 8d 9c c1 bf 27 ce 3a 65 a5 99 d4 bf
       -0.13759015936843988 -0.32187781224931417
000050 cf fe b2 6f ae 26 cd bf 6d 8f df b6 57 72 ba bf
       -0.22774296239912536 -0.10330723013572447
000060 ae f0 d5 96 ca 8f a6 3f dc 5f f1 41 a7 39 ab bf
       0.04406579104667806 -0.053174235152880306
000070 a5 fd 51 98 89 e3 c3 3f 6d 6a b2 f3 29 39 de 3f
       0.15538139283669952 0.4722390060284514
000080 25 8d 4f af fb ca df 3f 9c 46 0f 5b 92 cf d7 3f
       0.49676410789671116 0.3720441712622262
000090 7e 27 18 e9 db 2b e0 3f f3 e5 4b f3 28 e7 d3 3f
       0.5053538849472117 0.3109838844244159
0000a0 33 01 32 9e 98 df cf 3f ff 26 d2 cf c2 03 9f 3f
       0.2490111133993281 0.030287784513837398
0000b0 37 99 12 c7 33 72 b5 bf 44 33 ef 2f 4e 25 c9 bf
       -0.08377383814022187 -0.1964509710363932
0000c0 44 d1 3d 00 38 50 d8 bf 16 38 7c 53 98 7d d4 bf
       -0.37989616416532024 -0.32016571190695353
0000d0 c0 c5 7f 60 79 cf dc bf f0 c3 da 51 6b 56 ab bf
       -0.45016321586362196 -0.05339370130730703
0000e0 f1 55 ac 14 28 d6 c0 bf 87 e0 2b 46 02 2b b6 3f
       -0.1315355397170346 0.08659376347702806
0000f0 f4 07 b1 79 60 64 df 3f df 1c c4 01 3c 17 ec 3f
       0.49050151714266055 0.8778362307065456
000100 81 a5 7d 98 98 2e ea 3f 3e 7b f3 47 b0 fe e7 3f
       0.8181879976593082 0.7498399167342098
000110 95 f5 d7 73 b8 3c e1 3f ee 25 0d 4f 01 e1 dc 3f
       0.5386621725626123 0.45123322219714523
000120 9f 2c 98 45 72 82 b4 3f b2 35 5a bf 55 8e a4 3f
       0.08011545371134553 0.04014842949718957
000130 42 b7 2b 92 81 f2 c6 bf ae c6 36 07 cc bc d6 bf
       -0.17927569997066867 -0.355273253483669
000140 e1 f9 fa 35 02 27 db bf 34 35 d3 f7 fb f9 d9 bf
       -0.42425589820405035 -0.40588282777465
000150 c2 27 65 58 9d ce d3 bf 10 36 85 05 8c 1d d0 bf
       -0.30948575622880636 -0.25180340327355655
000160 9c b7 bc 73 d6 e1 d7 3f f5 f4 77 22 fd 31 dc 3f
       0.3731590395208231 0.44055107465813076
000170 04 17 62 2e 77 e5 eb 3f f1 50 08 7f 62 23 eb 3f
       0.871760931579701 0.848069427595446
000180 b0 6a 19 92 7f 45 ea 3f 9a 23 b4 02 ca 81 e3 3f
       0.8209836820127148 0.6095933964544316
000190 70 2f 61 ab b2 a8 e1 3f 63 8b 9b 86 f9 36 c8 3f
       0.5518430087335968 0.1891776950133944
0001a0 0b 29 cc 76 85 25 b9 3f a9 d3 79 24 d9 fb c1 bf
       0.09822878027276631 -0.14049829751061552
0001b0 87 96 8b 51 5c e6 e1 bf 6a 0e aa a8 38 9a de bf
       -0.5593701927834481 -0.47816292258378346
0001c0 7f e6 33 a9 d1 0c d8 bf bc 93 44 4d 4b 39 e0 bf
       -0.3757824089403598 -0.5069939145220057
0001d0 97 aa ac c6 14 7b d4 bf b3 ec b2 75 cb 85 b3 3f
       -0.3200122776203584 0.0762602960921182
0001e0 8b 29 90 4a 32 3d e2 3f 2f 50 76 aa 5e 05 f0 3f
       0.5699702698050698 1.0013109835317768
0001f0 39 13 a9 b1 74 06 ef 3f f6 56 64 25 fe b3 ed 3f
       0.9695380659037262 0.9282217722236215
000200 a7 25 28 a8 a6 ec ed 3f 64 72 d8 1d 78 b1 e9 3f
       0.9351380619347552 0.8029137213630517
000210 3e de 47 3b 28 df d5 3f b5 6c e3 34 1d 93 9e 3f
       0.3417454317964007 0.02985807071023024
000220 82 4c 5e 23 c1 b5 89 bf 1b 7b fc b6 9f 5a e3 bf
       -0.012553700343948874 -0.6048124860716116
000230 07 f2 03 75 34 0c de bf 3d 74 f8 e5 ce a0 e5 bf
       -0.46949492862020786 -0.6758799068080702
000240 da 04 d7 16 66 da e6 bf e1 dc 8d 79 20 dc dc bf
       -0.7141600080577988 -0.45093547697565667
000250 ce 5e a0 1a 46 98 aa 3f 21 7c b2 e1 14 91 da 3f
       0.05194300723104349 0.4151050762247355
000260 55 0a 20 bc 21 42 f3 3f 71 4a 8e 2b 63 64 f1 3f
       1.2036454533232661 1.0870086385154105
000270 28 f2 c8 b8 a3 31 f2 3f ec 3a fb 18 49 bd eb 3f
       1.1371190279161372 0.8668561447064724
000280 b0 e8 6e f1 92 6f e9 3f 59 cf df 78 d0 a0 cf 3f
       0.7948698726170473 0.24709516431868897
000290 38 fa bd 17 93 6d c3 3f c5 e1 a9 f8 26 ab cb bf
       0.15178145083696548 -0.21616065160539058
0002a0 44 c0 9f 00 60 c7 e1 bf 0f e8 92 dc 8c 6d e4 bf
       -0.5555877697170293 -0.6383728321154666
0002b0 4c 65 53 cb a2 10 e9 bf 01 5d dd 47 96 a4 e8 bf
       -0.7832807513433777 -0.770091190682166
0002c0 c2 03 18 7c 97 8d df bf c6 f2 ec 0f 19 d9 c3 bf
       -0.4930170738080585 -0.1550628021012896
0002d0 9a f5 7f d1 42 3a e6 3f 3e 7c bc 14 9e 71 f2 3f
       0.6946119396013046 1.1527386484156206
0002e0 9b 95 2c 40 ea f4 f0 3f ad c6 41 a1 5a a4 f4 3f
       1.0597937113574065 1.2901254939173825
0002f0 79 bc 92 14 6c ba eb 3f e7 90 62 44 cf 02 e7 3f
       0.8665066148586354 0.7190929732937804
000300 9a e4 0e 00 a7 72 c9 3f 77 ae 6b 8f 45 4d b3 bf
       0.19881141188469514 -0.0753978228710198
000310 fd 4f 27 25 7c 46 d2 bf ea f7 e2 00 ba 43 e7 bf
       -0.28555205944326173 -0.7270174043003383
000320 06 b2 e9 b6 cf 66 e6 bf d7 48 99 9b db c5 eb bf
       -0.7000502178685231 -0.8679025687254364
000330 a1 e1 21 f6 6d 19 ec bf 2a 63 cd e4 8e b4 e4 bf
       -0.8781041915199702 -0.6470407933039486
000340 9b 75 51 07 13 5e d8 bf fe 7b 67 bd 40 93 eb 3f
       -0.3807418414561085 0.8617252063085059
000350 62 98 4f 2a f7 26 e7 3f f3 d6 2c 77 5a 2e ed 3f
       0.7235065294633041 0.9119083717002624
000360 87 72 a5 a0 42 66 ee 3f 17 ef b7 2b d4 89 ed 3f
       0.9499829423544534 0.9230748037220761
000370 c1 e8 23 43 21 dd e5 3f f1 8d 80 c3 b4 0f cc 3f
       0.6832433997472195 0.21922931238178436
000380 27 4c 9f 88 e6 bd c4 bc 09 74 23 af 28 94 d9 bf
       -5.757005681840509e-16 -0.39966790297859284
000390 f3 61 4d 38 4a c3 e6 bf f9 6d 60 42 56 66 ed bf
       -0.711339101758368 -0.9187423035068029
0003a0 6d 6c 00 b2 78 82 f1 bf 23 a6 63 b4 48 d9 f0 bf
       -1.0943533852758052 -1.0530478521781184
0003b0 ed 09 63 ed 42 1e ec bf 54 bb 74 ae 58 e1 de bf
       -0.8786940227949437 -0.48250405346600655
0003c0 f5 bc a7 b0 14 2e d1 3f ba 17 fc 85 ff 27 e4 3f
       0.26843755008208287 0.6298825852288623
0003d0 69 f2 f4 3d ed a0 ed 3f b9 09 59 c4 44 5c e9 3f
       0.9258943758100716 0.7925132594030436
0003e0 ee 0c 2e 24 b7 b6 e4 3f fe b9 7a 29 29 15 e1 3f
       0.6473041254652381 0.5338331041473905
0003f0 95 6e 5a fe 78 94 d1 3f 63 04 9b ee 82 e3 c2 bf
       0.2746870502394157 -0.1475680985513775
000400 e8 c8 8b a3 e7 ba d7 bf 7e d0 d0 aa 4b 25 e6 bf
       -0.3707827660683862 -0.6920526825183655
000410 1a 16 e5 41 e3 62 ea bf c9 eb 81 e5 c1 2f f3 bf
       -0.8245712553986693 -1.1991595235001447
000420 e6 5f db 2a b4 56 f3 bf 5c 78 cd 27 e3 cc f1 bf
       -1.2086679147814663 -1.1125213198461301
000430 93 4a 57 09 9d 8a d7 bf 03 d2 f6 3f 35 4c b5 3f
       -0.36783529197888604 0.08319409190773545
000440 d4 fd 04 60 31 17 da 3f 25 a2 b6 ac c1 45 e8 3f
       0.40766558052925217 0.7585152028378316
000450 47 88 88 4e 26 83 e8 3f 84 c7 e3 c8 ec e7 e2 3f
       0.7660094770292368 0.5908111499431787
000460 40 2b a6 77 bc b2 df 3f 9b 9a 7f 23 8e 37 bc 3f
       0.4952841919372766 0.11022270552312323
000470 97 b7 25 1f c8 fb ab bf 7c 05 43 92 76 ff d8 bf
       -0.05465531711784804 -0.3905922344530024
000480 d7 c4 e1 2d 7b 54 eb bf 99 c8 13 e6 95 25 ed bf
       -0.8540626426821757 -0.9108380788514011
000490 b8 ef b7 6a a3 58 f3 bf 21 3b 9c df 4d ff f3 bf
       -1.2091402214709728 -1.2498301253105597
0004a0 fe 2b 38 dd 27 a0 f0 bf 09 1c 2c c4 70 34 e2 bf
       -1.0391005174049037 -0.5689014274111069
0004b0 07 e6 86 46 09 d6 a7 bf d7 34 65 89 59 b9 d8 3f
       -0.04655484186100627 0.3863128511191695
0004c0 7d 35 66 49 1d eb e4 3f 2c 78 9c 79 ff 0e e6 3f
       0.6537004884318517 0.6893308043688697
0004d0 c2 d0 b1 9a 4b c4 e1 3f 54 00 26 20 af dc da 3f
       0.555211832177996 0.419719487566913
0004e0 32 a4 59 e7 05 ad 81 3f 37 3a 60 b5 3b 3c c0 bf
       0.008630796549555429 -0.12683817249531312
0004f0 d3 d5 3a 3e 43 aa d7 bf ca 89 85 0f d5 f9 e9 bf
       -0.3697670085633408 -0.8117471030384931
000500 a2 f0 ba 03 85 a3 e7 bf a6 4d 3d 96 80 7c f3 bf
       -0.7387108872276438 -1.2178960674981254
000510 7a a4 b0 75 72 5c f1 bf d2 b1 13 a2 10 da f2 bf
       -1.0850700948015217 -1.1782385188226852
000520 89 ae 2d 65 76 ff e5 bf 53 fb 42 a5 e0 05 d4 bf
       -0.6874343849317067 -0.3128587354548717
000530 50 12 85 a2 f5 1e cc 3f 58 b5 49 62 66 0a d5 3f
       0.2196948092988742 0.3287597617953302
000540 61 28 04 6f f3 31 dd 3f fb 8c b3 62 75 cb d9 3f
       0.4561737617629032 0.40304312361531885
000550 82 4f 0d 8f fd d7 d5 3f 55 7d c7 90 93 c2 a9 bf
       0.34130801172181446 -0.05031262533497719
000560 a7 42 5e ec 64 58 ce bf fa 82 0e cd 12 7f e1 bf
       -0.23707257787147748 -0.5467618947041892
000570 b0 cd 89 eb bf 33 e7 bf f5 ff 0a 56 fa 89 eb bf
       -0.725067100558979 -0.8605930023695679
000580 70 10 61 08 b8 0e ee bf 50 8f 09 86 c9 1d eb bf
       -0.9392967380195056 -0.8473861329953056
000590 5d 14 d9 98 74 87 f1 bf 83 ab 2f c9 f2 a9 e5 bf
       -1.0955701799987516 -0.6769956521433048
0005a0 05 1e 72 84 2e 7e c6 3f b7 8f ce 6e 42 17 bb bf
       0.17572576014593735 -0.10582366185422996
0005b0 a5 d5 e7 29 70 4b c8 3f 19 7a cc dc 3f 04 dd 3f
       0.18980218931362206 0.4533843666303326
0005c0 28 71 bf 86 01 77 d0 3f 31 91 c1 db b8 69 c6 3f
       0.2572635475060161 0.17510138254432087
0005d0 ac 1a a9 9b a5 2d af bf c0 ef b0 fd 51 2e b7 bf
       -0.060895133258374784 -0.09055054134017748
0005e0 b1 b0 0e fc 4d 4c d4 bf 05 33 55 42 57 8d e0 bf
       -0.31715726485232226 -0.51725352244975
0005f0 a2 1d f7 fe d0 31 e4 bf fe 82 f8 19 2d 50 ec bf
       -0.6310811023512779 -0.8847871310464084
000600 be 3e cf c2 8d be e9 bf e3 a6 ab 8f 24 9f eb bf
       -0.8045109562753721 -0.8631766134323836
000610 98 96 4c bc 91 d4 db bf e3 a0 49 b4 6b 20 d5 bf
       -0.4348491991862402 -0.3301038036938861
000620 4e 5f 12 16 f9 2e ba bf d3 fc 1e 45 ce bf ba 3f
       -0.10227925099240773 0.1044892233612587
000630 eb 53 a5 20 f7 45 c5 3f 31 4d 23 7c 4c d5 c4 3f
       0.16619767278703476 0.1627593618528436
000640 00 ac 44 ce 32 74 c8 3f 59 21 82 a1 a6 49 b0 3f
       0.19104609557811614 0.06362382357668163
000650 ba c3 9f e9 d7 b3 c6 bf 8a 56 7b cc a6 e8 b5 bf
       -0.1773633852713184 -0.08558123104315932
000660 93 c1 90 df d2 87 db bf 78 46 36 be 68 a5 e0 bf
       -0.43016502220691527 -0.520191546924436
000670 8c 81 66 da 29 35 e5 bf 55 cb 8a 11 f4 33 ea bf
       -0.6627396836884585 -0.8188419668789303
000680 63 10 8a 0f 89 80 e7 bf 63 34 7a 68 15 9d e0 bf
       -0.734440355634899 -0.5191752472470735
000690 ba 30 14 2e 45 c8 dd bf bc 40 6c 03 f3 43 c7 bf
       -0.46534852504624846 -0.18176114718563052
0006a0 bc 98 4b 97 bc 05 ce bf 5d 3a e7 92 85 d4 b6 3f
       -0.23455006968942438 0.08918032490257972
0006b0 fd cf 92 e6 b8 45 10 bf 24 e6 95 fb b9 76 c8 bf
       -6.207409900832457e-05 -0.19112324509096468
0006c0 14 79 75 79 6c c9 6e bf a3 54 ef d9 7e 04 c5 bf
       -0.0037581556932045988 -0.1641996921668226
0006d0 d8 f0 10 fd c2 d0 c6 bf 42 f3 0b 35 ed b8 bc bf
       -0.17824590069529367 -0.11219675583920455
0006e0 88 11 c6 a5 ef b7 ca bf 2f 7f f2 63 e0 71 cc bf
       -0.2087382850114745 -0.22222523575055095
0006f0 96 f4 5a c8 82 aa e1 bf 24 f3 b3 ef 87 80 d9 bf
       -0.552064315146384 -0.3984699097489275
000700 be 28 4a 0c b1 10 e0 bf 87 5c f0 37 5d 44 db 3f
       -0.5020375480683226 0.42604761565002786
000710 0d ea c5 6b 3a ce e3 3f 92 80 e8 69 cd 66 d9 3f
       0.6189243416732225 0.39689956038092433
000720 36 f3 26 31 8c b3 cd 3f 7b 45 b2 a0 5b 4a dc 3f
       0.2320418586731649 0.4420384473133578
000730 20 7b 13 87 ff 6f ce 3f d0 eb 92 f6 0b 19 ce 3f
       0.2377929124404199 0.23513936557523474
000740 c8 80 2f cf 23 0a c6 3f 20 6c b8 13 5b d8 83 bf
       0.1721844445846783 -0.009690009631460994
000750 f3 a5 d1 a5 48 c5 c1 3f 0e 62 83 17 14 d8 a9 3f
       0.138833123174933 0.05047667300249624
000760 90 6b 56 ef 1f bf a8 bf 60 d0 1d dc 24 a2 d0 3f
       -0.04833316609002403 0.25989648338077664
000770 f4 91 cd 0c 15 1d d6 3f d4 90 9c 93 17 d0 d7 3f
       0.3455250382451418 0.37207593360132063
000780 37 55 fe 01 f4 a4 e0 3f 93 9c 8a 8b d9 4f de 3f
       0.5201358832297619 0.47362364413351904
000790 7c 00 88 64 0b 78 e2 3f 60 15 53 2e 0b 7d e3 3f
       0.5771538699627992 0.6090141205574291
0007a0 bb a7 54 86 e0 41 d8 3f 9d 15 dd c3 3a 6c d3 3f
       0.37902081602316756 0.3034808075647904
0007b0 87 d5 46 de c5 ea d8 3f 04 84 a2 8c e8 5c ce 3f
       0.3893294020338875 0.23721033923087032
0007c0 b0 9a ad d5 b8 f1 86 bf 8e 6e 68 38 91 00 ce bf
       -0.011203235646190052 -0.2343923116139774
0007d0 5f b6 d2 40 6c da c5 bf 60 a2 30 d9 15 fb 74 3f
       -0.17072823682012747 0.00512226614504438
0007e0 2d 37 00 a8 4f 30 b4 bf d6 c1 a4 45 6c 4a d2 3f
       -0.07886216975768141 0.2857924156296837
0007f0 6a 9c db d8 65 dd d3 3f 47 50 74 7b 58 d4 e3 3f
       0.3103880517723555 0.6196710978715679

sampling_frac f8 []
000000 99 99 99 99 99 99 a9 3f
       0.049999999999999996
