figs/grid_search_recon/skmodel/sv-depolar-0.001-0.02-p=2/recon-cs_seed=12-sf=0.030-skmodel-sv-depolar-0.001-0.02-n=12-p=2-seed=7-12-15.npz (npz, 248423 bytes, 2 tensors)

recon f8 [12, 12, 15, 15]
0.21186206007851222 0.3953387718865677 0.4224847297363506 0.18939246400760254 0.04484183323441732 0.08436180892761777 0.02181330521470645 0.1520030419287719
-0.1819853256850185 -0.09156744594400232 -0.023067611848169522 0.17574127738424422 0.20648112621049203 0.24365957662399906 0.4724324013077249 0.5585658990224545
0.6306110319779046 0.5675574861569502 0.40931295127191597 0.204779081824891 0.13921538827775526 0.056529676525551464 -0.06947183627190738 -0.2471306984774871
-0.22877157425601127 -0.153713820186808 0.06412533164970231 0.21710961787295804 0.20363386174087333 0.40626802408141116 0.8693375619692528 1.003339809536169
0.8304965111401251 0.4619381280946995 0.46220537340577905 0.18429954857943487 0.3537775768014029 0.09008014120593567 -0.11261963278722693 -0.1785005757934189
-0.23783290056150175 -0.00688651837538706 0.3376978179180115 0.2682829445378469 0.6002279283091428 0.43109601249481033 1.0210583363425356 0.8793113005557726
0.8365493224097165 0.4698435973932407 0.4103774018241929 0.33232315444143157 0.12189861159633013 -0.08287612427298609 -0.1654592893129388 -0.07658921586690685
0.19695278545445546 -0.17723364228656288 0.04413924984343143 0.5366360785831228 0.650565446311555 1.072510712381056 0.6513806308275695 0.650765909418123
0.855443342736983 0.5997632908570311 0.4745064700976045 -0.028282066162259385 -0.25619870718650106 -0.38000207008652387 0.05688365271443868 -0.10239566739745878
-0.31721923419345704 -0.2208739484757934 0.2089394495761936 0.40277667110136367 0.7806505123838889 0.6760106378309811 0.9958761041622657 0.8763915556210297
0.38955621956533465 0.4448603512292569 0.07564735019187097 0.05187139304046299 -0.4595667006799021 -0.3246366988928513 -0.4364474164732534 -0.5278618559122514
-0.2589977947862248 0.08208758639371475 0.5496115231006314 0.8477278089049308 0.6813546118811618 0.9276083036423902 0.7002864181587457 0.5352510438870787
0.3327361267158304 0.07530054332614686 -0.33317390239476974 -0.4101858683770602 -0.3901942212270002 -0.49845491517231555 -0.48689263535270766 -0.41765461156993283
-0.21789721651797583 0.968225917026186 0.7688938764753317 0.6966759245782054 0.7846218590405278 1.0200134439993682 0.5414234399149062 0.22734827142646424
2.8785028409202547e-16 -0.38414884056388887 -0.35328750976297446 -0.5270236233730066 -0.6108205296995404 -0.6907686517530037 -0.5703215190590661 -0.20009544824478115
0.2322120027009037 0.5858539328226327 0.8104145691084483 0.5856523863450601 0.6382959669659192 0.5466462635555779 0.1369394940948488 -0.10160735956523065
-0.14085967817959508 -0.4061931734890616 -0.6054770053140034 -0.8663256917229232 -0.712345041611601 -0.891542591983863 -0.21534080426670416 -0.2425608104063383
0.08870495661739883 0.328883233415154 0.5097886967101611 0.3674101445144882 0.45518803897328963 -0.016160306090247066 -0.061880856913294646 -0.43242216949276796
-0.4280086792112785 -0.624153014547707 -0.7461836313498813 -0.8938160585620947 -0.796318056502864 -0.4689272965471727 -0.2694687277874052 -0.0035141058249028283
0.7693450235392165 0.2714071004485637 0.6007288422974705 0.15792572200389518 -0.06785325753296169 0.00045420675483093975 -0.39288573819678874 -0.48932543999000155
-0.5281275763806406 -0.8221876559477479 -0.9073036948332319 -0.9526771328252595 -0.36530845941221735 -0.35386469968825 0.051557682542945356 -0.0008607026762031832
0.49297879262060657 0.20511502760374578 0.13246377149483773 -0.045236374593482204 0.1863270489540589 -0.16296056049170468 -0.3819968759160588 -0.7241728771324705
-0.764400764457674 -0.7440842650963744 -0.9873712063168532 -0.5930009359226038 -0.6323598917093453 -0.22929150973552467 0.0910341663727979 0.29245034542689474
0.16715063652914652 0.28789805854819395 0.09793316879948356 0.08567913847981448 -0.1841184201633585 -0.1547022421203804 -0.6403975123997745 -0.35353743011446587
-0.6937392477842305 -0.7404914372601211 -0.5756616904947416 -0.5703004672808195 -0.33269198529793276 0.11878330259683569 0.005910830185866445 0.08509974739725809
-0.10557015846498652 0.33978415744652724 -0.09707416091286569 0.25091281732542275 -0.25337539853574625 -0.37407121470950183 -0.28584790077815975 -0.5917543014033668
-0.533319326203082 -0.25337999407797596 -0.7019595989122787 -0.4655243773971267 -0.3001690509540038 0.2827479703123618 0.009231293243844375 -0.0584192731284629
0.06743999360830634 0.049561529230989915 0.19783817644435714 -0.1262391824404223 -0.009134976033299798 -0.11274630059602998 -0.5199242041859922 -0.4579490196060845
-0.6238085603199582 0.4548288372104252 0.7030950623195712 0.5313306417634643 0.4154483763971065 0.4009870492131208 0.2192468423528306 0.35530147629631004
0.1073254152351466 0.08934697480392637 -0.025609968617359036 0.09256020437445395 0.4070509260346932 0.33855438285586603 0.45635947049842596 0.6059546788228646
0.4009171766346131 0.6907482385308841 0.4918760368194478 0.6581383985189724 0.22425075931700097 0.395704503707442 -0.0043502745409407795 -0.06265932319713927
-0.0593754988719109 0.10168052002008877 0.06476380798331824 0.37677825847222557 0.0681272953710001 0.49752877335109685 0.35071396763554274 0.682168892051408
00000000: 6a73 a6c5 4b1e cb3f bffd 05fe 3a4d d93f
00000010: c5ba 5164 fd09 db3f d7c0 8223 033e c83f
00000020: 7911 783e 82f5 a63f 0622 604a bc98 b53f
00000030: b72f 0f22 3a56 963f f800 fdee d574 c33f
00000040: dda3 158f 4b4b c7bf 4e2e b5d1 f670 b7bf
00000050: e057 f039 099f 97bf 8a17 76af b07e c63f
00000060: 225c 283a f96d ca3f 3888 7aac 3c30 cf3f
00000070: cafe 4b1c 553c de3f 00cb 9e97 c5df e13f
00000080: eef0 da2f f72d e43f 419c 3451 6e29 e23f
00000090: 1bb2 e2f2 2e32 da3f 5be1 ab71 3336 ca3f
000000a0: 0c5f e051 cfd1 c13f 0885 dc2f 75f1 ac3f
000000b0: a3e9 c700 e8c8 b1bf 6a33 e68d faa1 cfbf
000000c0: 718d d70e 6348 cdbf dfa1 52fb e4ac c3bf
000000d0: 0dd7 478a 846a b03f 25a9 347a 3fca cb3f
000000e0: a282 44a4 ac10 ca3f dcc5 3599 4b00 da3f
000000f0: 3df4 ba01 9dd1 eb3f 33b9 4b0b ae0d f03f
00000100: f93e 596b 6d93 ea3f e44c 3cf0 6490 dd3f
00000110: ee0c b4d8 c594 dd3f 6c7a e8aa 2097 c73f
00000120: cde3 9ab4 4aa4 d63f 59a1 7ffc 7d0f b73f
00000130: 556b b5e7 a3d4 bcbf a3c9 ac5b 1bd9 c6bf
00000140: 3c88 e9f8 4e71 cebf 3d19 4ab3 0935 7cbf
00000150: e9db f84e d79c d53f 2b56 373a 8c2b d13f
00000160: a979 4733 1135 e33f 5a7a c6ba 1397 db3f
00000170: c663 1e44 4156 f03f 177d dc73 5123 ec3f
00000180: c0b3 a715 03c5 ea3f 517e 42e1 ea11 de3f
00000190: 0e8d f693 9f43 da3f 6ce3 0156 c844 d53f
000001a0: 53ea 3b56 bf34 bf3f 3128 5fa3 5e37 b5bf
000001b0: 9290 351e c52d c5bf 03e9 5fd1 599b b3bf
000001c0: d705 31b6 bf35 c93f 8395 af8c 97af c6bf
000001d0: 6053 1875 6b99 a63f 48c8 eb6c 1f2c e13f
000001e0: cf1a 7aa0 6ed1 e43f ad94 24fe 0029 f13f
000001f0: 51df 5431 1cd8 e43f 61ae 4907 13d3 e43f
00000200: 405c 94b7 ca5f eb3f 2750 f2c8 4231 e33f
00000210: b4d0 b362 505e de3f c5bc eb54 f9f5 9cbf
00000220: 242f 2943 8f65 d0bf 58c5 db33 f451 d8bf
00000230: 58cb 2ba8 da1f ad3f ca63 b93a 9a36 babf
00000240: dd79 21e7 514d d4bf 4af7 9ef8 9845 ccbf
00000250: 3012 6323 87be ca3f f936 7ecd 17c7 d93f
00000260: 1a6c 89c8 16fb e83f e46d a70f e1a1 e53f
00000270: 92d5 4790 37de ef3f 9d40 bc4d 660b ec3f
00000280: f122 bf35 7dee d83f 5545 f48c 9778 dc3f
00000290: b867 1aef 9f5d b33f 35db 6921 e38e aa3f
000002a0: 1d0d 7073 8a69 ddbf 64e0 3401 d9c6 d4bf
000002b0: bf48 0b25 c1ee dbbf 145e fe8b 3ee4 e0bf
000002c0: f9f2 957c 6b93 d0bf d2f4 f72a b103 b53f
000002d0: 4d1a a7e7 6a96 e13f 5b01 e511 9620 eb3f
000002e0: 8244 e02f a8cd e53f 1d8c f49b f7ae ed3f
000002f0: b564 fa0f bf68 e63f b9a2 14cc c620 e13f
00000300: 104d 9c77 8c4b d53f eef2 f47a e546 b33f
00000310: 8ca3 aaa1 b852 d5bf 4f7e 7d3a 7c40 dabf
00000320: 9c85 d02e f1f8 d8bf e283 cc71 afe6 dfbf
00000330: 5433 60ba 3f29 dfbf 3bda 6d68 daba dabf
00000340: 02c5 6a55 0ee4 cbbf e88b 18eb b4fb ee3f
00000350: 80cc b154 c79a e83f a32a ff4e 2b4b e63f
00000360: 06c9 094d 9f1b e93f 6352 f79d f951 f03f
00000370: 6f1d f73f 5753 e13f f615 4a87 bf19 cd3f
00000380: 274c 9f88 e6bd b43c 882a c104 e595 d8bf
00000390: b91a 2137 439c d6bf 5268 53a5 60dd e0bf
000003a0: 161e d97e d78b e3bf 7f32 0cdc c61a e6bf
000003b0: 130a 12ea 1240 e2bf 0618 2547 ba9c c9bf
000003c0: d465 ab76 1fb9 cd3f 1899 36bf 50bf e23f
000003d0: 1aba d088 eaee e93f fda4 c512 aabd e23f
000003e0: b831 e9a9 eb6c e43f 2d75 0e4e 207e e13f
000003f0: 4a86 55bc 3b87 c13f 8c96 5d9e f002 babf
00000400: 03a0 8d9f b007 c2bf 449d ffa6 11ff d9bf
00000410: 9bb7 0950 1160 e3bf 184e 34a8 f0b8 ebbf
00000420: 1511 26d4 87cb e6bf f7f9 7154 8487 ecbf
00000430: 3ef0 e897 4990 cbbf f644 fe8d 3b0c cfbf
00000440: 1632 aa37 5eb5 b63f ee21 ee42 6c0c d53f
00000450: 09b3 8762 3050 e03f 9522 bad6 a583 d73f
00000460: f8eb 3a03 cd21 dd3f 7695 9ac8 538c 90bf
00000470: 18d2 6101 d9ae afbf 0d5b 0209 ceac dbbf
00000480: 5076 e783 7e64 dbbf b2d4 25be 0ff9 e3bf
00000490: 12aa ae7e bce0 e7bf fe3d 8522 249a ecbf
000004a0: 509c 3c01 707b e9bf 94cb b7a2 e702 debf
000004b0: 7f10 49c3 f93e d1bf bce9 f632 9dc9 6cbf
000004c0: 021f 6e74 799e e83f 890a 15e3 bb5e d13f
000004d0: 7bcf 6db1 2b39 e33f f719 9af9 e836 c43f
000004e0: 89f8 07c2 d45e b1bf 85dc 5928 53c4 3d3f
000004f0: 80ae 2739 0a25 d9bf 4ce7 76a6 1b51 dfbf
00000500: 8075 95cd 6be6 e0bf 260e af7c 5c4f eabf
00000510: 8328 1bc2 a108 edbf 8e35 24c1 547c eebf
00000520: e02a 88bb 3661 d7bf 5dac 1720 b8a5 d6bf
00000530: e14d c2c0 c465 aa3f 8e8b 45ec 1834 4cbf
00000540: 2355 fbeb f68c df3f f4f4 bc8f 3541 ca3f
00000550: 8ed1 3ca7 92f4 c03f d4ed efda 3829 a7bf
00000560: 7f16 cf92 90d9 c73f 03c3 ec42 e4db c4bf
00000570: 00f4 4e06 a372 d8bf dce4 fd98 6c2c e7bf
00000580: 6e42 8c97 f875 e8bf f2d3 01ce 89cf e7bf
00000590: 1293 0480 8b98 efbf 841e 4919 ddf9 e2bf
000005a0: 1d33 c6cf 4a3c e4bf fb42 c897 6c59 cdbf
000005b0: 46c9 63df 034e b73f a0fe 53a7 81b7 d23f
000005c0: 6cfa b22a 3165 c53f fef7 82fa eb6c d23f
000005d0: 61fb 2fed 2512 b93f da62 b869 11ef b53f
000005e0: 0eae 9840 3191 c7bf 2b30 4377 48cd c3bf
000005f0: 124c 86ec 227e e4bf 9d39 1075 5ba0 d6bf
00000600: c9ea a5a6 1c33 e6bf 1902 4019 1bb2 e7bf
00000610: 0885 c710 d26b e2bf 1dab fbc3 e63f e2bf
00000620: 62bd 1f53 d34a d5bf 21db f61f 9568 be3f
00000630: 67b6 7265 f435 783f ee15 f8d7 18c9 b53f
00000640: 5868 0a5a a506 bbbf c8a1 fb0c 06bf d53f
00000650: 584b 682a dad9 b8bf 9dd5 23a2 f40e d03f
00000660: 979b 9472 4d37 d0bf f558 6364 c8f0 d7bf
00000670: 9b3c 5efe 544b d2bf e66e 79b7 a6ef e2bf
00000680: 68be 0bb1 f310 e1bf 1ca3 01b9 6037 d0bf
00000690: e220 0efa 7376 e6bf b854 1ac2 26cb ddbf
000006a0: 7c9a 4740 f835 d3bf 5320 60f1 8a18 d23f
000006b0: a722 a834 dbe7 823f 18ef 1587 21e9 adbf
000006c0: d178 fd56 bf43 b13f c4aa 5ff6 2060 a93f
000006d0: 0a49 dde8 c252 c93f 0f17 0704 9b28 c0bf
000006e0: b18b 80ba 5bb5 82bf 2910 ce09 f1dc bcbf
000006f0: d015 ac15 38a3 e0bf 9860 9c67 094f ddbf
00000700: 0340 b15e 3df6 e3bf cc2c 4669 ea1b dd3f
00000710: 5188 5437 c17f e63f a193 371e a900 e13f
00000720: da51 73c9 b496 da3f 765a 9f95 c5a9 d93f
00000730: ee0d d4d0 4710 cc3f 6471 3a67 42bd d63f
00000740: 60ee 76ac ad79 bb3f be86 c77e 71df b63f
00000750: 100f a7e6 7f39 9abf fc08 b38a 06b2 b73f
00000760: 8e08 c853 1f0d da3f 5a23 9200 e0aa d53f
00000770: f0ad 405a fe34 dd3f 5be0 0c11 fb63 e33f
00000780: 6c38 8384 a0a8 d93f e84f c80c 9c1a e63f
00000790: f6d6 f4a0 e57a df3f 862f 3c42 780f e53f
000007a0: e351 afb6 3fb4 cc3f 7b6a 93fb 3853 d93f
000007b0: 4084 1cee 97d1 71bf 3ed4 ebff 700a b0bf
000007c0: 6855 ad23 7766 aebf e165 200c bc07 ba3f
000007d0: e6b5 4065 5c94 b03f ced9 7e8e 221d d83f
000007e0: 3c58 9559 ca70 b13f 4f2a 97ec 82d7 df3f
000007f0: 0aaf 4fff 1872 d63f 02b3 36db 53d4 e53f

sampling_frac f8 []
0.03
00000000: b81e 85eb 51b8 9e3f
