figs/grid_search_recon/skmodel/sv-depolar-0.001-0.02-p=2/recon-cs_seed=12-sf=0.090-skmodel-sv-depolar-0.001-0.02-n=12-p=2-seed=0-12-15.npz (npz, 248412 bytes, 2 tensors)

recon f8 [12, 12, 15, 15]
000000 57 3a 06 86 21 6f e1 3f 42 fe 20 d6 fd 6a e0 3f
       0.5448157899534846 0.5130604917721444
000010 bf fb ec 3f 61 5c d6 3f c6 11 5e e0 a7 36 d6 3f
       0.3493884205126356 0.34708592329868926
000020 9c 44 29 e1 2e 4b ce 3f 62 4f 8b 83 a8 49 bc 3f
       0.23666940683555004 0.11049893580940087
000030 12 cc 85 57 cc 1d b7 3f ef 4d 7c 52 a0 cb b4 bf
       0.09029843460830048 -0.08123209012801856
000040 24 00 f9 15 fc 6a b6 bf 29 bc 40 d4 d6 fb ba bf
       -0.0875699571270166 -0.10540526086764203
000050 e3 f6 dd e4 54 7d c7 bf 15 7b 4d e7 fb 07 b7 bf
       -0.18351231742047167 -0.08996557614362317
000060 1e 21 ad 9d 3c 15 45 3f c8 c9 06 46 6c b0 ce 3f
       0.0006434007621942993 0.23975900096190927
000070 18 04 20 61 b8 de d2 3f b1 fa fa 5d 77 5a e3 3f
       0.2948437641608179 0.6047932467989395
000080 c4 e3 fd d0 e8 51 e7 3f aa 03 89 c8 5b 2f e2 3f
       0.7287487108106849 0.5682810703948367
000090 d8 8e 97 64 85 ed e4 3f 4b fa 59 75 4d 8f e0 3f
       0.6539942707717854 0.5174929897328381
0000a0 31 55 af ce 8c 3f d9 3f c1 db a9 a7 0b eb c8 3f
       0.3945037859351315 0.1946730202359657
0000b0 50 c2 d5 20 76 75 a4 3f dd ec d9 85 5c d5 b1 bf
       0.03995865965669465 -0.0696618868623093
0000c0 a8 b0 74 8a 42 1f d5 bf 09 c1 d8 ba 70 14 d4 bf
       -0.330032954417002 -0.31374758002040487
0000d0 4c fa b0 61 6e 68 ce bf 49 64 2c 05 de ea c0 bf
       -0.23756198663791606 -0.1321675801525848
0000e0 93 51 d7 63 98 05 c5 bf f3 ae 85 08 56 95 c7 3f
       -0.1642332541947665 0.18424487510798535
0000f0 36 76 a2 dd f3 8d ea 3f 39 0c 94 96 39 5b ef 3f
       0.8298281983185862 0.9798858586294791
000100 5a 7a dd 22 67 86 ed 3f 75 97 a1 19 9b 74 eb 3f
       0.9226566010436941 0.8579841137513841
000110 3e c0 20 04 76 31 e6 3f 32 e0 10 36 f4 c8 de 3f
       0.6935377197860431 0.4810152557361135
000120 37 61 86 cd 6c c0 d4 3f 25 61 0a 83 28 51 85 bf
       0.32424469061654143 -0.010408703326263489
000130 74 db f1 af 4f ba c4 bf 9f bc 8b f7 72 4d d1 bf
       -0.16193576899578555 -0.27035211729430303
000140 45 21 5e ea 83 1a df bf c2 5c 79 cc 1a e1 db bf
       -0.48599336516828756 -0.43561429947062547
000150 77 2a 74 eb 11 90 d4 bf 46 24 e7 b6 f9 df b0 bf
       -0.32129333489925876 -0.06591759410288586
000160 b0 16 ac 4c 08 fa c4 3f d8 7d e5 13 2a 45 ed 3f
       0.16388038390885162 0.9146929157831734
000170 ed 70 51 49 6d 11 f2 3f 7e d4 c2 7e 33 9f f1 3f
       1.1292546142568043 1.1013674689868647
000180 2a 7f 94 8f d0 91 ef 3f 77 bb d2 68 55 c3 e9 3f
       0.9865496448801185 0.805094437344322
000190 a7 22 df 21 1a 95 e1 3f b2 96 7e 25 fa 72 d7 3f
       0.5494509374194266 0.3663926473767375
0001a0 52 52 aa 70 f7 be b8 bf 1f 37 db 1f d7 9b c7 bf
       -0.09666391850107317 -0.18444336944087866
0001b0 ae 4a 28 e5 92 1b dd bf d9 40 51 49 10 63 e0 bf
       -0.45480797175074883 -0.5120927268963228
0001c0 c8 b5 c3 39 43 9a e1 bf aa d8 2b 8e 20 3f e0 bf
       -0.5500808838093514 -0.5077059532911978
0001d0 b6 b9 0f 3a a5 aa d2 bf 28 e6 32 d7 ef 24 8c 3f
       -0.2916653697019699 0.013742326502654015
0001e0 13 91 b2 58 5d 97 f0 3f 5f e0 a6 3c 7a 19 f3 3f
       1.0369542565104595 1.1937200898373914
0001f0 bc 9d e6 c8 ab b8 f3 3f 95 05 01 23 8a fb f1 3f
       1.2325857017220718 1.1239110343306937
000200 2e aa 2f 1e b1 c7 ee 3f 16 68 65 62 fa 4d e6 3f
       0.9618764485906632 0.6970188066291054
000210 d5 f4 4b 8b 96 e5 d5 3f 50 62 72 a9 1b 89 93 bf
       0.3421379432982808 -0.01907771321984547
000220 b7 93 63 d7 ed b7 c9 bf 3d fe c8 63 7d 13 e2 bf
       -0.20092556969680483 -0.5648791264465626
000230 d7 c3 56 14 de 89 e2 bf b1 45 77 1e 98 b1 e5 bf
       -0.5793295285458225 -0.6779289813077211
000240 31 68 3d 1b e3 1f e5 bf 99 ca be fe 09 7f dc bf
       -0.6601424724606259 -0.4452538478609909
000250 85 a9 0a 5d 31 cd a1 bf 69 75 50 5c f7 84 ee 3f
       -0.03476862202417678 0.9537312319768435
000260 85 e0 f0 04 83 57 f4 3f f9 32 27 96 37 08 f4 3f
       1.2713651841168325 1.2520061364513693
000270 f4 d8 d1 64 49 e7 f2 3f b9 89 88 91 db f5 ed 3f
       1.1814664781828101 0.9362619249771377
000280 a5 dc cc 1c 1d bd e4 3f 9e b5 d1 8d fd eb df 3f
       0.6480851709847185 0.4987787136986642
000290 de 8f 7a d8 72 f9 90 bf 37 30 42 6a 55 d7 c7 bf
       -0.01657657095223885 -0.18625896156697916
0002a0 aa f5 ef 4a f0 8f e2 bf d4 6c a5 f0 25 9f e4 bf
       -0.5800706351871459 -0.6444272709008154
0002b0 cd 51 23 27 f5 18 ea bf 47 b9 b6 09 29 a9 e7 bf
       -0.815546585503904 -0.7393994512292829
0002c0 0d 38 0e 15 ce 35 e1 bf d5 fa e4 46 dc 4b c2 bf
       -0.5378179942360944 -0.14294007741587814
0002d0 0d 52 1b a9 75 77 ed 3f 13 29 79 4a 8e 8a f3 3f
       0.9208324721208229 1.2213271054375283
0002e0 71 7d 43 a5 d7 ba f4 3f ad c4 04 23 dd 8c f3 3f
       1.2956158118830354 1.2218905799784736
0002f0 b5 49 91 8e 39 b3 ec 3f 22 2d 17 ea 2c 81 e7 3f
       0.8968780312082375 0.7345184871750556
000300 5a 81 cd 87 bc f4 d9 3f d6 3a ae 3d 93 52 9d 3f
       0.4055625272940425 0.028635311736759338
000310 66 51 b4 ac f2 8a d3 bf e9 0c 90 09 4b 44 e4 bf
       -0.30535570970211834 -0.6333365618487764
000320 ab 62 de a6 25 54 e9 bf 93 68 c2 9a e0 4a f0 bf
       -0.7915218600420152 -1.0182806058205969
000330 93 17 74 13 8c b4 ed bf 73 b8 d0 e2 52 25 eb bf
       -0.9282894496870874 -0.8483061246859179
000340 36 8c f9 bd 1a 83 da bf ed a9 a9 3c 40 bc ee 3f
       -0.4142519812796225 0.9604798493213004
000350 67 77 6e a9 bb ac ef 3f f8 12 93 7d 31 23 f2 3f
       0.9898355778893632 1.133592119718001
000360 38 5d d8 8d e1 c8 f2 3f e8 c4 7a fb 3c 28 f0 3f
       1.174043230135636 1.0098237822933758
000370 ee 4d 45 59 dd c6 e7 3f 2b 17 58 f5 57 5e d8 3f
       0.7430254691666371 0.380758275598384
000380 24 ee 66 c4 87 95 8f 3c b5 f3 84 8d 02 b6 d8 bf
       5.4789684756152574e-17 -0.3861090070748177
000390 d8 b6 fd b0 ba 50 e4 bf 41 0b 25 90 f7 b8 ed bf
       -0.634854646382986 -0.928828984768508
0003a0 b8 e7 d9 cc ba f5 f1 bf 22 2c 3a ba e8 3d f2 bf
       -1.1224925996780097 -1.1401145243169215
0003b0 95 c9 92 78 e1 23 f0 bf c0 3b d5 0d 35 80 e5 bf
       -1.0087599477670655 -0.6719002981352489
0003c0 8c 50 7a 13 2e 5c d8 3f 15 97 ca 17 91 a3 ea 3f
       0.38062621976974564 0.8324666466403153
0003d0 47 0f 78 cd c6 d4 ef 3f 2f 95 8f 54 c6 e8 f0 3f
       0.9947237027231289 1.0568297675284375
0003e0 d0 f4 ca 24 9c 23 ea 3f fd 26 09 e7 1b 17 e7 3f
       0.8168469160661065 0.7215709221283927
0003f0 5d 70 0b 58 48 8c d5 3f 5a 39 e1 f3 62 dc 97 3f
       0.3366871700106964 0.023301645407906114
000400 7f d1 78 65 29 75 d1 bf c2 5b 5f bf e7 d0 e5 bf
       -0.2727759829461078 -0.6817511308425923
000410 2c ee 39 d0 08 fa ea bf 5a 07 c0 2a 4c 8e f2 bf
       -0.8430217806739555 -1.159740607254625
000420 6b 5b c6 a9 e6 13 f3 bf ed bf 5b 45 1b 6e f2 bf
       -1.1923586494283096 -1.1518814763367076
000430 46 0c 6b 54 bf fc ef bf 8f 90 08 02 4d df ce 3f
       -0.9996029518882856 0.24118959998407205
000440 99 ed c0 11 6c 93 ea 3f fa 6c 64 69 dc ed ec 3f
       0.8304958674192903 0.9040357645457384
000450 cf 60 ca ab ef 11 eb 3f 6c c7 e5 13 47 59 e7 3f
       0.845939479378126 0.7296481503128525
000460 bb 76 15 dc fe 9b e5 3f d6 a6 93 79 8d 9b d1 3f
       0.6752924250137861 0.2751191794655886
000470 12 d6 94 20 13 e9 a1 3f 31 4a 6e 57 39 38 d9 bf
       0.03498134396287979 -0.3940566400353048
000480 f3 50 8e 73 33 d6 e4 bf 9d f0 7a b5 1e 26 ed bf
       -0.6511475808097472 -0.9109033150230236
000490 2b 38 fa 60 ad ad f2 bf 43 e0 3c 0f c6 e3 f2 bf
       -1.1674016750507785 -1.1806088061548656
0004a0 d3 0e 3c c0 a5 0d f2 bf 78 e7 38 47 fc 82 ed bf
       -1.128331900516902 -0.9222394362507051
0004b0 7f b7 91 08 ff 03 8e bf c7 6b 2b 4d 2c 69 e0 3f
       -0.014656059693347377 0.5128385073870668
0004c0 ff 10 b0 c7 7b 54 e8 3f 28 d4 72 92 fa 3f e8 3f
       0.7603129291678953 0.7578099117587316
0004d0 5e 0b f1 c4 72 94 e5 3f c4 59 fe 49 20 c7 e0 3f
       0.6743711325183133 0.5243073888003029
0004e0 ca 44 26 cf 34 21 d4 3f cb 75 53 eb 87 bd a3 3f
       0.314526750845357 0.03855538127548249
0004f0 13 f0 f4 ff d1 d9 d9 bf af 4e 58 82 70 0d e3 bf
       -0.40391969676761724 -0.5953905626106087
000500 78 2e 46 6c ab 06 eb bf a9 51 00 01 ae 66 f1 bf
       -0.8445641627053666 -1.0875682868109868
000510 24 6a 78 cc 2c f7 f2 bf 86 11 cb 99 5c db f1 bf
       -1.185345457756406 -1.11605510783656
000520 e6 27 e5 4a d3 19 ef bf b1 e7 c8 76 b1 55 9b 3f
       -0.9719025099559502 0.026694081187293942
000530 4d b6 dc fe c0 b0 d6 3f 19 94 3b 8b 1e 43 e4 3f
       0.35453820122606744 0.6331932753934125
000540 5c e4 89 91 25 f5 e3 3f b0 60 a2 6c fa 97 e3 3f
       0.6236751406241967 0.6123020288241801
000550 f4 a8 5f f1 ec d0 e2 3f 60 ff a9 7f 3d 71 cb 3f
       0.5880036081628348 0.21439331754299484
000560 fa 10 f1 e7 ad 89 b7 3f f7 7a 64 d6 23 93 d5 bf
       0.09194456970823586 -0.33710571228759484
000570 af b7 61 60 62 5d e1 bf a5 56 12 a5 e5 b1 e8 bf
       -0.5426494486289267 -0.771715948491608
000580 25 0f ab 5d 58 a9 ee bf c7 ca e4 a8 42 c5 ef bf
       -0.9581720189530399 -0.9928296374040081
000590 7b 6f c7 cb fa 72 f1 bf 75 85 05 5b f1 39 eb bf
       -1.0905712089652002 -0.8508230951085084
0005a0 ea 4a de d6 3d 7b d0 3f 15 19 89 96 a3 28 c1 3f
       0.25752206786380205 0.13405270433776964
0005b0 ee df e5 d2 da 0b d8 3f b6 cc 56 10 60 43 dc 3f
       0.3757235583830142 0.44161225886928024
0005c0 8a 0b a3 24 b9 21 e1 3f d8 56 c5 07 18 bd d6 3f
       0.535366603428302 0.3552913738143224
0005d0 cd 42 1d b7 40 ae cd 3f 80 b0 07 f6 70 12 b9 3f
       0.23188027325752217 0.0979376412066717
0005e0 11 c7 09 83 d7 77 cc bf ab be 2a 5c 67 61 d9 bf
       -0.2224072828135424 -0.396570053107079
0005f0 53 db 19 27 8a 30 e5 bf a4 c6 b5 0b 6a bc e9 bf
       -0.6621752513591254 -0.8042497853004602
000600 b1 0f 59 8b 03 02 ec bf 11 ea 76 80 82 4e eb bf
       -0.8752458306921566 -0.8533337124893611
000610 62 5d 01 7d 2c 19 ea bf 37 82 5e 61 ed 3d ca bf
       -0.8155729714880346 -0.20501487020830364
000620 c2 11 d9 a0 b1 6d 7d bf 5d 86 37 22 c9 64 d4 3f
       -0.0071846903425165105 0.3186514696263652
000630 c9 34 1b d1 d6 76 d4 3f 70 e8 10 1c d4 24 d6 3f
       0.3197533647588214 0.3459978365023124
000640 64 a5 da fa 2c 73 d7 3f c8 35 06 95 3c dd c5 3f
       0.36640476701230384 0.17081410671782593
000650 c4 b1 8b 50 d7 0d bf 3f a5 7d 49 d5 3c 35 ba bf
       0.12130494800994202 -0.10237484175876561
000660 1f 26 d7 96 18 ca d6 bf e2 e6 40 74 f8 5c de bf
       -0.3560849640894918 -0.47442447045214753
000670 07 62 c3 f2 70 6f e3 bf 5c 7d 01 51 09 c1 e2 bf
       -0.6073536626309427 -0.5860640127320198
000680 b7 c9 c0 b0 98 ad e6 bf ed 7d c1 df cd 71 e3 bf
       -0.7086909725388101 -0.6076421137076388
000690 1d 41 c9 e5 6a 01 d1 bf 19 f3 a4 5f 2e 1d b5 bf
       -0.2657115215306634 -0.0824765189654041
0006a0 7e 51 f9 ff ed 26 a3 3f 33 fb f4 21 37 b3 d0 3f
       0.0374063849418773 0.26093843761548213
0006b0 e8 4e 7e e6 d0 3f d1 3f 52 15 07 4e 29 54 c6 3f
       0.26952002057190194 0.1744434004778364
0006c0 f6 0a ba 54 d1 d5 c1 3f 2d 20 e5 3c b4 d6 c5 3f
       0.13933769833609916 0.17061474774732358
0006d0 7a 95 16 dd ee 5e 7d 3f ce fd 45 2f f6 b3 ac bf
       0.007170613347090233 -0.056060498495749664
0006e0 a3 43 b7 b1 26 52 c6 bf 7c 7e 99 1f 45 47 d0 bf
       -0.17438205411465643 -0.25434997640511603
0006f0 c2 4b b9 f4 c0 10 e2 bf 5f d0 42 90 5c 98 dd bf
       -0.5645451335679967 -0.4624244126127958
000700 44 03 f7 aa c9 cb de bf 6d 82 1b fa b1 ad e0 3f
       -0.48118821807661427 0.521203030100947
000710 d7 04 89 c7 fe 9b e3 3f 73 b7 ec 3e 9a 44 e0 3f
       0.612792386739012 0.5083743313787025
000720 a0 4d c7 26 33 45 dd 3f f1 9c 5a 23 79 11 e2 3f
       0.4573486212441029 0.5646329584605195
000730 ef ef 1e 6a c7 9b d6 3f 1b 7d b9 8b 6c 09 cd 3f
       0.35325799334873315 0.2268500978707174
000740 26 c8 08 20 00 df ca 3f 27 56 88 f9 e4 20 bf 3f
       0.20993043483901025 0.12159567920783641
000750 23 4a a6 bb a2 a8 c2 3f 8d 75 17 42 39 14 c5 3f
       0.14577135241104697 0.16467967726832136
000760 9c 63 be 3e fb 36 c5 3f ae 85 cf 8d 14 21 bc 3f
       0.1657403999677428 0.10987976514981909
000770 e2 48 ef 53 91 36 d8 3f 0d 24 0b ac 64 87 dc 3f
       0.3783305473017561 0.44576374817967307
000780 da 77 1e 80 16 71 e4 3f 54 a0 e9 b2 0c c3 e8 3f
       0.6388046743702447 0.7738097662340899
000790 46 5e 04 6e 16 d8 e6 3f ec 71 ea 5a 79 84 e6 3f
       0.7138778828402301 0.703671147890018
0007a0 45 aa 47 4a 65 ef e5 3f df f3 d8 cf fd e8 e1 3f
       0.6854731035976519 0.5596913394471094
0007b0 9e 54 df d3 ad 48 da 3f 24 af c7 18 5f 35 d4 3f
       0.41068597498571957 0.3157575361244531
0007c0 2e 99 8c 5c 5d db c4 3f 44 37 5f f1 8b 0d 90 bf
       0.16294447916988858 -0.015676676375554935
0007d0 f2 6e 73 de 7f 57 ad 3f f8 ba 41 20 00 64 95 3f
       0.05730819311585646 0.020889284104153
0007e0 68 87 34 4f 22 54 b3 bf cd 51 f7 9b 7f 29 d1 3f
       -0.075502533280568 0.2681578658205382
0007f0 e4 3e 23 5a 7f 5e d2 3f 54 79 78 ac 69 04 ec 3f
       0.2870176677943006 0.8755386704031403

sampling_frac f8 []
000000 09 d7 a3 70 3d 0a b7 3f
       0.08999999999999998
