figs/grid_search_recon/skmodel/sv-depolar-0.001-0.02-p=2/recon-cs_seed=12-sf=0.070-skmodel-sv-depolar-0.001-0.02-n=12-p=2-seed=5-12-15.npz (npz, 248463 bytes, 2 tensors)

recon f8 [12, 12, 15, 15]
0.3355329874452267 0.4240158408180524 0.277385349598114 0.1595749689902551 0.03232778244762503 1.341724449167921e-06 -0.1684890014168098 -0.033410922943617964
-0.16689493067578187 -0.24795046927053113 -0.17914768186855096 -0.13750300302218185 0.04743699470488285 0.13494513046960238 0.20453614032672193 0.4110326446308561
0.6454744400965295 0.4816808464246054 0.6455242099712354 0.35423271225252045 0.29737782300461896 0.07351893617880709 -0.05104448528730723 -0.23898323532732801
-0.5198551093234853 -0.401260998106625 -0.36493304955429967 -0.12283637956750265 0.07997502188315363 0.07654893904432047 0.5841939069876556 0.8682033842784582
0.7979643827444779 0.7359508535130086 0.5857298255833364 0.3712224911874314 0.12587349014657298 -0.09986157927413611 -0.2770197667675215 -0.516776519870939
-0.48455348731509745 -0.412446905894359 -0.3672074742966248 0.01949905869153466 0.125235215241102 0.6824612669209869 1.023293301520769 0.9692792452490917
0.9866515828383071 0.7877110200592456 0.48472927231588453 0.266441080606198 -0.14513326349079828 -0.2762643663059038 -0.6949015587892694 -0.5310616987377046
-0.6651849712925488 -0.6473256578399699 -0.19159234393373786 -0.08835908438771026 0.8878720861441297 1.1040144139123105 1.1792209441921202 1.0941629569617164
0.92819652894443 0.6186899879086014 0.345702491023664 -0.07476715419755509 -0.31225531090506015 -0.7060626925292596 -0.592509746524056 -0.8098724735970255
-0.6241959093498255 -0.33198073055125643 0.06612333549731851 0.8330560939729287 1.1249645717102714 1.175433262858792 1.2626914312850948 0.9120041419563338
0.7303850010044992 0.4290465704203217 -0.05226239457843844 -0.28607147750904766 -0.7287701679803951 -0.7528393302108208 -0.9094200324265365 -0.7951526366471768
-0.4799877422488638 -0.1981289948788249 0.8319290929696748 1.091772271922817 1.1480303403669256 1.2333119279601341 0.878976385362439 0.8379933231165876
0.3926138275900218 -0.07833982991839332 -0.5112593409997241 -0.8591044255469991 -0.7478545948176721 -1.0665834150597875 -0.9367884888834442 -0.65934239967572
-0.3385105092285106 0.8895308993892395 0.8274968627084877 1.0672804725284248 1.1769513539748617 0.9457636142568975 0.7276648985765334 0.3305172091286688
1.0467283057891835e-16 -0.39461823427870235 -0.6747721734278369 -0.9125802720449382 -1.1518127590412814 -1.1459950814809243 -0.8039850687139539 -0.7039891427000698
0.2512752446962495 0.587609231688062 0.8329625815730877 1.0389049320790218 0.7896041370809365 0.6790683389257406 0.4048121506714083 -0.02960505339208449
-0.42944347368791735 -0.7989623654896766 -0.9969605307480323 -1.2966772438307135 -1.2359819503105154 -1.0861818253086208 -1.0550762632144446 0.16077112127097237
0.39521274829024067 0.7382975924320205 0.864042350922317 0.6549961968973368 0.6850977724661347 0.26453288719660956 0.049117199270048484 -0.451193792016444
-0.688760404873452 -0.9213906927451236 -1.2231656258590626 -1.224237832691531 -1.1834860714904671 -0.8815505320453257 -0.09422883823062563 0.20056510434966535
0.6756694124805637 0.8964547452493171 0.6487151196169002 0.6109159997827703 0.28591245541662813 -0.030093541169021125 -0.49087072946244076 -0.7171336799919125
-0.8535448246201348 -1.1810407893644905 -1.2045544282261527 -1.2462380051467212 -0.9524645857886885 -0.043831497618119 0.07713915654392846 0.4409205573341691
0.6346626685053914 0.556691622713737 0.6216568192724442 0.09477385357614469 -0.004145744788801083 -0.33385185425369235 -0.5754813057028846 -0.85004216569683
-1.0370699102280156 -0.8861969946720146 -1.1043346526694755 -0.7308421916071184 0.193393408273531 -0.08438780906201658 0.30162522419097104 0.4157434131932145
0.4549038323906271 0.29975631388521456 0.21182607563047942 0.00015341214147934643 -0.15511607605803066 -0.4583631329539285 -0.6545491577178507 -0.984845913418638
-0.9077291533145095 -0.8538505320024944 -0.7472294162121296 -0.2569227495239064 -0.24633284657236332 0.18801960658981623 0.24019728899053086 0.2791747105403717
0.3506906710507918 0.21070317752722176 -0.03626976061678408 -0.1352785650979065 -0.3484550742005613 -0.5280571463968295 -0.5901894252599806 -0.5900642522843139
-0.7396007008563238 -0.4847570068852457 -0.30169342742981853 -0.3019904961127631 -0.12297641693742921 0.10733697511525057 0.13403144598862485 0.1249010992164587
0.0358227445159478 -0.04124522407219188 -0.047226588335252 -0.0711483158366355 -0.16413505223856864 -0.19854279681396653 -0.6089096034466451 -0.4884606764026762
-0.42504637010921165 0.4530929735152921 0.5168065780483274 0.3101133409875181 0.3248647602734045 0.45379011818834747 0.3506833072682955 0.13064433429467529
0.2765888329088211 0.06456278233498396 0.2206058199301678 0.18318540507269532 0.13912516352440524 0.08586626429544687 0.3723923797497868 0.40707167888850987
0.5573081810953114 0.6260146152168629 0.5112965024714378 0.6578916935785296 0.5583141847455523 0.49601596861718505 0.404515060761857 0.21876261152524873
0.1434438155658972 -0.09124720516913654 0.024298193077766372 -0.06621364794030041 -0.04002776676863051 0.23012704621988936 0.2593557988251921 0.8073191313610643
00000000: 819c f359 5f79 d53f a12a 5356 1323 db3f
00000010: 9475 3a7b aec0 d13f db63 89dc f36c c43f
00000020: d1c0 ba60 448d a03f 8fe7 14a2 a982 b63e
00000030: 1d13 692f 0c91 c5bf c778 be8a 3c1b a1bf
00000040: 2072 8f26 d05c c5bf 7dbb 454a d7bc cfbf
00000050: 32cb 63ad 4fee c6bf f380 8aca b299 c1bf
00000060: d388 c169 a949 a83f e289 0fcd e145 c13f
00000070: c3d3 c680 3d2e ca3f 64c9 91dd 5b4e da3f
00000080: ccca 5303 baa7 e43f b835 a0e6 dbd3 de3f
00000090: 4349 5363 22a8 e43f ad11 93ae bfab d63f
000000a0: ad12 17fe 3c08 d33f ee51 8612 23d2 b23f
000000b0: 7378 e6b5 8022 aabf 70f6 02ae 0097 cebf
000000c0: f27d a62e a7a2 e0bf 37cf 019c 42ae d9bf
000000d0: 4b2d 4426 105b d7bf 1c60 0079 3472 bfbf
000000e0: df2a 7c37 3e79 b43f 8825 bd15 b698 b33f
000000f0: 301a a16b b7b1 e23f 7814 b876 52c8 eb3f
00000100: dd54 e899 ec88 e93f 30a7 e9cd e88c e73f
00000110: c782 a579 4cbe e23f 7d23 ccfa 1bc2 d73f
00000120: cf73 ce5d 9f1c c03f cafc 1b49 8790 b9bf
00000130: de2b a71d b1ba d1bf cdf6 85e9 6e89 e0bf
00000140: 0d97 4ba1 ec02 dfbf 35c5 09b5 8765 dabf
00000150: 52d9 3cc7 5380 d7bf bb1d 88ad 8ff7 933f
00000160: 974f e220 b507 c03f b2cb c602 b9d6 e53f
00000170: 0cf6 03cc 685f f03f 4a2a 61e8 5504 ef3f
00000180: 0cca 1a57 a692 ef3f e84d bbbd ed34 e93f
00000190: b5ad 00ed cd05 df3f e6ed e0e3 5e0d d13f
000001a0: f99a 200e ba93 c2bf 9a60 95bc 50ae d1bf
000001b0: 050f 9e31 a23c e6bf 9a92 871a 75fe e0bf
000001c0: 12c0 2ffe 3149 e5bf 7319 494c e4b6 e4bf
000001d0: 6e00 ae11 1986 c8bf a2ed bf71 b39e b6bf
000001e0: 8fa6 a0b8 7269 ec3f 420e a104 0baa f13f
000001f0: ad03 e1c7 16de f23f da52 4a04 b181 f13f
00000200: 2677 0235 c9b3 ed3f 34c3 0df2 4ecc e33f
00000210: 66e9 4557 fd1f d63f d8ee 17b2 f023 b3bf
00000220: 1dbb 15b3 fdfb d3bf 0dd8 aac9 1098 e6bf
00000230: eb39 fcff d6f5 e2bf 84f4 80ad 79ea e9bf
00000240: 1c8b 1eb3 69f9 e3bf 5eab 271b 2c3f d5bf
00000250: 9fa2 767b 75ed b03f 851c eb40 65a8 ea3f
00000260: dc77 cad9 daff f13f cebe e91b 93ce f23f
00000270: 4ff1 24ee fb33 f43f 9c9b 704f 232f ed3f
00000280: 3cb4 995d 505f e73f b8a3 1abf 7f75 db3f
00000290: 26d2 0cf7 22c2 aabf 8910 0ebe fe4e d2bf
000002a0: d2d6 b8d0 1552 e7bf 95bc cc81 4217 e8bf
000002b0: ec2c 330a f819 edbf 1a4a 37f1 e371 e9bf
000002c0: d324 dc81 1eb8 debf 766b b278 4a5c c9bf
000002d0: 8ca9 dcc2 299f ea3f ee68 a933 e677 f13f
000002e0: 2e11 eb0f 555e f23f 10b0 c549 a5bb f33f
000002f0: a4d0 a215 9320 ec3f d7aa a15f d7d0 ea3f
00000300: b937 5dbf 9520 d93f 8344 793f 140e b4bf
00000310: 56c9 ab8c 3c5c e0bf e257 7290 c87d ebbf
00000320: abf7 5cc2 6cee e7bf 5a34 62c5 b910 f1bf
00000330: c3c1 60da 2bfa edbf ea25 6f3b 5519 e5bf
00000340: d547 9ffb 27aa d5bf 6210 3581 0977 ec3f
00000350: 8f04 5cb3 da7a ea3f 45b4 52b0 9413 f13f
00000360: 14e1 64f1 cad4 f23f 425d 1f0e b243 ee3f
00000370: f3aa bae5 0749 e73f c442 fea6 3127 d53f
00000380: 67fa fedd 7d2b 9e3c 7c77 a8d6 6c41 d9bf
00000390: e4f2 23d0 bb97 e5bf a30c ed8a db33 edbf
000003a0: 522a 3337 d36d f2bf 1866 45f0 fe55 f2bf
000003b0: eb28 13e5 3eba e9bf 1b59 143d 1487 e6bf
000003c0: 4ef2 90c3 e414 d03f 77b1 1de0 b1cd e23f
000003d0: 98bd d424 a1a7 ea3f 85eb 2ec7 5a9f f03f
000003e0: c790 31e5 6f44 e93f 56ec 6d86 edba e53f
000003f0: 4e0e 0a39 71e8 d93f d61a 7680 c950 9ebf
00000400: 7018 be7a 007c dbbf 2b6a d085 1991 e9bf
00000410: 34e6 5ec5 19e7 efbf 7b86 3ba3 30bf f4bf
00000420: b87a 7002 95c6 f3bf 9e5c 9331 0061 f1bf
00000430: bcab d4a5 97e1 f0bf 8002 00ea 2594 c43f
00000440: 769b 3769 2a4b d93f 0cc1 c645 22a0 e73f
00000450: f43f f224 3ca6 eb3f c4b5 9595 baf5 e43f
00000460: 72be e929 52ec e53f 1175 ce58 1bee d03f
00000470: 186b 12b9 e325 a93f 499b 37ed 5be0 dcbf
00000480: 1dc2 b642 530a e6bf 1cbb 8555 087c edbf
00000490: 2a7f 8a1e 1692 f3bf 0bfa de68 7a96 f3bf
000004a0: 502b 4517 8fef f2bf 8ffe 1c76 a935 ecbf
000004b0: 8565 8a92 611f b8bf 2c48 f309 1eac c93f
000004c0: a95e b075 159f e53f 1313 a6dc c1af ec3f
000004d0: 2d9c e535 46c2 e43f cd71 f5b5 9f8c e33f
000004e0: 7824 62c1 634c d23f 8e2d 915c d7d0 9ebf
000004f0: cfb5 6610 6d6a dfbf d39c cd54 c2f2 e6bf
00000500: ad3b 6d3c 3d50 ebbf 0c00 d906 8be5 f2bf
00000510: 9ebb 37dd da45 f3bf fc32 3243 97f0 f3bf
00000520: 77f0 d102 977a eebf 70ea 9b01 1571 a6bf
00000530: e9e1 984a 64bf b33f 2e99 78db 0a38 dc3f
00000540: bb20 a715 284f e43f cd67 30f3 6ad0 e13f
00000550: 7789 83d7 9ce4 e33f 731c a069 1943 b83f
00000560: bc41 91e4 20fb 70bf d8a0 ee2a d45d d5bf
00000570: 2b81 6ec5 576a e2bf da71 bca0 8b33 ebbf
00000580: 0d85 419e d697 f0bf d5c0 bdcc b95b ecbf
00000590: f0e0 10d0 5aab f1bf 4eaa ef29 0f63 e7bf
000005a0: 43fd e57d 1dc1 c83f 673a 1a80 709a b5bf
000005b0: fe20 63e2 d34d d33f 2c4e cc42 8a9b da3f
000005c0: fb56 bcf6 241d dd3f 3704 3a1b 352f d33f
000005d0: 6def a2e9 1d1d cb3f d20f cc42 a81b 243f
000005e0: 4365 e0f4 d7da c3bf 96ab 6e52 d255 ddbf
000005f0: 71b8 4013 11f2 e4bf fc6e b793 db83 efbf
00000600: 2292 6302 1e0c edbf ebee d359 be52 ebbf
00000610: 48b0 27aa 4de9 e7bf d16d b31d 6c71 d0bf
00000620: c8bc faaf d587 cfbf 9daf a7c6 0611 c83f
00000630: 31ae 66e6 c8be ce3f d008 e99a ffdd d13f
00000640: 7d3a cb48 b771 d63f fb43 525c 52f8 ca3f
00000650: bc9c 5d37 f391 a2bf 1900 79da ce50 c1bf
00000660: 3a44 f482 164d d6bf e230 c619 d8e5 e0bf
00000670: 10f9 fdee d4e2 e2bf bd31 436d cee1 e2bf
00000680: d3d9 c816 cfaa e7bf f60d c540 4206 dfbf
00000690: 8aab 0ef3 f14e d3bf dc74 20f2 cf53 d3bf
000006a0: cfee ece8 617b bfbf 6b85 c59d 6f7a bb3f
000006b0: dd0f 9442 f127 c13f 0c80 5eb8 84f9 bf3f
000006c0: 6044 4cd8 5b57 a23f ff33 0311 181e a5bf
000006d0: 9799 cd58 152e a8bf 600f afa9 c636 b2bf
000006e0: b5f6 be9c 6002 c5bf de0f 96b1 d969 c9bf
000006f0: e7c1 20fe 2f7c e3bf a404 a291 f042 dfbf
00000700: cec3 b9b0 f533 dbbf aeea d2ab 79ff dc3f
00000710: 5968 e2f2 ad89 e03f 580f 66a0 e5d8 d33f
00000720: 58d1 3f90 95ca d43f bc7b 37b5 e50a dd3f
00000730: d31b fe65 9871 d63f 7106 9a1b f4b8 c03f
00000740: 7c0f f2a5 a1b3 d13f c3e2 aabe 2f87 b03f
00000750: 9423 f4be cf3c cc3f 8024 f28d 9e72 c73f
00000760: 16a9 b175 dace c13f f187 fadc 54fb b53f
00000770: 4084 13d9 46d5 d73f bd0d fd5e 760d da3f
00000780: 9b1f 73f7 77d5 e13f 1895 65cd 4f08 e43f
00000790: 7a91 957b 8a5c e03f d55a 87e1 720d e53f
000007a0: 6700 8cb5 b5dd e13f e94a e0c2 b9be df3f
000007b0: 538b 2d23 93e3 d93f d653 0bcb 6900 cc3f
000007c0: 46a1 55f0 5d5c c23f 2887 0d12 fa5b b7bf
000007d0: 40cd 7b22 a0e1 983f a2d3 73ac 60f3 b0bf
000007e0: b007 68fa 847e a4bf b541 b894 cd74 cd3f
000007f0: a2db 7e10 4999 d03f 5330 54ee 8ed5 e93f

sampling_frac f8 []
0.06999999999999999
00000000: eb51 b81e 85eb b13f
