figs/grid_search_recon/skmodel/sv-ideal-p=2/recon-cs_seed=20-sf=0.090-skmodel-sv-ideal-n=20-p=2-seed=3-12-15.npz (npz, 250929 bytes, 2 tensors)

recon f8 [12, 12, 15, 15]
3.277315902382535 3.4220400324079665 2.9534805633479535 2.7350376162319576 2.2586706514447856 1.6197392420507002 -0.02495402783369991 -0.43857161300994785
-0.8502638166417843 -0.8059406248255158 -0.5198507645917363 -0.002304736740326002 0.33416861654585894 0.7681687642337894 1.0234993058976154 3.411050075846696
3.756152710336218 4.785500828884785 4.075661101850578 3.244298605177773 3.0821278791196005 0.5463236405566745 -0.16712934228753376 -1.6692600589908535
-1.0472111975703182 -1.6368340907653116 -1.2595492880518495 -1.0778561283071622 0.14802764442847804 1.1177943225740745 4.5100546137609205 4.530222869497171
4.895868638020493 4.856059727059473 5.04499306036974 2.6303884258784764 1.2069642602330939 0.12257176206868758 -1.082361644329394 -1.3928470433003353
-2.0185233833647347 -1.1619885138533128 -0.9248020571957857 0.3281651588914411 0.6156544390056506 5.9123586911225905 6.196156910743756 5.533096659905473
5.567140908958394 4.460566081168709 3.3837395970008597 1.7230725221568732 0.08464314439721628 -1.4678292696104223 -1.3388312168832264 -1.9500282523126211
-1.6359319870324265 -0.44823266866967026 -0.22534125472232155 0.7477852034546767 6.566393525341606 5.938352375397441 6.5564788272302765 5.542419548730693
5.105236366503166 3.254529265970726 2.169652521175326 0.1725679521051915 -1.4016050353974325 -2.1835731399814304 -2.592462903250852 -1.945515998133344
-3.008437694501077 -0.8681725052414552 -0.2786800558828551 5.308763158589087 5.4676325069646765 6.129024831976133 4.626406203334939 4.7643492405295245
2.60489090577292 2.2658062162944588 -0.04524598608122612 -1.138714930274393 -1.7275667306652998 -3.079917153427417 -2.7739018439831455 -2.1496052818138605
-1.823325319829674 -0.9609547081407266 5.427654419942228 5.103437445567196 5.1181961460070715 5.208407137516895 4.3197993913779555 2.493570189217161
2.043650126501273 0.05288907794320333 -1.7959474681512773 -2.033802730362407 -4.069566522323382 -3.9600451898924462 -3.0220235100610515 -2.418486331154998
-3.7213430540576624 4.684865746391043 3.7363537301841956 5.099004921910277 4.1678522279351435 4.93041224420907 2.2606714595711805 1.9927104107316957
0.014500472347269576 -2.089604009044488 -2.5099365603954276 -4.6706347179107235 -4.503183057514138 -4.979750866217299 -3.9911224249990553 -3.545360684390368
1.7781071413601337 2.8318469784716402 3.154998113735589 3.5394839882948093 3.6536679822891043 2.6062736538076714 1.4498267007508647 0.39742649176191397
-1.244238877285431 -3.0503249643721415 -4.449295326432324 -4.57400194267852 -5.424282925301027 -4.9123559026937915 -5.222928685526802 1.4691720590644923
1.095266915408099 2.9727094917658445 2.8987559980977773 2.497219023304361 1.6143532785373573 1.6329581935228015 -0.04524598608123337 -1.994409443517459
-2.8742612428711807 -5.192910250237156 -5.4723377420284915 -5.558974004942176 -5.745737845395025 -5.816792155202965 0.40367525502331947 1.5262992477354609
1.642370169233159 2.4748983218571654 2.801718307117681 1.2962138819102642 1.5391040284297195 0.5205789691054455 -2.397608918399916 -3.4184669111299892
-5.2688025114622805 -5.558195024287329 -6.304006466987949 -5.775223541178368 -6.262890135312947 -0.9629488230514494 -0.0004991719597809248 1.1223431103838086
1.3630297181666875 1.781777967328968 1.6903280275195978 1.8346812226003506 -0.5511886304442699 -0.9510503685067085 -2.778576606220685 -4.601477087820929
-5.095421736697156 -6.062533571221889 -5.237489985084318 -5.225931592222477 -0.42421640603281346 -0.6934984929632576 0.680611817420108 1.1226819466259927
1.9414833653992858 1.660494419121172 1.362331302198296 0.062070473505164384 -1.3658141591936372 -3.347918110527971 -5.0013406946333285 -5.291681893590827
-5.002383476577208 -4.920272744591411 -3.9656695420864922 -0.500230014813164 -0.1665432591456488 0.3308321352792 1.1622736687556414 0.9285705506186906
0.9551239829945138 1.5749354547850942 0.42998260462627047 -0.6729848980041898 -2.9502455343086402 -3.906579953280588 -4.147050049063396 -4.478615861624243
-3.613565159217282 -3.9500958032797904 -1.2711349455770793 -0.9916286841576338 -0.26966473505417327 0.048487566824549376 0.16191852174969779 0.6629259224772457
1.0837200371568771 0.8307945546744889 0.1339404849469684 -1.6550371918456277 -1.8156644856938418 -2.868995569282694 -2.598966255932305 -3.3584887527700915
-3.211620619510453 3.2712660116001864 4.644226988736195 3.5612921156659927 3.4999183717192217 3.0949647189804788 2.521978971141854 1.4952629511464237
1.0567019714121506 0.2642475023680264 0.7467668132837935 1.3502425923276453 0.93695326002044 1.4932625347853354 1.9761900435495843 2.288366757752429
4.459965455430916 4.179576511727815 4.774109133783536 4.318764896162236 4.38683166330182 3.5067048030063592 2.2447334492552113 1.6652832371272397
0.3830067872448082 0.2412618958505346 -0.1557494587495295 0.7324432156843864 0.6568854402701645 1.4333550378901043 1.2481540700599374 5.1634794652256035
00000000: 5526 5b66 f137 0a40 275c 4686 5660 0b40
00000010: e39b e76a baa0 0740 535e d866 5be1 0540
00000020: 7a1f 23eb c111 0240 477d 0ab2 73ea f93f
00000030: fafe cb75 8c8d 99bf 7a3a b5ab 8e11 dcbf
00000040: f75a ae76 5c35 ebbf b396 44fe 43ca e9bf
00000050: 761b 1712 9ea2 e0bf 8c6e 9e1d 62e1 62bf
00000060: 727f dac3 0463 d53f e92b 06a9 d694 e83f
00000070: 7ef1 e4ce 4060 f03f 313d 469f d449 0b40
00000080: 1368 cdca 990c 0e40 072a 4c54 5a24 1340
00000090: 381c 981a 7a4d 1040 5b93 bdd3 52f4 0940
000000a0: a944 57a9 32a8 0840 581f 27b7 7b7b e13f
000000b0: 69d9 a989 7e64 c5bf ec27 1e09 4ab5 fabf
000000c0: b81c 5987 60c1 f0bf de09 8df1 7830 fabf
000000d0: db1f 7e27 1d27 f4bf 85f5 4d11 e63e f1bf
000000e0: 90b3 dce1 91f2 c23f 12c3 b14c 7ce2 f13f
000000f0: b71b b5c1 4b0a 1240 9653 70be f21e 1240
00000100: 863d 9796 5e95 1340 8f92 cceb 9a6c 1340
00000110: 0757 2ba9 122e 1440 5a66 4716 090b 0540
00000120: 8445 92c1 b94f f33f e883 7fed dc60 bf3f
00000130: b86e 8d71 5a51 f1bf 3fe2 34fb 1949 f6bf
00000140: 3a1a 6e96 ef25 00c0 f03d 9544 8197 f2bf
00000150: d1bd dd7b fa97 edbf 4706 4870 a800 d53f
00000160: f053 25f0 70b3 e33f 1f5f 525b 41a6 1740
00000170: 841d 725b ddc8 1840 769a 3f17 e421 1640
00000180: d1cc 2096 c044 1640 e210 81a2 9ed7 1140
00000190: 2c64 da10 e611 0b40 d3cc 347e b491 fb3f
000001a0: 2543 0451 2cab b53f cd69 518b 3a7c f7bf
000001b0: 9609 3648 da6b f5bf 0457 1fd3 5033 ffbf
000001c0: 978d ec04 c72c fabf a8d7 3b13 d8af dcbf
000001d0: bb69 bc73 fbd7 ccbf 49a8 283c dbed e73f
000001e0: 8c08 10aa fc43 1a40 ded2 f171 dfc0 1740
000001f0: 5d7b ef95 d539 1a40 a109 ba07 702b 1640
00000200: 83ec 0115 c36b 1440 d4c0 c9a3 4609 0a40
00000210: 480e f1c7 725b 0140 3093 50e7 b416 c63f
00000220: e80d cf66 f96c f6bf 7927 c531 f577 01c0
00000230: ea71 cc30 5dbd 04c0 7b3d 1d62 d520 ffbf
00000240: 727c 2fc8 4711 08c0 cf8c a9b4 11c8 ebbf
00000250: bd1d 84df e4d5 d1bf 2f66 d168 2c3c 1540
00000260: d0d6 4f0e dbde 1540 69d6 e615 1f84 1840
00000270: 2257 b5a0 7081 1240 de2f 3b91 b10e 1340
00000280: 428a 0f0b d1d6 0440 3377 7002 5f20 0240
00000290: 93ff fc5c 7b2a a7bf 51ed 8f25 2d38 f2bf
000002a0: 76d7 1d03 1da4 fbbf a1e1 c29a aba3 08c0
000002b0: 0dc6 3173 f330 06c0 5c98 0541 6432 01c0
000002c0: ee31 aa2b 572c fdbf 48da 8c16 24c0 eebf
000002d0: 1f91 4e0a ebb5 1540 5192 7781 eb69 1440
000002e0: 5774 1669 0879 1440 5a8d 3fae 68d5 1440
000002f0: 00ff dc7d 7947 1140 f4be 67ed d4f2 0340
00000300: 5850 ce3c 6559 0040 74ce 29f8 4614 ab3f
00000310: 26b3 9069 33bc fcbf 5960 ab5d 3a45 00c0
00000320: fd19 4972 3c47 10c0 4d29 2a2c 2cae 0fc0
00000330: 8ba4 7ba9 1a2d 08c0 e711 915c 0f59 03c0
00000340: d0fe d281 4fc5 0dc0 c399 3b72 4dbd 1240
00000350: 096e ab6c 0de4 0d40 9efd d68b 6165 1440
00000360: 312b 5674 e1ab 1040 25b4 c2fc bdb8 1340
00000370: d6de 0eeb da15 0240 9ddc c74f 24e2 ff3f
00000380: b989 1074 6cb2 8d3f 157e 834e 82b7 00c0
00000390: f876 8f9e 5914 04c0 79f4 13de baae 12c0
000003a0: b3b2 5f6b 4203 12c0 1d86 a2cf 43eb 13c0
000003b0: 10a0 0d98 d1ed 0fc0 b2d8 ff0f e65c 0cc0
000003c0: 2cd0 4e79 2073 fc3f 347f 7e63 9fa7 0640
000003d0: 047d aba6 6f3d 0940 ea88 33fb dc50 0c40
000003e0: f9fd 7247 b63a 0d40 353e 5c00 a6d9 0440
000003f0: 0e7b 897b 7d32 f73f 9d9c 2b86 6f6f d93f
00000400: 97a4 6506 67e8 f3bf a934 61c6 1067 08c0
00000410: 0417 f512 14cc 11c0 2f94 4e2a c74b 12c0
00000420: 2ead 2139 77b2 15c0 9287 31a0 40a6 13c0
00000430: 27b6 d66a 47e4 14c0 4810 9e8f ba81 f73f
00000440: eb18 e199 3686 f13f 0925 fde9 1bc8 0740
00000450: 724f 17fc a630 0740 9154 a0f7 4dfa 0340
00000460: 1d22 781a 64d4 f93f 97a6 4ec5 9820 fa3f
00000470: a803 fd5c 7b2a a7bf 53db 6be0 19e9 ffbf
00000480: 1656 b2ad 7cfe 06c0 b953 bf43 8ac5 14c0
00000490: 26b7 4a81 ace3 15c0 c429 7aae 633c 16c0
000004a0: ce71 a5b3 a2fb 16c0 84e7 a829 6544 17c0
000004b0: 3ee5 a1bc d0d5 d93f 6aee 8ec2 b86b f83f
000004c0: b984 4cf1 2547 fa3f 1a6a ca7d 97cc 0340
000004d0: 3f66 ad49 eb69 0640 0ad0 76c4 4abd f43f
000004e0: c2f5 b38b 2ba0 f83f 9362 e939 95a8 e03f
000004f0: 2c01 a995 4d2e 03c0 6f17 0e2e 0559 0bc0
00000500: ad40 2ff7 4013 15c0 806a f879 973b 16c0
00000510: 67f1 a578 4d37 19c0 36cd 3133 d419 17c0
00000520: c470 5612 330d 19c0 0a49 d70c 7ad0 eebf
00000530: 63f9 049f 5b5b 40bf 7cd4 9f0c 1ef5 f13f
00000540: 4608 f03f f8ce f53f 9494 269d 2982 fc3f
00000550: 7e57 db66 950b fb3f f975 9ab2 da5a fd3f
00000560: e8ec b556 56a3 e1bf d3b8 b22e 016f eebf
00000570: 2730 295f 863a 06c0 d5ef 159c e967 12c0
00000580: 69c4 593c b661 14c0 4d33 edcc 0840 18c0
00000590: 3a42 1c93 30f3 14c0 3dea 7e9c 5ae7 14c0
000005a0: 179b 9591 5c26 dbbf 7f47 63c0 2331 e6bf
000005b0: 45e5 226f 92c7 e53f 9417 4958 81f6 f13f
000005c0: 20e3 81dc 5010 ff3f 220e 9598 6291 fa3f
000005d0: f023 54e8 1bcc f53f 12fb 807b b3c7 af3f
000005e0: 1468 a2f2 5fda f5bf e13a 534a 89c8 0ac0
000005f0: 916a 7e74 5f01 14c0 583b 87a8 ae2a 15c0
00000600: b0cc 67d0 7002 14c0 5cae 75fa 5bae 13c0
00000610: ca09 f0f3 b0b9 0fc0 4e34 4360 e201 e0bf
00000620: 1f2d b31d 4a51 c5bf 5b5c 5f8c 5a2c d53f
00000630: 2eeb 4446 ac98 f23f 9ff3 5d96 d9b6 ed3f
00000640: 39c6 d22b 6090 ee3f 4dce f984 ef32 f93f
00000650: acff 2dc2 d584 db3f 1128 f49f 1789 e5bf
00000660: 8b34 a854 1a9a 07c0 0965 94fd ac40 0fc0
00000670: f168 be49 9496 10c0 8917 c446 1aea 11c0
00000680: 136d a6d9 94e8 0cc0 783a 19d4 cb99 0fc0
00000690: 96e6 c098 9156 f4bf 0e71 0714 6cbb efbf
000006a0: a94c 7ce0 2f42 d1bf d350 8cc3 5cd3 a83f
000006b0: 040c c401 bfb9 c43f 9cbb 966c b036 e53f
000006c0: 34bd 59d2 ea56 f13f b3b2 4076 de95 ea3f
000006d0: f392 3a39 f624 c13f 1940 4a47 087b fabf
000006e0: f504 2934 f60c fdbf 2c81 f3f2 b3f3 06c0
000006f0: 3318 05d2 aeca 04c0 0d0d e959 2fde 0ac0
00000700: 3ba7 bf26 66b1 09c0 98b6 c283 8d2b 0a40
00000710: 424a 5f3d b093 1240 014e 82b8 867d 0c40
00000720: 08a1 0934 d5ff 0b40 225c d2dc 7cc2 0840
00000730: 2c08 924f 032d 0440 6682 21d8 98ec f73f
00000740: b657 8d53 40e8 f03f 501a 2e5b 6ee9 d03f
00000750: 5258 1984 83e5 e73f 7c6a fbf9 979a f53f
00000760: 5263 3567 85fb ed3f d7eb 7341 67e4 f73f
00000770: d89e 7b73 799e ff3f e366 0e3b 934e 0240
00000780: 4d76 312f 01d7 1140 be00 b4e7 e2b7 1040
00000790: 6c8a 9410 b018 1340 c084 104e 6a46 1140
000007a0: 20c1 7b99 1d8c 1140 841b 6d3f bb0d 0c40
000007b0: a94e 86cf 36f5 0140 ba9d 2009 00a5 fa3f
000007c0: e432 57e6 2e83 d83f f878 3978 abe1 ce3f
000007d0: 8c76 d927 99ef c3bf 1554 31c1 2c70 e73f
000007e0: b2b9 659d 3405 e53f a9b7 34b1 05ef f63f
000007f0: 766d f466 70f8 f33f 9dd8 3229 67a7 1440

sampling_frac f8 []
0.08999999999999998
00000000: 09d7 a370 3d0a b73f
