figs/grid_search_recon/skmodel/sv-ideal-p=2/recon-cs_seed=20-sf=0.050-skmodel-sv-ideal-n=20-p=2-seed=4-12-15.npz (npz, 251281 bytes, 2 tensors)

recon f8 [12, 12, 15, 15]
000000 83 f2 ba fc 25 1f e2 3f dd 64 c4 c4 18 30 00 40
       0.5663022934091518 2.023484742396802
000010 2b 89 3f e7 34 24 f4 3f be ba 9f fc 88 71 f2 3f
       1.2588395150310798 1.152718531429556
000020 5b 1a ce 1d 67 ba f0 3f 58 9a 26 48 42 88 df 3f
       1.0455084957372012 0.4926915840718826
000030 3e ce 85 2c a7 64 e2 bf 48 5f e7 57 b4 9f fb bf
       -0.5747867459853706 -1.7264903482191176
000040 d5 31 83 45 06 7a e7 bf 2e ce b4 f4 09 ff f6 bf
       -0.7336455686250313 -1.4372653540457452
000050 20 bf 87 b7 22 62 f3 bf f9 50 33 97 81 35 e5 bf
       -1.2114588898802552 -0.662781520188701
000060 57 7c a2 87 76 05 e0 3f c4 95 81 f2 6a 67 ca 3f
       0.5006668709865022 0.2062810596573127
000070 a4 fd df fb 12 cc f7 3f fd 8a 45 6e 6b b2 f0 3f
       1.4873227919450551 1.043559485195771
000080 33 7d 3b df 75 60 10 40 18 c4 ce 9c b0 11 08 40
       4.094199646001743 3.0086376429176305
000090 1a ba 4c 73 4c eb 0a 40 be bf 07 8a 8c 24 03 40
       3.364891911295911 2.3928461822142415
0000a0 cf 75 f8 41 43 e5 fa 3f 09 ef c7 e6 a6 2b b8 3f
       1.6809723450636402 0.09441607603360692
0000b0 32 9f d6 54 30 d7 ef bf eb 0e 3f e6 39 09 f3 bf
       -0.9950181633948658 -1.1897524827954225
0000c0 d0 fb 5f 66 3a e4 03 c0 45 fc bf ff 01 2c 03 c0
       -2.4864395139734157 -2.3964881878341964
0000d0 eb 20 19 1c e0 ad f5 bf 62 67 ee e6 4d 90 f4 bf
       -1.3549500558456724 -1.2852305432083644
0000e0 a1 41 75 85 17 48 dc bf c2 37 65 3d 20 14 f2 3f
       -0.4419001391697979 1.129913558793746
0000f0 ab 38 95 64 0c e6 0a 40 83 5b da 1c b1 4a 13 40
       3.3623283250845666 4.8229412563586065
000100 72 ff 0e 2b 9d bd 10 40 ae 9b 07 d3 fb e4 0e 40
       4.185169861593623 3.8618084418007674
000110 1f dc ab f3 75 e6 08 40 12 03 c4 84 a1 e3 06 40
       3.112529662782904 2.8611479160612214
000120 74 cd d8 c2 60 96 d1 3f 0e cc 24 2c de e1 ef bf
       0.2748033430863963 -0.9963217603857417
000130 ec c4 17 ae 58 70 fd bf 0c 68 bd ca 1a 3b f7 bf
       -1.8399283218862434 -1.4519298476720932
000140 02 72 c9 da 4d 58 08 c0 11 98 92 17 5c c4 eb bf
       -3.043117245934128 -0.8677196941760049
000150 56 36 16 d2 6d 9c d0 bf 4f 0d 2d b4 79 53 f5 3f
       -0.25954766765867043 1.3328797376751316
000160 34 d6 04 8c 37 43 f0 3f 14 0b 0c 21 e9 8a 17 40
       1.0164103955734278 5.885654941902221
000170 5c 63 8e bf aa ef 18 40 78 69 17 f9 3d 97 13 40
       6.234049790445024 4.897697345785097
000180 f4 c1 82 54 68 17 14 40 f1 e0 74 e3 39 f0 11 40
       5.022858925324261 4.484595827110966
000190 04 d1 a0 00 eb b0 03 40 a7 11 f7 33 31 36 ca 3f
       2.461385731609086 0.20477881467207945
0001a0 fc 2b e0 89 8c ea d3 bf 16 70 63 55 22 0d 00 c0
       -0.31119073357029925 -2.0064131422968883
0001b0 93 dd 48 74 34 93 f3 bf ad 8a d8 9b d9 e4 08 c0
       -1.2234386961334607 -3.111743180795506
0001c0 5c cc 93 b8 69 19 f9 bf b7 a3 c1 89 c1 93 b9 bf
       -1.5687043390323856 -0.09991082776254144
0001d0 18 66 5e 26 6e b3 c5 bf c2 cb 08 fa 6f cd ed 3f
       -0.16953827737306493 0.9313278087123467
0001e0 37 32 7e 1a 11 83 17 40 c6 e3 06 67 c4 51 1a 40
       5.8779949321292895 6.579850778384701
0001f0 12 de 34 b4 32 f9 13 40 4d 2b d7 7b f1 ae 11 40
       4.9933574826495875 4.420843062408335
000200 a6 9f 08 64 1e e1 13 40 ad 92 3a 47 73 a8 fd 3f
       4.969842494036049 1.8536255628943465
000210 78 8d e8 16 2d 88 d8 3f 60 ea c2 9d fa fc e6 bf
       0.3833115314211777 -0.7183812218930363
000220 a7 1a 02 3b a4 4c 02 c0 50 e9 a6 ca b5 fd f8 bf
       -2.287422619821274 -1.56194094811379
000230 6b b0 c8 6e a4 08 0b c0 ef a9 eb cd 62 c3 d0 bf
       -3.3792198805804694 -0.26192541226796967
000240 5b 11 7c 96 e6 d3 0a c0 a7 cd 6d 4a 75 ec dc 3f
       -3.3534671551334845 0.4519322611660876
000250 0f c2 30 9e 72 c4 f3 3f 7d f7 20 57 01 ce 13 40
       1.2354608706774604 4.951176988017207
000260 2a 03 73 78 35 b7 16 40 92 da 18 a0 24 1f 10 40
       5.678914911289022 4.0304131522340345
000270 88 8d b4 ec c1 63 10 40 cb 48 e3 76 25 91 0e 40
       4.097419451255867 3.8208722389327696
000280 68 03 4a 32 b2 5e 03 40 d3 67 66 07 1a b0 f3 3f
       2.421238320239741 1.2304935730994557
000290 74 2e 61 81 1a ae d8 bf 07 26 0f 08 5e 2a f1 bf
       -0.38562643656471285 -1.072843581658505
0002a0 a2 48 0d 38 be 82 eb bf 3b eb cf c3 1f 8c fa bf
       -0.8597098440898387 -1.6592099808610346
0002b0 99 a8 d8 cd ad a2 f3 bf ee 6a f7 31 94 d0 fb bf
       -1.2272165337440468 -1.738422579938454
0002c0 e7 76 84 f4 ef 6d f1 bf ca 3e 71 fc 3d 42 da bf
       -1.0893401671850655 -0.4102930989510979
0002d0 71 62 02 9a 6e 44 0e 40 e1 16 6a da ec 20 12 40
       3.7834140808084205 4.532153523183042
0002e0 dc 87 2e 0f f1 6a 11 40 54 a3 c2 ee 06 eb 08 40
       4.354435193266877 3.1147593167446903
0002f0 5b 43 cd 15 da 95 11 40 c4 93 cf 20 f5 e9 f7 3f
       4.396339741376177 1.494618538062455
000300 ba a9 bd 6e 53 4f f4 3f 5f 9b 7d be 11 46 d5 bf
       1.2693666768851544 -0.3324016914615892
000310 27 03 25 6f c6 09 f0 bf 8e c3 24 0b c3 b6 d2 bf
       -1.0023865071854716 -0.29240490043871936
000320 75 4e 20 23 90 9c 05 c0 54 db 23 24 9b 02 f7 bf
       -2.701446794913688 -1.438136235401278
000330 b0 e9 d6 77 fe 55 00 c0 77 f6 f0 b5 e5 df 04 c0
       -2.0419892656766123 -2.6093248571549412
000340 c2 3d aa 75 c3 ba f6 bf 3f 12 ae 09 ec 95 02 40
       -1.4205965610780003 2.32320411264871
000350 5f e7 18 77 2c de 08 40 d1 05 e9 96 ae 8f 06 40
       3.1084832481837306 2.8201572217810527
000360 ea 28 05 d9 09 e5 00 40 fb 25 d0 44 c3 84 04 40
       2.1118351893138554 2.5648255706807936
000370 b7 62 fa 4d 99 64 d3 3f 1d 5f 7b 7c e4 24 f2 3f
       0.3030150662903383 1.1340069639754298
000380 ba da dd 51 81 d5 ed bf 10 cc 25 4b c0 14 f0 bf
       -0.9323126410443685 -1.0050661979155429
000390 b0 9f c6 82 52 95 f9 bf 77 ec 51 85 98 3d 07 c0
       -1.5989556415970405 -2.9050760665537
0003a0 3e 1b 45 f4 64 bd 0a c0 74 db a9 ba c0 f5 0b c0
       -3.3424777110662083 -3.4949965079389873
0003b0 fa 44 bf de cf 2b 10 c0 99 3e 3a f7 7d ed 06 c0
       -4.042785149025116 -2.8659629168176477
0003c0 ef b4 9b d0 37 3f c2 3f e6 92 b3 93 15 b2 f6 3f
       0.14255426107357702 1.4184776086414614
0003d0 df 3d f9 7a 71 6f f7 3f 0e dc a7 d8 29 04 f5 3f
       1.4647078326851142 1.3135164702523556
0003e0 35 06 98 1d f1 38 f9 3f 52 37 db a4 29 05 c1 3f
       1.5764018207559165 0.13297005223869945
0003f0 53 07 d7 b0 a3 04 c6 3f 8d f4 fa 29 11 49 f1 bf
       0.1720165837742181 -1.080338634477161
000400 54 08 71 25 b3 f7 fa bf 77 92 aa cb c8 01 03 c0
       -1.6854735815582176 -2.375871268408726
000410 5b b1 cb 47 2e 7c 0e c0 c8 40 11 8d 04 97 10 c0
       -3.8106351479565723 -4.147478298357051
000420 db f9 b9 4f 0e 73 13 c0 5e f6 65 9b fe cf 10 c0
       -4.862359281278681 -4.203119686220445
000430 49 35 dc d9 eb 9d 13 c0 22 e1 7a 43 7a 34 f1 bf
       -4.904220012727202 -1.0753119121491825
000440 11 d7 8d 82 64 08 d9 3f c1 f5 9a 46 5f ce e2 3f
       0.39113724469585615 0.587691915417672
000450 6c a5 f4 fa f6 f5 80 3f 13 cd e6 c0 9f ce f6 3f
       0.00828164056163657 1.4254453215806435
000460 7b a2 48 bc da 61 ef 3f 36 76 32 75 66 70 c4 3f
       0.9806951215187633 0.1596801826716942
000470 73 34 41 ad 80 25 f2 bf 78 f1 51 ad e1 d9 05 c0
       -1.1341559188615775 -2.731387476027688
000480 22 9d 9d 40 96 aa 08 c0 c8 77 1e 53 82 5e 14 c0
       -3.0832943962192454 -5.092294024214375
000490 54 e4 25 9d 32 26 19 c0 22 44 1b 16 f5 1c 17 c0
       -6.287302451551188 -5.778278680242723
0004a0 09 bb 0f ea b8 8e 18 c0 0b 38 7b 1a 7d 11 14 c0
       -6.139377267084236 -5.017078794260679
0004b0 be 2d ea d3 2a 10 fc bf 4d 63 e0 86 07 d9 e4 bf
       -1.7539470937652903 -0.6514928468996942
0004c0 2e 50 cd 9f 58 da de bf fc bc 90 66 a2 a9 d2 3f
       -0.4820767937246754 0.29160366073752164
0004d0 79 c5 bf 6d 93 59 f2 3f be 49 03 df 53 c2 f2 3f
       1.146869114596795 1.1724432670058458
0004e0 1a b9 99 ff ef b0 d4 3f 96 c0 08 04 98 c1 93 3f
       0.323299407586903 0.019293189283587774
0004f0 47 e6 91 9c 31 5e 00 c0 0a e7 c3 fb a3 74 0e c0
       -2.045993064119816 -3.8069533986243913
000500 3a 1d dc e8 34 05 16 c0 b1 ed f8 f4 5b 4f 16 c0
       -5.50508464663954 -5.577499225324048
000510 1c 02 46 c7 a3 a1 19 c0 65 99 15 24 2f 38 1c c0
       -6.40785132756039 -7.054867328470526
000520 79 f8 6f d4 81 03 16 c0 9b b4 20 36 d5 30 03 c0
       -5.503424949010985 -2.3988441685419963
000530 da b0 c3 91 d6 c3 01 c0 c4 84 0f 90 f1 16 e6 3f
       -2.220624102386961 0.6903007329639412
000540 6a 78 44 5c e2 35 df 3f 7e 83 c6 32 5a 90 02 40
       0.48766383181089756 2.3204845396834903
000550 58 92 40 5b 32 e2 f8 3f 0f bd d0 7f 32 57 ef 3f
       1.5552238049068787 0.9793941971201167
000560 84 9d fd 38 91 1b dc 3f 62 12 8b b9 c2 c7 fa bf
       0.439182572989431 -1.6737696883948492
000570 36 8f f9 14 87 18 06 c0 69 5d 7c d0 39 e1 16 c0
       -2.7619763983401766 -5.719947106924658
000580 19 59 10 51 31 78 16 c0 fd 9a 27 15 62 d3 16 c0
       -5.617375628111653 -5.706428843061755
000590 01 93 e0 50 26 36 1c c0 73 27 30 3a 13 cc 15 c0
       -7.05288053866093 -5.4492920963183336
0005a0 17 6d f7 38 ac 0d 02 c0 39 52 41 66 60 27 eb bf
       -2.2566761446484054 -0.8485567090197669
0005b0 d3 92 cb f2 27 9c d9 3f 22 3f df 1c 3f c8 e3 3f
       0.4001560088202442 0.6181941570193639
0005c0 de aa 40 54 37 8e 01 40 db ed cc 33 43 6e f0 3f
       2.1944414694056453 1.0269195579011157
0005d0 76 b5 f6 b9 20 07 f9 3f 73 6a 03 cb 6e 9e d8 bf
       1.5642401947219162 -0.3846699698021105
0005e0 5f 9c 19 be dc c0 ef bf 5d 3f c0 44 76 2b 04 c0
       -0.9922927582637263 -2.5212216731232915
0005f0 0f 38 ca 2b 12 32 11 c0 be 46 3b da db fc 11 c0
       -4.298897442071406 -4.496932420604649
000600 ba 22 e8 49 e2 75 13 c0 37 25 a3 18 3c fb 14 c0
       -4.865121035378872 -5.245346436460117
000610 96 14 a6 38 55 2c 13 c0 6d 69 cc 48 5b 08 c1 bf
       -4.793293843399757 -0.13306752256978474
000620 34 91 4a 2f 01 5c f2 bf 6e 44 1e 3b 2c 78 ee 3f
       -1.147462067348056 0.9521695284512484
000630 17 51 b7 70 ce 50 d8 3f ae e8 df 5b fa 21 00 40
       0.37993203170232576 2.0165908029276443
000640 f6 f5 20 53 ff 30 f3 3f db 00 80 dc a0 be e7 3f
       1.199462246629421 0.7420200640335922
000650 db b3 96 5f d3 d9 c5 bf fd 65 8d 45 fe dc 00 c0
       -0.17071001212516887 -2.1079068597580304
000660 e4 34 75 39 41 72 0c c0 c5 92 e0 77 61 7c 0c c0
       -3.555788468255388 -3.5607327809724176
000670 0d 13 b2 70 0d 0c 11 c0 35 7b 53 1a 32 ca 10 c0
       -4.261770020359802 -4.197456752152722
000680 43 54 08 ac 19 79 12 c0 08 46 a1 7c 78 6e 06 c0
       -4.618261993416186 -2.80394074790161
000690 ec 3c af 61 23 89 fb bf c3 0e 7d 06 df 50 ea bf
       -1.7209810081292813 -0.8223719717720644
0006a0 01 9a ed 37 67 a3 ba bf c1 f2 f9 55 cd c7 c2 bf
       -0.10405583491738214 -0.14672247598709556
0006b0 e7 30 b8 41 6d 86 a0 bf 0b a4 9e 5f 61 06 d6 bf
       -0.03227559497108406 -0.3441394265924493
0006c0 d3 47 8b 4f 31 fd df bf e2 57 3c c1 2a d7 d8 bf
       -0.4998286511228091 -0.3881327521388568
0006d0 0f f7 6a e0 de d3 e7 bf 2f 71 53 ba 0f ce fa bf
       -0.7446131117974079 -1.6753079679829843
0006e0 f7 ca 40 c6 f3 18 f3 bf 3d 22 3b 5b 11 80 fc bf
       -1.1935918564092256 -1.7812665523253053
0006f0 17 6f 3e 59 ce 3c 01 c0 49 d1 5b 1c 8a db 05 c0
       -2.1546904537370994 -2.7321970191498264
000700 66 f4 e7 e0 ca 49 fb bf d9 d7 af a3 98 9a 06 40
       -1.7055157456773258 2.825486449054534
000710 9c 1e 2c 45 2a 3f 0d 40 ba 5d 2b 5f 23 10 06 40
       3.6558423427666877 2.7578799662694253
000720 12 33 02 ac c7 55 06 40 08 a7 47 be fe 54 ff 3f
       2.791884750191806 1.9582507546242045
000730 74 d1 71 75 eb 9f ff 3f 73 f8 f8 2d 8e 84 ec 3f
       1.9765429103545928 0.8911810777569954
000740 3a 14 76 7c fe 1c f0 3f a0 c7 d1 43 6b 18 a2 bf
       1.00707863443064 -0.03534255221246885
000750 b7 33 fd c2 1c a2 fa 3f 3c 92 8f d3 4e c7 cb bf
       1.6645782105217515 -0.21701989488714613
000760 41 43 e3 57 0f a9 f6 3f 56 c4 cd 20 16 58 fc 3f
       1.4162743981471098 1.7715054780385535
000770 be ef 3f d4 d2 b7 03 40 66 7b 73 3b 87 ba f9 3f
       2.464757593346774 1.608039123755327
000780 82 4a 37 30 84 be 0a 40 6e d1 ec 94 d7 4e 10 40
       3.343025566756581 4.076994254068593
000790 80 12 88 0d c8 88 0b 40 3c 5e 79 ac ee 19 11 40
       3.4417878205443344 4.2753245305134975
0007a0 9d a3 4d a4 a5 45 0d 40 be 6e 4e ff 38 50 08 40
       3.6590073429292276 3.0391712137041784
0007b0 50 9f b3 6c 66 0a ff 3f 9a 1e 15 f2 fc 7e ec 3f
       1.9400390859754744 0.8905014732526582
0007c0 94 eb 42 83 e1 c0 c1 3f de 9d 38 58 26 34 d3 bf
       0.13869875821350475 -0.30005797019336267
0007d0 cc 50 2e 5e 08 52 d7 bf c4 c5 33 65 d5 e1 ef 3f
       -0.36438187787395004 0.996317575131052
0007e0 92 b4 e7 33 1e b0 d4 3f 86 b8 70 37 6f ac 00 40
       0.3232493883977635 2.084196503760782
0007f0 b6 72 86 cf b9 0e ef 3f a1 e7 b1 ed 97 61 09 40
       0.9705475857950521 3.1726530618588673

sampling_frac f8 []
000000 99 99 99 99 99 99 a9 3f
       0.049999999999999996
