figs/grid_search_recon/skmodel/sv-ideal-p=2/recon-cs_seed=20-sf=0.010-skmodel-sv-ideal-n=20-p=2-seed=2-12-15.npz (npz, 251648 bytes, 2 tensors)

recon f8 [12, 12, 15, 15]
3.926076524217422 1.1715202785140482 4.318800879191483 0.6786507664392538 -0.6168700887561411 2.4305340918408884 -0.9049965342362074 -0.6037506822179948
0.6714984650107622 2.093970612897317 0.16097102897777693 1.111934109542009 2.733813950784752 2.9709179097300598 3.753372278792446 1.9141035989994137
0.41799489446298504 2.188334554858072 0.7312562588233904 3.4980676353512568 -0.642993677982907 1.3760865686735484 0.4713666281716985 -0.27165827705628076
-0.06208130452673887 0.7877195473585166 -0.3906466628642684 3.808017493468663 0.5859117917916582 3.6124665610153954 1.2325059899016264 1.9729913022689975
4.2910448771683285 1.5061485195283122 1.5130865958676094 1.6212512463312705 0.5754186035376053 0.5965890320797046 -0.29462178815154927 1.9605528774934755
-0.01907250317211184 2.3328840564637803 1.6272045596659583 4.064854976082075 2.328859831878928 1.487441798375407 0.9693208260919915 2.47513387188081
0.638281503266336 2.848648305716244 1.482314945773428 1.4382194215929835 0.6859620657789554 0.529685568583767 3.1306960768949152 0.661889663189767
1.3055488157732476 2.0517073687651144 0.8029949227084294 2.8532263480639504 0.5285355479107526 2.8053699675222696 3.3215154099869584 2.494430562409776
1.6511097634731566 1.4045137428426164 1.7698416024579753 0.5955650345582455 0.319482758582014 2.010875731284437 2.2110350409643793 2.1664061483716957
1.488581869771932 0.2323765081701451 3.4504559096802656 0.37631739649575996 1.0601082081489932 1.6863898628870193 0.9705828590330933 1.7676763267065716
0.9625612833961802 0.23359196628788384 0.9630159275624113 1.9765070679272458 1.7156182364811197 2.575574140743439 1.1356720322819098 -0.14813347160918344
0.9135432076674678 0.7487290555848051 -0.596811282818291 2.3303642755989897 1.5082264425542973 -0.27737755072213605 1.567324834946516 -0.4502698639216995
0.6199076845307828 -0.45453537041102315 1.7639285712392405 2.327174655623483 0.6064969764140099 1.8085511685781888 0.9926196363144485 -0.34965357966139077
0.9690611420696813 -0.2369441848696095 -0.37661955049306467 1.2599583406139447 -0.033889253928545714 -2.713759315506214 0.21946620505370137 0.27994983988400246
-0.576559661230602 1.632178076766849 0.38625837604097624 0.40053196157519094 1.7561896649997113 0.600501148387899 -2.5211153916455857 -0.3355769759967679
-2.548947885798945 0.7161785103800933 -1.9298036386691155 -0.35540538059015236 -1.8853578217986091 -0.029591832607468723 0.11757901935711315 0.6717524362321557
-0.6535334404402148 0.009850409576711877 0.01437087294217159 -0.10262319027922585 -1.398448965198862 -1.057272637316146 -2.047006421677533 -0.640336017720387
-1.332090724213184 -1.0526423411525403 -2.610749588008947 -2.20036870415847 -2.8494089897274395 -1.608670007669693 -1.498392929523156 0.595194991210589
-2.2567175494381138 1.2020092670336358 -0.4556342832475796 -2.4405029378337963 -1.0628936220896 -1.4833575823332485 -2.62472897060199 -0.969143876261762
-3.565433380263877 -1.7547114154061707 -2.6196739205116013 -1.6433703103277935 -0.7393209574361783 0.2993525298388874 -0.5953521471684805 -0.7814502807403485
-2.5054471890321497 -1.7690296142497848 -3.9299604417245333 -1.0686121964284387 -2.992014651249326 -1.2451680426643006 -2.6128879756793224 -3.4703021178893296
-1.397952195663505 -1.8597222327893388 -0.945190673333964 -2.8029396743955113 -0.8045221998909693 0.36486613969254883 -2.0480425281432795 -1.4094591669620187
-1.052420851914246 -2.2797276651679024 -0.7040941482261921 -1.10641505302561 -2.5431638171461723 -2.4372680367118735 -2.6936834760278807 -3.0167443684053645
-3.360470676239969 -1.4107108998362354 -0.7112786784026776 -0.40615883827173255 -0.746422548594899 -2.768891664893903 0.5781031455315131 -2.9014007129318147
-2.4728984702449783 -0.7271597949061701 -2.676531197419873 -3.281855854632312 -1.4898695599348672 -2.3034389422397115 -0.4147757929875259 -0.11499835152521344
0.07239083960830524 -0.37904611827135093 0.15598749692393113 -1.6779099921341012 -0.5160046559248521 -0.44238660209153063 -0.4711170922958343 -2.1588745983600113
-1.5387094303784417 -3.1256328268269304 -1.6087829627673076 -2.854774926817854 -2.132051754141654 -3.216503801517289 -0.44965414093588474 0.3975823940301028
-1.5346925684400465 -1.2825954281032974 -0.15330403161080783 -0.09455198124827155 -0.9702699768292512 -0.0322834398950415 -0.8759420986010684 -2.3718730302946334
-2.118270141517997 0.5727991908929642 1.197224727906205 0.7950366283235544 3.1645392458836685 1.4020162623055012 2.0814496646171525 2.6782619935500964
3.029285406336812 3.0163534315653155 2.136058538118144 3.2728378073454136 3.0468548346515982 0.3903096477129393 0.8415281991038684 -0.054042647351004836
0.2815247528351722 1.5475167920806185 0.5546715664386195 2.3439419753317363 3.657179923676103 2.960020970402218 2.603272384998684 3.2970794059036486
2.8434098814108753 2.062077701537259 2.7780752750614073 1.6603064732405952 0.6805701376950033 3.201892199076891 0.44095784609418154 1.7621948753959045
00000000: 81db 08cf 9a68 0f40 2f19 2d0c 8cbe f23f
00000010: fd40 d8bc 7346 1140 ba61 e8cf 81b7 e53f
00000020: e4d2 2257 66bd e3bf 4c28 a2db bb71 0340
00000030: 1c36 b14a bbf5 ecbf 180c 62f3 ec51 e3bf
00000040: 3122 5159 ea7c e53f b36e 29aa 73c0 0040
00000050: 0c11 88dc b29a c43f 10a3 bc6b 7bca f13f
00000060: a4c0 3fd9 d9de 0540 5b21 eb9b 70c4 0740
00000070: 2d03 990b e806 0e40 edbb 6d18 2ba0 fe3f
00000080: 7543 67a8 6dc0 da3f bd93 0e8c b581 0140
00000090: 6889 9486 7366 e73f d43c 68e2 0afc 0b40
000000a0: 3915 4f7a 6793 e4bf 19af 8e59 7304 f63f
000000b0: 5216 1bef de2a de3f 643e e965 d962 d1bf
000000c0: ef4d 45e9 1ec9 afbf 5e64 ca9f ff34 e93f
000000d0: dcc9 52dc 5a00 d9bf b459 28e0 d176 0e40
000000e0: f7bf 0216 cabf e23f 40a3 4bde 54e6 0c40
000000f0: 8506 6c33 58b8 f33f cf9a e853 5f91 ff3f
00000100: dc6c 14ab 072a 1140 cbaf a430 2f19 f83f
00000110: 1247 544a 9a35 f83f 0679 9925 a5f0 f93f
00000120: 3587 7646 d469 e23f 75e8 bde1 4117 e33f
00000130: 4a32 3358 15db d2bf 5a9c aeb1 6c5e ff3f
00000140: 5f20 8205 be87 93bf 5af9 be1d bfa9 0240
00000150: 8ead faa5 0709 fa3f 8105 c557 6942 1040
00000160: bc1a 7743 81a1 0240 df9c 6bc5 8fcc f73f
00000170: a5b2 ec1b ad04 ef3f 7699 c7fc 12cd 0340
00000180: ce75 c554 cd6c e43f 4cdb 761f 08ca 0640
00000190: 8f80 67e0 8fb7 f73f 236c 435e f202 f73f
000001a0: 9e26 dab7 66f3 e53f cd5f 4726 2ff3 e03f
000001b0: 53d5 7f62 aa0b 0940 74bc 1e3b 332e e53f
000001c0: f63d b127 87e3 f43f 8f77 8e8d e569 0040
000001d0: 4660 7c68 22b2 e93f 5429 e855 68d3 0640
000001e0: 9d9a a161 c3e9 e03f 8582 3dcf 6571 0640
000001f0: a16e d8ab 7692 0a40 028b bd02 98f4 0340
00000200: 7893 4312 f26a fa3f 5caa 0467 e378 f63f
00000210: 0b84 9a6d 4551 fc3f 6633 4267 de0e e33f
00000220: 22b8 efcf 6772 d43f 727e f103 4616 0040
00000230: 2804 ba23 33b0 0140 c8e0 28bf cc54 0140
00000240: 756c 0139 3bd1 f73f 9487 796f 83be cd3f
00000250: f1ee c2a0 889a 0b40 af5e b78f 9515 d83f
00000260: 9289 4306 34f6 f03f a27d d6ef 73fb fa3f
00000270: bb5e b3c8 030f ef3f e3e3 d1f8 6648 fc3f
00000280: dfa2 1252 4dcd ee3f 394b e86f 57e6 cd3f
00000290: 900b 4dc7 06d1 ee3f 48f7 10e0 c59f ff3f
000002a0: beb8 a11b 2c73 fb3f bb54 779d c69a 0440
000002b0: 5f1f da6f b62b f23f c48f 00a0 09f6 c2bf
000002c0: 4f45 0df7 be3b ed3f 8fa7 e9a2 96f5 e73f
000002d0: e6d3 b2f9 1319 e3bf 13b7 7b06 96a4 0240
000002e0: e6ba db0c b221 f83f 03c1 3fc5 8dc0 d1bf
000002f0: b6dc c434 c313 f93f a7c1 fab0 38d1 dcbf
00000300: 5929 f3a3 48d6 e33f 0999 b285 1b17 ddbf
00000310: 9f3d 5f2a 0d39 fc3f 06dd efbe 0d9e 0240
00000320: 1746 da58 6c68 e33f 76f9 a259 d3ef fc3f
00000330: a7d0 6a41 8ac3 ef3f decc 6468 b960 d6bf
00000340: 2870 2083 8c02 ef3f 5a05 7fe2 2f54 cebf
00000350: 47b9 19e3 881a d8bf 2e26 b413 ca28 f43f
00000360: d32d 9eaa ee59 a1bf 2b84 aa71 c7b5 05c0
00000370: 5335 a4f6 7717 cc3f 5e9f b4bb b2ea d13f
00000380: 6db4 253f 2d73 e2bf 8263 4fc2 661d fa3f
00000390: 66bb 390d 75b8 d83f 8ff6 fdce 50a2 d93f
000003a0: 88f3 8b55 5a19 fc3f c22a 312f 4e37 e33f
000003b0: ed7a e48b 3e2b 04c0 a796 4cda 177a d5bf
000003c0: efb7 05ca 3e64 04c0 a2c6 0532 efea e63f
000003d0: 0892 bcc7 79e0 febf be41 9d35 f6be d6bf
000003e0: 0a20 9ef6 6c2a febf 8f73 1c45 524d 9ebf
000003f0: 32a5 d59a a819 be3f 8f03 14f7 fe7e e53f
00000400: 0b0f 31f6 bee9 e4bf 309b df97 732c 843f
00000410: 5cac 69ea 796e 8d3f 517a 0f6e 8345 babf
00000420: 6b77 aa05 0c60 f6bf 01a8 83b6 96ea f0bf
00000430: b774 1ee7 4460 00c0 04eb d1f5 a17d e4bf
00000440: 2ecf fc5c 3e50 f5bf 1b29 da7e 9fd7 f0bf
00000450: e959 14ae d0e2 04c0 2d05 3ce8 5a9a 01c0
00000460: 4776 bef0 96cb 06c0 5af5 0fc3 1cbd f9bf
00000470: dfc0 4ddd 6af9 f7bf 75c2 bf5d d60b e33f
00000480: ee2a 39ee c10d 02c0 d55f b611 6e3b f33f
00000490: 3a06 5fb2 1c29 ddbf fb4d 7e67 2686 03c0
000004a0: 6f07 20be 9c01 f1bf a251 0629 d5bb f7bf
000004b0: 5acb 0ce7 71ff 04c0 cb36 b504 3a03 efbf
000004c0: 9266 a2ef 0186 0cc0 e265 f146 4c13 fcbf
000004d0: 5f40 b699 17f5 04c0 3334 a1aa 3e4b fabf
000004e0: 06f2 ad6c 84a8 e7bf 3281 6883 9728 d33f
000004f0: e324 36f2 1f0d e3bf a65a e704 a401 e9bf
00000500: 57fc 55e5 270b 04c0 afbb 2dff f14d fcbf
00000510: a33e 9e19 8f70 0fc0 1c45 3c1a 0919 f1bf
00000520: 4d26 a260 a5ef 07c0 b247 5453 35ec f3bf
00000530: 133c 9dcf 31e7 04c0 fa97 bcc1 2dc3 0bc0
00000540: 38f0 1b1f 035e f6bf c596 9719 6cc1 fdbf
00000550: d983 ce82 003f eebf 5284 d1a2 6b6c 06c0
00000560: 8a01 2e57 a5be e9bf c96c 5982 f759 d73f
00000570: 558a f91e 6462 00c0 6d63 320e 258d f6bf
00000580: 329a 493f b7d6 f0bf ec75 addb e13c 02c0
00000590: 93f7 7d73 f087 e6bf edc0 4845 e0b3 f1bf
000005a0: 4f1b 7845 6658 04c0 e71b 6a62 867f 03c0
000005b0: d585 1aec a98c 05c0 b58b 15df 4a22 08c0
000005c0: fef0 2c73 3ee2 0ac0 8f84 ae97 4592 f6bf
000005d0: 7b9c c280 cbc2 e6bf c1f0 d6a3 81fe d9bf
000005e0: 36c9 668a b1e2 e7bf 2717 57ac b026 06c0
000005f0: f4b8 f82a d27f e23f da10 b593 1136 07c0
00000600: b13e 40fe 7ec8 03c0 74d1 429e e444 e7bf
00000610: f822 3d30 8969 05c0 c1a7 6ea4 3d41 0ac0
00000620: 619e b376 81d6 f7bf e704 6a65 716d 02c0
00000630: ef72 83c4 af8b dabf 490b e52e 8870 bdbf
00000640: 8dcc a5c0 3488 b23f 44ad 69a6 4a42 d8bf
00000650: 85c4 eff6 65f7 c33f b28f dd25 b8d8 fabf
00000660: bafd 3832 1c83 e0bf f5fc 0ae5 0f50 dcbf
00000670: 7cd2 ff4d c826 debf 98f8 a00b 6045 01c0
00000680: ea5a 98c7 8d9e f8bf a134 94c8 4b01 09c0
00000690: 4129 3734 93bd f9bf e1fc a03c 94d6 06c0
000006a0: bb57 6b26 710e 01c0 bbcf 5758 66bb 09c0
000006b0: 8c28 7529 22c7 dcbf 83c7 f46c fd71 d93f
000006c0: efd3 6dcb 198e f8bf 983e 9bc8 8285 f4bf
000006d0: e782 0e6d 779f c3bf 9ebb 3b03 8f34 b8bf
000006e0: c7b6 589f 730c efbf 5769 1a7d 7487 a0bf
000006f0: 5ccc 55b9 b707 ecbf f809 3b91 98f9 02c0
00000700: 024e af9d 37f2 00c0 f6ef 01f8 5e54 e23f
00000710: 481d c51d d527 f33f 5eb2 b8a7 f070 e93f
00000720: b4d4 bff3 f950 0940 1fff b09a a86e f63f
00000730: 1e68 ee14 cfa6 0040 e456 c39f 146d 0540
00000740: c2bb b3fc f93b 0840 d400 6ee8 7d21 0840
00000750: d478 dcdb a516 0140 8649 9d96 c52e 0a40
00000760: a2e7 736d f55f 0840 fc61 0f51 d5fa d83f
00000770: 3503 ba8b cced ea3f 9074 ec55 7aab abbf
00000780: 5242 9c65 8004 d23f 13f4 bff7 a0c2 f83f
00000790: b0ff bb95 debf e13f ec2b 7ea6 64c0 0240
000007a0: 8e36 3e8c e741 0d40 4dd0 7a79 1fae 0740
000007b0: b431 e178 80d3 0440 c85e e52a 6b60 0a40
000007c0: 7a43 0eae 4dbf 0640 984e 0f98 227f 0040
000007d0: 37b8 a187 7f39 0640 bf7c 3e85 9d90 fa3f
000007e0: a018 8106 3bc7 e53f 78d2 42a8 799d 0940
000007f0: 32e7 f841 a738 dc3f 3911 f040 f331 fc3f

sampling_frac f8 []
0.01
00000000: 7b14 ae47 e17a 843f
