figs/grid_search_recon/skmodel/sv-ideal-p=2/recon-cs_seed=16-sf=0.010-skmodel-sv-ideal-n=16-p=2-seed=6-12-15.npz (npz, 251493 bytes, 2 tensors)

recon f8 [12, 12, 15, 15]
1.4442730981038654 1.5751120956607985 1.5295716551472438 0.5224961549977223 1.2615611329389491 -0.3630313241456445 0.009133803102794595 0.733235884094952
0.6787572165336678 -0.09848721057459586 -0.0767998197476849 0.051966616357646725 0.9029963263719967 0.9340029130378338 0.8609622394745429 2.173315282638053
2.7571937361844228 2.1254796667107523 1.2449563517614863 0.8091582975551204 -0.3586804330832961 0.1895373133925432 0.9595315095782593 0.01238792825636739
0.33904485523085753 0.6801483303148023 -0.33992137406508754 0.5705756075343239 0.05294987210998489 0.4390996025128513 1.687448463118339 1.0286326473232188
2.511087707902139 1.7449825220894215 1.714685442138111 1.8314236175992522 0.39818763338799384 0.8968333694504578 -0.3324490348854387 -0.9802360968772877
-1.1830216160745646 -0.8716612022325769 0.2043604679950192 0.2301514715552601 1.5560509196988417 2.788057205018454 1.353246663014092 2.634729275815664
1.8742268952913692 1.1988652868900356 2.5812467680113653 0.9618416531415573 2.0562317324584125 0.8661159549536014 0.11810163444111042 -1.4901669039145118
-1.6167282227836703 -0.8150984001959353 -0.11727076738674296 1.1551116876556762 2.0853448074357557 1.4413212723683677 3.9497380931502644 3.984880795492435
1.3639751381827905 2.731984939137844 0.7681153223050626 1.0953016884104998 0.3415562369219576 -0.20583915149068902 -1.1919813575625122 -0.2766037385335607
0.8747159440012542 0.1633267595049593 0.9412845197147883 2.3143465880297174 1.071221760916271 3.612844678183268 3.7095312441840504 2.6630497376241946
2.590454826184062 2.084763284545323 0.346368617130605 -1.211069421017908 -0.4946094727139481 -1.116210221248979 -2.1483660112317646 -1.5000667100093432
-0.29817673685572116 0.2018212855109603 1.1945006677217977 1.9904488878613427 3.3630204910853587 3.4937495848343914 2.3267240207371334 2.0000354411283676
1.2154896473433503 0.6458102370507054 -0.6673279840466353 -0.7037542890679818 -2.3442684670119696 -2.8772035941232295 -2.103909686211541 -1.8616654430233985
0.06526864574011078 0.6054247146092273 1.761267693628539 3.9985057715633197 2.7133962963449845 2.6330389152624862 1.585763327560324 0.6174389012034383
-0.3364808682397342 -0.2015717422235019 -1.5562634981477583 -2.0994309828284683 -1.9632263860910746 -3.6719514219820604 -1.1194300549393357 -1.1022408857429316
0.4112106999737216 1.3544802180014135 3.164915436917499 1.5367281131977188 3.7584916000644806 0.6157273644990265 0.5817096028303279 -0.86996985324772
-0.9902331579307762 -2.5121893011426195 -2.782555746115193 -2.7427918046977053 -3.3884050828439145 -1.1324462216521718 -2.572675569524362 0.562006851227772
1.433987958453209 0.8111762843838779 1.067981857243548 3.2494367099886428 1.0993700126822752 1.4653236744246252 -0.09818038095629886 -2.0880090256724
-1.9584002588616791 -2.835986474602026 -5.062562405122952 -3.4390836613573885 -1.1309311251775165 -1.4198886874174186 -1.7302367419634743 0.8810850849634234
-0.5678891408875665 0.4432972560352652 1.4719125950962917 -0.44710200184755294 -0.826616124673403 -0.6585946676356454 -1.180963435080906 -2.470138503841773
-2.705157815068947 -3.031994064795057 -2.833918678038522 -2.0046765140212366 -2.9368602992008976 -0.7744554103959629 0.18744428689776851 0.30081316598059177
0.654255882388625 1.5876743831379736 0.3983279308659602 -1.1940715820411683 -1.8277553704370966 -1.9585100484168354 -1.5627587222838617 -1.9930931612951779
-2.5347455528111373 -2.7674470184704183 -1.9189529959359448 -2.8352192118602177 -1.8302656482825173 -1.6941690937536373 0.055355550315099554 0.16964947949311376
-0.0705925584496756 0.6418539951482254 -0.9471678859740115 -0.46235279946975427 -0.8457676488219265 -1.9675749199454795 -1.336778699062349 -1.9651094323070926
-0.9817998246917682 -3.2224599625798342 -1.4500009815522585 -0.6056767639112697 -0.9484730761833333 -0.8198824000652624 0.3916263310680512 0.6713778634754474
0.377955575730782 -0.46805295953253884 -0.8361618492187305 0.184315258740828 -1.0287837779576925 -0.9578757799824028 -2.8342220994037337 -1.2293612313550344
-2.8209316696277646 -1.655298869958529 -0.3975517946221525 -1.5451397072391468 -0.2781929942919857 -0.3648604601777133 -0.9439652628292202 -0.39968172068054014
-0.1408348213867704 -0.2647405726656193 -0.5892051145860869 0.2627109889833535 -0.8285226896187086 -0.13521488291238937 -1.1161196394561521 -3.7621805097402667
0.06206170944799101 0.33350246778231973 2.6604482798219866 1.378760222229916 1.264582968312376 2.050089230048637 1.700382388062967 0.3370480714778874
1.3799758370415667 1.5334325565026456 1.02293646496899 3.1750958993423977 -0.12604228657037653 1.6469034243515224 1.5157249808221482 2.3555713372180676
1.189299420912572 1.3982790892954573 1.5829996205740968 2.4377993351198923 2.06198274443588 2.448610136837074 1.1117666589478397 1.0291517861523996
1.6007497701602733 1.0093630450430424 1.3623426336691462 0.8696781220868868 2.3632935460523736 0.9402357411465276 1.0207063013228959 1.9601761276674576
00000000: 4894 ad1b be1b f73f bd5a a6bd a833 f93f
00000010: a0ef bb20 2079 f83f e607 40db 49b8 e03f
00000020: 380a feb9 5a2f f43f 7943 28bc e73b d7bf
00000030: 9cb6 ea4c beb4 823f 7c20 ce19 ab76 e73f
00000040: 7bf4 dd0d 61b8 e53f d8fd 7d34 7536 b9bf
00000050: 30ae 272a 27a9 b3bf 6ad0 7a4b 5e9b aa3f
00000060: b6a0 458d 58e5 ec3f 24b8 bb13 5ae3 ed3f
00000070: 664a b4ae 008d eb3f 969e 761f f362 0140
00000080: 682f ed96 bb0e 0640 6faf c67b fb00 0140
00000090: 7a35 fc59 57eb f33f 3229 29f1 9fe4 e93f
000000a0: 32b4 73c6 9ef4 d6bf 3443 3239 c242 c83f
000000b0: 24d8 a36c 7bb4 ee3f 4f72 cf95 d75e 893f
000000c0: 57fd 4531 e9b2 d53f d131 646e c6c3 e53f
000000d0: 2d8a 3494 45c1 d5bf 072b c8c6 2742 e23f
000000e0: 6c5c 14e2 3e1c ab3f c8ac 1e38 351a dc3f
000000f0: ac75 acf5 c9ff fa3f 379e bd81 4775 f03f
00000100: 499e f626 b516 0440 5b73 07cb 72eb fb3f
00000110: 5b91 8e00 5a6f fb3f 6e5f ebd9 824d fd3f
00000120: 33ad c4fb e77b d93f d809 f8e4 dbb2 ec3f
00000130: bbdc 1a51 d846 d5bf dd4a 4e17 185e efbf
00000140: 6b05 f812 a8ed f2bf a0fd 9808 a6e4 ebbf
00000150: 6522 51db 7b28 ca3f 0662 ba79 9a75 cd3f
00000160: a546 30a6 95e5 f83f 9073 97ef f04d 0640
00000170: 0811 11f9 e5a6 f53f 4d89 4bf1 ec13 0540
00000180: f4f5 4857 d5fc fd3f ab09 f85d 8d2e f33f
00000190: b91d 9cb4 64a6 0440 d78d 8525 68c7 ee3f
000001a0: 1c40 5f9f 2973 0040 9139 a2ce 38b7 eb3f
000001b0: f759 87a1 e83b be3f 794f 5e40 b9d7 f7bf
000001c0: 5e04 b669 1ede f9bf 7ba1 7b3d 4915 eabf
000001d0: 3bf0 b3fe 7405 bebf 0056 9b64 567b f23f
000001e0: 568f 2642 c9ae 0040 b69e fde4 a60f f73f
000001f0: 2cc4 0e49 1099 0f40 acc9 b82e 09e1 0f40
00000200: acd5 3098 d7d2 f53f bd17 76eb 1adb 0540
00000210: 716a 9b95 6694 e83f 7aa0 2f10 5b86 f13f
00000220: d4c6 d4b0 0edc d53f 71c7 f1f3 ef58 cabf
00000230: 44c3 420b 5b12 f3bf 98fd bc2a e0b3 d1bf
00000240: 10ce 984a acfd eb3f ab56 5129 e4e7 c43f
00000250: a2fe 8cb6 001f ee3f 1793 d924 c883 0240
00000260: f561 de6d b923 f13f 2799 521c 1be7 0c40
00000270: e315 8ab7 1ead 0d40 06bd 5505 ed4d 0540
00000280: aace 4161 40b9 0440 8c30 785f 98ad 0040
00000290: cbf2 bb46 e72a d63f 3552 4754 8a60 f3bf
000002a0: 1949 667d aea7 dfbf c99a bb3f ffdb f1bf
000002b0: 8fa0 f084 da2f 01c0 64ef 54f3 4500 f8bf
000002c0: e14a 4ee1 5315 d3bf 1a00 74a6 47d5 c93f
000002d0: 01a5 6ebb ac1c f33f a995 dbee e0d8 ff3f
000002e0: 72ea 8749 77e7 0a40 e337 7afb 32f3 0b40
000002f0: a411 bf7b 219d 0240 efe5 d394 1200 0040
00000300: d075 bf45 a572 f33f d1c0 f13a 7aaa e43f
00000310: f6f2 6537 c05a e5bf 4eef feb6 2785 e6bf
00000320: 3be2 76d3 0fc1 02c0 1e8b 6551 8304 07c0
00000330: 2921 009a ced4 00c0 c30f 1eb4 61c9 fdbf
00000340: bd71 e82a 72b5 b03f faf9 ada6 a35f e33f
00000350: bd2c 7a08 272e fc3f 88da 0d98 f0fc 0f40
00000360: 261d 0f1e 09b5 0540 7a2e f1b4 7610 0540
00000370: 6915 f15d 495f f93f 5a4d fe39 0fc2 e33f
00000380: 2070 340d e788 d5bf 47e7 5254 1acd c9bf
00000390: 050d c88d 74e6 f8bf c6a8 9b78 a2cb 00c0
000003a0: a97c 2e12 6069 ffbf 254f 2f11 2860 0dc0
000003b0: 9efb 417d 2fe9 f1bf 8847 c956 c7a2 f1bf
000003c0: f6c0 09af 4651 da3f 0252 f672 f3ab f53f
000003d0: 6654 412f bf51 0940 a472 d037 7096 f83f
000003e0: 8f8a 440b 6411 0e40 a3d1 b8df 09b4 e33f
000003f0: f09c fd74 5d9d e23f 5a8e 8604 cbd6 ebbf
00000400: 9247 9772 fdaf efbf 3026 4eb4 f618 04c0
00000410: a0e4 4696 ac42 06c0 c64e 67d4 3cf1 05c0
00000420: 7a51 c31f 741b 0bc0 f798 e7ed 7f1e f2bf
00000430: 3c9a d2ed d694 04c0 c8d6 c4ca f5fb e13f
00000440: 22a1 865b 9df1 f63f 9006 97f7 27f5 e93f
00000450: 6d51 d924 7416 f13f 9f95 7eac d8fe 0940
00000460: 90c6 aa02 0597 f13f 4455 bb3c f771 f73f
00000470: 8eed 5075 5922 b9bf 5320 7813 3eb4 00c0
00000480: 1d9f 8482 9b55 ffbf 2583 42ad 19b0 06c0
00000490: 46d9 ef5b 1040 14c0 44e7 6d4b 3e83 0bc0
000004a0: 97a7 4a3c 4b18 f2bf ddb0 4633 ddb7 f6bf
000004b0: a421 d1b8 0caf fbbf 3f29 1d59 d931 ec3f
000004c0: 47b3 fbd8 252c e2bf fffd 4474 fb5e dc3f
000004d0: 1f25 a838 f48c f73f e953 fab6 519d dcbf
000004e0: 5a31 baa8 a373 eabf 3115 da1f 3513 e5bf
000004f0: e51b 37ea 39e5 f2bf eeb9 d4f9 d7c2 03c0
00000500: 67eb d1c7 29a4 05c0 dfaf af1a 8641 08c0
00000510: 9097 4d8e ddab 06c0 753e 16d7 9309 00c0
00000520: b7e8 cf9c b07e 07c0 a68c 7bb6 56c8 e8bf
00000530: 7523 06a5 2cfe c73f 71f1 85dd 8540 d33f
00000540: 7d64 4208 aaef e43f a464 0441 1d67 f93f
00000550: fcc4 096f 347e d93f 6032 9fcd ea1a f3bf
00000560: e3d9 516a 7c3e fdbf 2867 eda1 0e56 ffbf
00000570: 88f7 3b4a 0f01 f9bf ff4d 9aa7 b5e3 ffbf
00000580: ce0a 28ad 2847 04c0 fbf1 2d43 bb23 06c0
00000590: 9ab2 810e 08b4 febf ba71 ff68 87ae 06c0
000005a0: b4d9 e5a1 c448 fdbf a40d 390d 511b fbbf
000005b0: 63c8 820c 9057 ac3f 8e69 1afb 12b7 c53f
000005c0: 10e0 e199 5a12 b2bf 88fe be63 118a e43f
000005d0: 058e c206 334f eebf ecf1 3b32 3097 ddbf
000005e0: 418f f650 8710 ebbf cb87 d9d6 2f7b ffbf
000005f0: 3b65 a70f 7263 f5bf 151f 8d96 1671 ffbf
00000600: 33a1 4877 e76a efbf 2299 bf16 99c7 09c0
00000610: 25f5 ae3a 3433 f7bf c445 9e3c b461 e3bf
00000620: 8001 6b35 e459 eebf cf14 db03 7a3c eabf
00000630: d824 0ce3 6710 d93f 3155 dc6d ed7b e53f
00000640: 1cb1 4695 6c30 d83f bf3f 7f66 94f4 ddbf
00000650: a7d5 917e d6c1 eabf 8c0a 3974 a497 c73f
00000660: e3bc 8ffa e575 f0bf 09f5 941b eba6 eebf
00000670: e450 d4a2 7cac 06c0 1b3e baae 76ab f3bf
00000680: 586a 8a9f 4491 06c0 023e f9aa 1a7c fabf
00000690: 7891 1715 7d71 d9bf 8b7d e569 e4b8 f8bf
000006a0: 1577 1dfd e9cd d1bf 4546 04b0 df59 d7bf
000006b0: 612b 8da3 f634 eebf 7d71 c8a3 6294 d9bf
000006c0: 4c41 ff1b e006 c2bf 3b7b 6171 82f1 d0bf
000006d0: c70f 39af c4da e2bf b5ee 7ec0 41d0 d03f
000006e0: 8200 fd03 4283 eabf 7045 05a6 b84e c1bf
000006f0: 2333 5e44 a0db f1bf 4cdd 5718 f218 0ec0
00000700: 8a71 d368 8dc6 af3f b0a9 10bc 1a58 d53f
00000710: 7447 941b 9948 0540 080d f8e0 660f f63f
00000720: 24af bf59 bb3b f43f 9686 a72e 9566 0040
00000730: 14cc b629 c434 fb3f 785a 0b13 3292 d53f
00000740: f0d1 158b 6114 f63f fece 8c93 f088 f83f
00000750: b4d7 6ea0 f25d f03f e6b6 caad 9866 0940
00000760: 48cd 5d55 2722 c0bf c629 b467 b759 fa3f
00000770: 1bc8 65d6 6840 f83f 03f9 05c9 35d8 0240
00000780: 2e8a 5fd4 5e07 f33f 4246 f3e4 595f f63f
00000790: 7323 ff68 f753 f93f 6367 14f0 9c80 0340
000007a0: bf25 22cf f07e 0040 5df4 52e9 c096 0340
000007b0: 306d 0fd6 cbc9 f13f 0b50 02dd 6777 f03f
000007c0: aeaf 7eca ab9c f93f 7303 44dd 5926 f03f
000007d0: 4be3 18ca 27cc f53f b01d 8d36 67d4 eb3f
000007e0: 7c24 5972 06e8 0240 2826 d843 6916 ee3f
000007f0: 1f0c 7021 d054 f03f d8b4 aba4 e15c ff3f

sampling_frac f8 []
0.01
00000000: 7b14 ae47 e17a 843f
