figs/grid_search_recon/skmodel/sv-ideal-p=2/recon-cs_seed=24-sf=0.030-skmodel-sv-ideal-n=24-p=2-seed=4-12-15.npz (npz, 251269 bytes, 2 tensors)

recon f8 [12, 12, 15, 15]
2.7138758032171704 4.170746904056 2.4828716345295287 2.074444350475065 2.4508717347703373 1.8596971087626804 0.41821664718397983 0.5342973618271597
-0.27560512757314065 -0.5383296721557997 0.11475070655434441 0.3639825943140847 1.3429969217884263 1.046478029027777 3.1256185950073343 3.9552461837787236
3.6024291915718134 3.4231468340513707 3.8887122431643073 2.6789230001557747 1.5382916598301992 0.047146526315352266 -0.27207138678256737 -0.23175991507429006
-1.515150506709015 -2.2099230265888155 -0.25482335054619537 1.4112227981726575 2.9333909328554264 2.850060683580746 3.8412669187299 4.352192226056208
3.759214420792945 4.25057199516092 4.269505423434487 1.6030827396398908 1.6008721185212145 0.7554685613609131 -0.5550171684609917 -2.198819228842416
-0.9996490455206095 -0.4486402455487668 -0.452614798912182 0.9255560545418949 2.1466596591705422 3.911768314994402 4.973973532025873 4.816071141928283
4.217367895297737 4.761827048500492 3.2040763624319335 2.7956684908022096 1.0398354219122241 0.42433978042299925 -1.9590783290065346 -1.9027709778095165
-1.1358578550965124 -1.4168721483638798 1.6154196226963091 3.4860588677715345 3.29926058046095 2.857070878465627 4.660872655393169 5.326700984018303
4.721536430861509 4.065707461356236 2.3295362414737295 1.7052194598713182 0.36340816922976243 -0.9200644188016928 -2.391731608337362 -3.2240862178438827
-1.2947569772089464 0.19054337652973036 0.5474957617386098 1.1706608294346876 2.3254021371753635 2.354027607211103 3.5247175158321458 4.403856291123473
4.219229825054539 2.751886939963511 2.8754526058786225 0.07107906283855576 -1.8495501089989812 -2.228593441485973 -1.9946353561186196 -1.1129737369913006
-1.6333288659266196 -0.7890965527485523 2.159745415780519 2.167186280318294 4.399120923033559 2.7891788846251226 5.9855033459091365 3.6305655768546274
2.443132004146178 0.7494366900187103 -0.045086595527615146 -1.0241705485873631 -3.583278400917131 -3.5207131970013603 -3.0774097646521037 -2.950558264689183
-0.8258809094744107 1.4644497693407277 1.1418236232830048 2.9664971310956454 3.7224460037992175 4.251824856603699 1.4194377810027465 2.151600891765868
-0.3355736591238253 -1.6474666605648618 -1.2224351296304339 -3.4011009279743956 -2.188157184285194 -3.2120786152209786 -1.5783542549324372 -0.47835665122863713
1.6689915690958497 2.8533028777854135 4.221403671014029 3.8671704192591605 5.811332736620078 2.36626521882365 1.420103660970808 -1.6274634844144205
-3.044198471670815 -3.182535435459466 -6.558343503274732 -3.863508166618378 -3.252624174927462 -0.8829638343663794 -2.0238297622142496 -0.774450677004211
1.3506395139251748 0.6132653649153782 2.5528377087792293 2.1035757368268424 1.7129875240946955 -0.22971933572631742 -2.3318783469806053 -3.0015256018338237
-3.3148713122519395 -4.629754255160729 -4.4971908618138166 -2.136824096150667 -2.7694459115972254 -2.655570112226317 -0.8890813191978183 1.0601256323963288
1.7156258304020942 1.2444888894307655 1.891713845281491 0.7931495154694814 -1.1560379025161296 -2.83731277310079 -1.0632992575656826 -3.738109825015283
-4.156564372259074 -5.074354881691335 -3.730082109466643 -4.37457166843372 -4.227988100929636 -1.2472257174356542 -0.5389944530390773 0.670714980613436
2.3949647702248624 2.116215033837671 1.8581194734583488 0.37105368323193066 -0.5056081465250817 -3.0737207458891906 -3.0075972602862358 -3.982809339469278
-4.640545847391244 -3.9903033255109803 -4.202545453279112 -4.99790594189836 -2.6214622393533014 -0.608081462197056 0.2109390707493746 0.5905770390455797
1.8910061821479542 1.3455219588475147 0.29400699166134436 -0.912010750303071 -2.8813931297744766 -3.5710023949860004 -4.0434591821500305 -3.1452583168722033
-5.950801435303572 -4.45560152049082 -2.9096268746075613 -3.5797787758894075 -3.6906693453251083 -0.20783110866343144 -0.16714517712338112 0.19163775984119094
1.8734520741523708 0.13660469479984352 -0.5840705757807105 -1.5375119897003828 0.11928019745112217 -3.476088700779474 -4.84361150731789 -4.433229494018693
-3.2185376825469367 -3.215266929318085 -2.8937036572320527 -1.948278959511156 -0.9691060764835797 0.2848594286146489 -0.3996242840115458 -0.051992638723555334
0.314733384170668 0.5251919977211571 -0.7069772274913737 -1.6382766953735808 -1.8163480074274763 -2.15001213079574 -1.4903984208432146 -3.0437053497692124
-4.2462473233996745 3.8079082172692607 4.07625140548157 3.6333960330209383 3.1880052419034506 3.6637625624934813 2.9464831796422666 1.8694866964017356
1.6118606533828534 2.284331786436878 3.384624434324251 1.5832420541385308 2.795061988254037 2.3577800281020185 4.500066165340883 5.393440304183865
5.605679140313879 6.029343021551494 5.230011912019051 4.775054763765898 4.347943265127005 3.815470729796509 3.087212542293198 2.299650195218086
2.2066654209689784 2.7064462475771633 1.5517049705153254 2.0524103197677737 0.8971189528138617 3.585353298057517 4.337442626329625 5.2094940330844475
00000000: afc9 6184 04b6 0540 4d41 c346 d8ae 1040
00000010: 5cc3 b3cd ebdc 0340 874c 9547 7698 0040
00000020: 2e3c dca3 629b 0340 9c9f 69c1 51c1 fd3f
00000030: d711 93c1 0fc4 da3f 1760 ecc7 f618 e13f
00000040: c956 62b0 83a3 d1bf 9a04 0c26 ff39 e1bf
00000050: 6a03 d863 4d60 bd3f 491a b9a6 7d4b d73f
00000060: 005c 1b57 ea7c f53f 6c82 eabe 5fbe f03f
00000070: 969b 6a52 4401 0940 daaa 771c 58a4 0f40
00000080: 3ca7 5f65 c6d1 0c40 ab40 adce 9a62 0b40
00000090: 6290 1f2a 151c 0f40 bb5e 912e 6f6e 0540
000000a0: 5be2 2ab7 d79c f83f 38f4 49e9 9623 a83f
000000b0: c224 1a1b 9e69 d1bf b447 e213 4faa cdbf
000000c0: 2a54 2d75 0e3e f8bf aa02 af1f ecad 01c0
000000d0: 6b98 3699 064f d0bf b956 585b 5e94 f63f
000000e0: d5f9 57aa 9577 0740 f6c1 9c9d eccc 0640
000000f0: 7f36 7926 eaba 0e40 7544 3314 a568 1140
00000100: 83a8 9f02 df12 0e40 da09 f2f1 9500 1140
00000110: a7fb ce3a f913 1140 0e91 3816 3aa6 f93f
00000120: 9607 2215 2c9d f93f fa70 8667 cc2c e83f
00000130: 7c45 685d b3c2 e1bf 8d8d 2d89 2e97 01c0
00000140: e2a2 bffe 1ffd efbf 8849 9393 85b6 dcbf
00000150: 2bdc c00f a4f7 dcbf 51e9 1bbb 279e ed3f
00000160: 693d 3ee6 5b2c 0140 9b70 b32f 4d4b 0f40
00000170: 08e2 4c51 59e5 1340 582a 4727 a843 1340
00000180: 3b04 86b0 95de 1040 3f12 ca63 1c0c 1340
00000190: 1f41 b4c9 f2a1 0940 16a0 1371 875d 0640
000001a0: a75d a577 2aa3 f03f 26c0 d309 6228 db3f
000001b0: 932a 9684 6258 ffbf 5d84 17fb bf71 febf
000001c0: 28b5 4849 792c f2bf c360 3d21 82ab f6bf
000001d0: c5c1 0c3f c2d8 f93f 8413 e8d4 72e3 0b40
000001e0: 7a7e 30bb e264 0a40 2fe9 0afa 47db 0640
000001f0: f7ef 26cd bba4 1240 f1b7 e7b3 8a4e 1540
00000200: e4b0 3572 dae2 1240 4b83 16d1 4843 1040
00000210: b9cf 9fe5 e3a2 0240 cb66 4a33 9448 fb3f
00000220: 613a 7c56 1442 d73f b7ed 9eef 2a71 edbf
00000230: 96f2 742e 4422 03c0 8ffd 08b7 edca 09c0
00000240: 7915 9617 53b7 f4bf ce11 55b1 b963 c83f
00000250: c2b5 ebd4 1585 e13f 5f15 92d9 06bb f23f
00000260: c9bb 896f 6c9a 0240 94d2 166d 0cd5 0240
00000270: 7419 d118 9f32 0c40 fea2 ea80 8c9d 1140
00000280: 0eab 83c8 7de0 1040 5d76 cb4c dd03 0640
00000290: c392 bb4b ed00 0740 bd69 52ca 3c32 b23f
000002a0: f86b e7da c197 fdbf 4819 5acc 28d4 01c0
000002b0: b898 5fc3 06ea ffbf e2f3 9a8c bdce f1bf
000002c0: 1748 ec72 1d22 fabf b61f ee69 4740 e9bf
000002d0: bdb4 c39a 2847 0140 a874 b2c2 6556 0140
000002e0: 5a50 be27 b398 1140 ef44 e104 3d50 0640
000002f0: ff1c 03ca 27f1 1740 8d97 14f7 650b 0d40
00000300: 3ef3 ccca 888b 0340 f3b0 41a7 62fb e73f
00000310: 7be4 8e1a 9715 a7bf 7d58 3ba8 0063 f0bf
00000320: d137 c3dd 8daa 0cc0 49bb 3dae 6b2a 0cc0
00000330: 2293 bc02 899e 08c0 ab42 9e4a be9a 07c0
00000340: a5aa 12cd 9d6d eabf 2e40 9fe1 626e f73f
00000350: cacf fcd8 e844 f23f 75de 0dd9 62bb 0740
00000360: 5a8c 3bc5 91c7 0d40 2abb 0d60 de01 1140
00000370: 55d1 0164 04b6 f63f 436e 4187 7a36 0140
00000380: 167f d5f0 097a d5bf cb05 4600 065c fabf
00000390: 62e8 7323 188f f3bf bc5c 4067 7435 0bc0
000003a0: 4d19 c88d 5881 01c0 c970 e445 56b2 09c0
000003b0: 09ff 2664 f040 f9bf 0278 3637 659d debf
000003c0: f80f e980 30b4 fa3f 485e 8d75 90d3 0640
000003d0: dee0 d8a4 b7e2 1040 b036 760b f7ef 0e40
000003e0: 65d4 4702 ce3e 1740 3214 8475 1cee 0240
000003f0: b8ca cc9d beb8 f63f 01e8 8f26 170a fabf
00000400: eadf 72ba 845a 08c0 b546 6d23 d575 09c0
00000410: 05ff 3966 be3b 1ac0 8aa3 3bf8 76e8 0ec0
00000420: 80f0 cbd2 5f05 0ac0 85f0 045f 3d41 ecbf
00000430: a30d 8ba8 cd30 00c0 0224 43c9 4cc8 e8bf
00000440: 45e7 cf2d 389c f53f 0198 c2af de9f e33f
00000450: 709e 392d 366c 0440 a4a4 1284 1fd4 0040
00000460: 6b15 279b 6568 fb3f 4808 1a75 7167 cdbf
00000470: 0742 b4d5 afa7 02c0 2add cfda 1f03 08c0
00000480: c390 2440 db84 0ac0 8bba a94c de84 12c0
00000490: 0c71 ed99 1ffd 11c0 cc2c 523b 3718 01c0
000004a0: d4ce 1242 d327 06c0 06fa 018b 9b3e 05c0
000004b0: a70d aeaa 5a73 ecbf 62b2 8c4b 46f6 f03f
000004c0: 55ff 1b12 3473 fb3f ae72 852e 6de9 f33f
000004d0: 93fd adbc 7544 fe3f 0cf3 b817 7b61 e93f
000004e0: 33e4 8399 217f f2bf 7ded 070a d1b2 06c0
000004f0: e5b0 1115 4603 f1bf 1960 ba1f a6e7 0dc0
00000500: 3549 2a69 52a0 10c0 20a6 a4af 234c 14c0
00000510: 706e fc49 35d7 0dc0 54b9 27b7 8f7f 11c0
00000520: d07a 75b6 75e9 10c0 40dc 31f4 a2f4 f3bf
00000530: 62e7 904b 713f e1bf e080 5543 7f76 e53f
00000540: e680 194a e328 0340 3417 cd25 02ee 0040
00000550: 9207 297c dbba fd3f b4a7 a2f2 57bf d73f
00000560: 2a53 bd22 f12d e0bf e10b 05e7 fa96 08c0
00000570: a8bf 0327 8f0f 08c0 92ca 9924 cbdc 0fc0
00000580: 3789 2840 eb8f 12c0 8384 6126 24ec 0fc0
00000590: 2d26 4713 68cf 10c0 08c0 230e dbfd 13c0
000005a0: 55c5 cd31 c1f8 04c0 4016 2e41 6775 e3bf
000005b0: d199 282d 0d00 cb3f 5704 8fd1 01e6 e23f
000005c0: 9fbf cdb2 8f41 fe3f 87cc 9408 4287 f53f
000005d0: bcc5 7eb3 02d1 d23f 1ade 442b 312f edbf
000005e0: 5867 5ad7 170d 07c0 6a38 23b4 6991 0cc0
000005f0: 602e 5890 802c 10c0 4481 4331 7d29 09c0
00000600: 8d79 36e4 9ecd 17c0 5410 7a34 89d2 11c0
00000610: 7104 7074 ea46 07c0 1de1 0a0e 63a3 0cc0
00000620: 272b 54a6 7d86 0dc0 9782 66b3 359a cabf
00000630: 16eb b65e 0365 c5bf c12a 990b 9687 c83f
00000640: 8cb9 d1e1 a8f9 fd3f 1d9c 523c 437c c13f
00000650: de16 b1c6 b4b0 e2bf 5a89 0f2c a699 f8bf
00000660: 10ed 1ca3 2589 be3f 67be be97 07cf 0bc0
00000670: a2d6 e9b1 db5f 13c0 44e4 3183 a0bb 11c0
00000680: 9edc 3baf 90bf 09c0 f3a6 2ade ddb8 09c0
00000690: a104 611a 4e26 07c0 7c5d e98e 262c ffbf
000006a0: 5a42 1bbf ea02 efbf c5db 760a 233b d23f
000006b0: 9c16 a1bb 7193 d9bf 949c e675 c79e aabf
000006c0: 2e3c fe7d 9724 d43f 33aa ca72 5fce e03f
000006d0: 52f3 e2b4 8e9f e6bf 12db c69f 6136 fabf
000006e0: 75e4 a0ed c20f fdbf f62a 5e8f 3933 01c0
000006f0: a581 b803 acd8 f7bf 215a bf30 8259 08c0
00000700: a3ea 2242 28fc 10c0 a6ba 5a95 9876 0e40
00000710: ff44 33d9 144e 1040 b4ed 79f0 3111 0d40
00000720: 789d 6be4 0881 0940 d0bf 11bf 624f 0d40
00000730: 9538 f6c5 6592 0740 fca3 d5e1 6ae9 fd3f
00000740: 17d1 7f65 2eca f93f 5cad 5fbe 4f46 0240
00000750: 3e52 b5f9 b513 0b40 62d4 c29e f554 f93f
00000760: 27c0 ae75 495c 0640 8ce1 7ec6 bbdc 0240
00000770: a0e6 4758 1100 1240 8b97 dd03 e292 1540
00000780: ed11 0e27 376c 1640 ccb7 d718 0c1e 1840
00000790: bf3f 1f3e 88eb 1440 25ef bbf4 a719 1340
000007a0: f555 423d 4b64 1140 f091 9a84 1586 0e40
000007b0: 389a 477d 9cb2 0840 129d 6500 af65 0240
000007c0: e934 4233 40a7 0140 83ce 4d4a cda6 0540
000007d0: a676 5697 c8d3 f83f 0101 0b1a 566b 0040
000007e0: 3aa2 5ece 32b5 ec3f 2a1a beb5 cdae 0c40
000007f0: c772 518f 8a59 1140 2938 939a 85d6 1440

sampling_frac f8 []
0.03
00000000: b81e 85eb 51b8 9e3f
