figs/grid_search_recon/skmodel/sv-ideal-p=2/recon-cs_seed=24-sf=0.030-skmodel-sv-ideal-n=24-p=2-seed=2-12-15.npz (npz, 251240 bytes, 2 tensors)

recon f8 [12, 12, 15, 15]
0	0x4006813c6d61a2f9	2.813103537122853
1	0x40100d600f86f213	4.013061754809786
2	0x40050257bcc5829b	2.6261439082885096
3	0x40014c2591b1522f	2.162181032394322
4	0x40058d8f92324d63	2.6941214963532487
5	0x3ffe6a1f74ee61d0	1.900908905756399
6	0x3fd6b197e7c17311	0.3545894397009742
7	0x3fe02d2cc704b91d	0.5055145155982107
8	0xbfc6468eb19c3698	-0.17402824089406432
9	0xbfe262ffe16e7c47	-0.5745849039993879
10	0x3fc08c5feab51e48	0.1292838951142008
11	0x3fddae05ade1732f	0.463746471219383
12	0x3ff5fa5b2ca60d3a	1.3736221069419359
13	0x3ff048dc070d2a9d	1.0177879596182386
14	0x400829d90e4dff80	3.0204335324814906
15	0x4010c1b397d32cb4	4.189161655677868
16	0x400e5ced835248cd	3.7953748950468253
17	0x400c07557aa76c52	3.503581007227276
18	0x401006c8ceabc511	4.006625394090649
19	0x4005bd59b82691bf	2.717456282307665
20	0x3ff9467dfca7bd0b	1.5797099942536217
21	0x3fa60dc8e48fc55e	0.04307391920145663
22	0xbfd1f6e085f1ef41	-0.28069317894527407
23	0xbfd6b93048eac185	-0.35505301590730937
24	0xbff796cc53485d54	-1.4743159535626846
25	0xc003654e167320d8	-2.424465346706807
26	0xbfcbf48ac86eebfd	-0.2184003332784811
27	0x3ff473d25cf763f6	1.278276789808158
28	0x4006fff3378a2511	2.874975618270249
29	0x40079fa5758497e7	2.952952306851319
30	0x400fa2793bbdb5aa	3.9543327967901023
31	0x40117fd12d188610	4.3748213812082355
32	0x400e08aeec499a4d	3.754239889141252
33	0x40112190d7442c60	4.282779086624117
34	0x40124ff469068da5	4.57808078863619
35	0x3ffb766eb8b7e146	1.7164141860540254
36	0x3ff62caf1c736e92	1.385909186493255
37	0x3feb00182925efab	0.8437615207362702
38	0xbfe0dacd7f3d8984	-0.5267093167461074
39	0xc001d9f19453d2db	-2.2314178073960256
40	0xbff07668065f4d4d	-1.028907799617474
41	0xbfe0a3780e3ffe9c	-0.5199547079391382
42	0xbfda15b229247796	-0.4075742151052223
43	0x3feb110492f63549	0.8458273763987246
44	0x4001673804560ace	2.1753998125799177
45	0x400f99cc0d6a21df	3.9500962303174982
46	0x4014ca525f53ebee	5.197579850670975
47	0x401391fd1c2faedf	4.892567100916238
48	0x401199f917ec3e5d	4.400364278597036
49	0x4013cc9f7b784956	4.949827126709655
50	0x400a2cacf6e1763b	3.2718142783694737
51	0x400664a9a93522c6	2.7991517276135225
52	0x3fec4b8f441b13c0	0.8842235880080054
53	0x3fd5de956c86b450	0.34171043012867575
54	0xbfffd7e1d6f210a2	-1.9902056118308242
55	0xbfffead1157f51c4	-1.9948283042659662
56	0xbff22b3772a78c14	-1.1355509260836287
57	0xbff681c0e50b51c2	-1.4066780993499468
58	0x3ff76dec4ca882c4	1.4643366808378895
59	0x400d2447ff86f4d3	3.6427154505787285
60	0x400b42e6e31a465b	3.4076669447320405
61	0x40084eef19ef1cd6	3.038541987046851
62	0x40132f29c5219f50	4.796057777573722
63	0x40165585726261ed	5.583516871695321
64	0x4013eb8c2f4f46ad	4.980026950086239
65	0x4010d4be2dcd81d0	4.207756724994809
66	0x4002b80df23ac251	2.3398703502828444
67	0x3ff751b34e1ca65d	1.4574463893171903
68	0x3fd0e52c2f7485c6	0.26398758539479805
69	0xbff209ea8aa22e8e	-1.1274209418651568
70	0xc0044a1dd9a582ff	-2.5361897472033657
71	0xc00aebf4881e21e1	-3.365212500972334
72	0xbff7a1dfb2840f56	-1.4770199750209563
73	0x3fc88f8ce0bb9b3f	0.19188080762179457
74	0x3fe6449a1f999482	0.6958742730318053
75	0x3ff1af8bf3644c07	1.1053580768100362
76	0x400589fd188b59e9	2.69237727332369
77	0x400228fb5adf3e9d	2.270010671556362
78	0x400df38a1fad0f8d	3.743915793866057
79	0x40124701043879ff	4.569339815089278
80	0x4010e9867ed7b43b	4.228052122035531
81	0x4006b3d89062de14	2.837815406815716
82	0x4006cd09b9b818f7	2.8501162061030487
83	0xbfb7c082c0ffb08c	-0.09278123103985275
84	0xbffd72d64588ae38	-1.8405363765877052
85	0xc0047f221680f240	-2.5620767362691197
86	0xc00078a7f5e5cfea	-2.05891410930234
87	0xbff1ee644ca4dcc4	-1.1207011217027665
88	0xbffb37521d2b163b	-1.70100604432936
89	0xbfe799a04c7213a2	-0.737503194148861
90	0x4002f8c77cf9bc5e	2.3714742435181924
91	0x40030d74e535a83b	2.3815706164359915
92	0x401187540cbe3fa0	4.382156561958169
93	0x400760b03cb43148	2.922211145638503
94	0x40182f6b6615cf34	6.046308131295337
95	0x400dbcaf93992f6e	3.717131760704368
96	0x4003466e0ce5519d	2.409389591930632
97	0x3fe4bfad71d5ba26	0.6483981345498406
98	0x3fb5c80abe23f635	0.08508364812947707
99	0xbff06794bdcbfa48	-1.0252883352219602
100	0xc00dc66d4ab55395	-3.7218881451212362
101	0xc00ccf5ceefb19e9	-3.601251475370408
102	0xc0090b5e92bbe44b	-3.1305514777746217
103	0xc007cc4123a60a4c	-2.97473361826386
104	0xbfe77e3f4792372b	-0.7341610334276302
105	0x3ff6699636ad3eea	1.4007780204591946
106	0x3ff41fe0fd86a17a	1.257782926879456
107	0x40071518ede04e20	2.8853014549329288
108	0x400d9fc349b1a200	3.7030092007955773
109	0x4011c6c2804de80a	4.4441013381529135
110	0x3ff4bd3ae502f3d7	1.2961987443697944
111	0x40013cb4f4b315bd	2.154642020907629
112	0xbfdb165a9d64a730	-0.4232393776934371
113	0xbffa12129cb4ed73	-1.629412281165824
114	0xbff611ed4779be70	-1.3793766777052063
115	0xc00bf7fa41f6441f	-3.4960827973632287
116	0xc002aedd9bdb4110	-2.3353836227689797
117	0xc009743914edad70	-3.1817494998010076
118	0xbffbb6d9a2872cc9	-1.7321411465407428
119	0xbfe17b6f93bacad8	-0.5463178525299908
120	0x3ffa98af5af7c1e8	1.6622766068868433
121	0x40064b0b6eff25f8	2.78664290157462
122	0x4010638110e0be2b	4.0971720349476
123	0x400ef4d0be3681ef	3.869538770712317
124	0x4017416ce966f683	5.813892027768477
125	0x4003ab3f785d4c75	2.458617153498887
126	0x3ff79af3d8500436	1.4753302049359838
127	0xbffbc7e9c7735d6d	-1.736306933502273
128	0xc00994e7440ef31e	-3.197706729608753
129	0xc00a72ede8c62b15	-3.3061178384281313
130	0xc01a0a0305d43066	-6.5097771559486315
131	0xc01066088f515ac7	-4.099642028179637
132	0xc00b55309d36f931	-3.4165966303254653
133	0xbff070325039a98a	-1.0273917325781405
134	0xc00101ddf7ea319a	-2.1259116524071944
135	0xbfee75850caeb918	-0.9518456695275601
136	0x3ff5bdcea4a8e423	1.3588396484394785
137	0x3fe7b88aaf66b2de	0.7412770677379645
138	0x4004d5e3a32ecb32	2.6044380901961626
139	0x4001f7028ebccde0	2.245610346924636
140	0x3ffaa002b27da8d0	1.6640650722788912
141	0xbfc876ab154215de	-0.1911214689063589
142	0xc00212f1cdc89fab	-2.2592502667284484
143	0xc0089d0a6b9d1497	-3.076680031520094
144	0xc00a67360de1ff1d	-3.3003960690110845
145	0xc0139ca8efffceaf	-4.902988195408098
146	0xc0128cf8917ca865	-4.6376669628462865
147	0xc000e2eb55cdebe9	-2.110800428721167
148	0xc006e9efd6e484f7	-2.8642269886482796
149	0xc0063e49bb5f71ed	-2.7804140699865827
150	0xbfed151925ec9d8b	-0.9088254681309292
151	0x3ff01aa30dd348eb	1.0065031566669471
152	0x3ff874e00c7b8cc7	1.5285339820482464
153	0x3ff23e7460737c62	1.1402477042791124
154	0x3ffed6b295d4362d	1.9274164059346603
155	0x3fef83f7196ac939	0.9848590370586755
156	0xbff25e31b7317d64	-1.1479966312398
157	0xc00738d23631b119	-2.9027446969904642
158	0xbff18308f1f9bde5	-1.0944909526987143
159	0xc00e4f27af34f146	-3.788649910739113
160	0xc011f0b40b88d97d	-4.485061817386279
161	0xc014dd33e9c44c06	-5.216018345457092
162	0xc01011fa1ebd4105	-4.017555694867274
163	0xc011d0f39fc7b271	-4.454054352344074
164	0xc010c70e57a4096a	-4.1943906492109395
165	0xbff24eecef52d212	-1.1442689274382514
166	0xbfdf41f45b1ef22a	-0.4884005441524858
167	0x3fe4d1e8e2926cdb	0.6506237435563905
168	0x4002c32bbacc2147	2.3452982514901666
169	0x4002c69e76ac4e80	2.346981932767278
170	0x3ffcccefbb8a8fb0	1.800033314307239
171	0x3fe0454fafc43849	0.5084608490885866
172	0xbfe38d9310976a90	-0.6110320400287765
173	0xc00879a9a8d70536	-3.0594056311244016
174	0xc008edf06358d038	-3.116181160114163
175	0xc0113e72f2e22338	-4.310985369732229
176	0xc0133913dfb0093e	-4.805739874953643
177	0xc010057d2950fbce	-4.005360265319679
178	0xc0115837152c44cd	-4.336147623850775
179	0xc0146fb540fde20f	-5.1090898661573325
180	0xc0048589f3891c2b	-2.5652045274942075
181	0xbfe342b2d5e32e86	-0.6018919160355416
182	0x3fbd88b705b97ce5	0.11536735429534735
183	0x3fe7b7a36a5b76e8	0.7411667897501646
184	0x3fff6417093262b7	1.961936031270097
185	0x3ff689f3766d2675	1.4086794496564867
186	0x3fe17c4ecd64c0e4	0.5464242946236735
187	0xbfec3dc6416a8e44	-0.8825408246670539
188	0xc00601bdec67ddc9	-2.750850531501531
189	0xc00d576828e16783	-3.667679137591166
190	0xc011054fac4bf808	-4.25518674100568
191	0xc0095ac9115de726	-3.1693288189680002
192	0xc018b75f8b90d62c	-6.1790754134322405
193	0xc0115aea1b7650e9	-4.338783673378409
194	0xc0073fd895e66f7b	-2.9061748228977513
195	0xc00d05b78283e81a	-3.627791423464271
196	0xc00d5e1337edbe76	-3.670935093825217
197	0xbfb2e9f9d3f50587	-0.07388268875822322
198	0xbfc2336c0e40cc3d	-0.14219427772477103
199	0x3fca24c2e15fe729	0.20424686436290898
200	0x3ffe12801cecc08e	1.8795167093158258
201	0x3fca19946fc38e54	0.20390563447209564
202	0xbfddf04ba84f288b	-0.46779147564360163
203	0xbff9c1778963af5a	-1.6097331396840304
204	0x3fb526936e4cced3	0.08261987154838417
205	0xc00c7050a0d07410	-3.554841286050312
206	0xc013e942598a06bb	-4.977792166757065
207	0xc0125882a841ddd4	-4.586435917873548
208	0xc009d67d39142491	-3.2297310313484293
209	0xc00a87731803181b	-3.3161374927467597
210	0xc0064b6b4c9022df	-2.7868257504927523
211	0xbffd9626f96b6f16	-1.8491582625346772
212	0xbfef0f6dc1b622fa	-0.9706333907534763
213	0x3fd54f152bf66d6e	0.3329518250772797
214	0xbfdb266064edbe46	-0.42421731811825614
215	0x3fb02ffb963760cc	0.06323215882673877
216	0x3fd99fbbd6ee9d7b	0.40037437428914985
217	0x3fdb201b5d709df6	0.42383464932433357
218	0xbfe75d53202d73ab	-0.7301421764819812
219	0xbffa36db268ff301	-1.6383925920810614
220	0xbfff121e93a59fec	-1.9419236915073226
221	0xc0011f70e35b5cf1	-2.1403520357376853
222	0xbff8bb03c0fbac9f	-1.5456578768160296
223	0xc008b2b34c120584	-3.087256044673895
224	0xc0113f20f5fd24cb	-4.3116491733318965
225	0x400f1b653ebac4f4	3.8883767033336145
226	0x4010e3e8fb063dca	4.22256843782038
227	0x400dbb78b7508f75	3.7165388413868023
228	0x400a3279139f4509	3.274644997880959
229	0x400d58b2506750c8	3.6683088571099667
230	0x40085934ea42e4c6	3.0435579587616273
231	0x3ffcc67c07b1ea4a	1.7984581280312733
232	0x3ff8c90af7c6e234	1.5490827254090052
233	0x40041ebd7fe83a24	2.515009879374036
234	0x400a43662a78edc2	3.2829097097544215
235	0x3ffae78dd57005f9	1.6815317475706009
236	0x40065f52ba14b576	2.796544507748588
237	0x400225afb306e954	2.2684015261158184
238	0x4012046d0ebecf6e	4.5043222717248295
239	0x401585ce48f3d582	5.380669727213332
240	0x4016b089feb28013	5.672401408810418
241	0x401842b50aa7c66d	6.065143743982486
242	0x401533792f16c6ca	5.300266967549485
243	0x4013b120d22923fe	4.9229767644510485
244	0x40110b599cfdb051	4.261084034904415
245	0x400ed761808fbf2e	3.8551664394252816
246	0x400a309aceb4f262	3.2737327717753013
247	0x400313a450372280	2.384590746576862
248	0x400282d41436c420	2.313881071015672
249	0x4004ad538cfd21d6	2.584632016634923
250	0x3ffa09f64ecf85c9	1.6274321630993305
251	0x4000844c63b048d2	2.0645988262341257
252	0x3ff11b66d9819836	1.0691898819291175
253	0x400ceae3aae70bd0	3.6146920539626777
254	0x4011277133a6bdb8	4.288517767955845
255	0x4015198974df3da0	5.274938417554409

sampling_frac f8 []
0	0x3f9eb851eb851eb8	0.03
