figs/grid_search_recon/skmodel/sv-ideal-p=2/recon-cs_seed=12-sf=0.090-skmodel-sv-ideal-n=12-p=2-seed=1-12-15.npz (npz, 251117 bytes, 2 tensors)

recon f8 [12, 12, 15, 15]
0	0x3ffba381ddbea02d	1.7274187719249412
1	0x3ff967e9a7907954	1.587869314716575
2	0x3ffa0a880f50e887	1.6275711630137566
3	0x3ff81cebeddbf69a	1.5070609370590433
4	0x3fe844a64909378a	0.7583800722584197
5	0xbfd45d46305a6240	-0.318193003864085
6	0xbfcbd5f98be2ee2a	-0.21746749239342594
7	0xbfe1791705ba6ac8	-0.5460314857367274
8	0xbfe287f89488409f	-0.5790980244655833
9	0xbfedd1289a020c40	-0.9317820556610812
10	0xbfefff8adbd08778	-0.9999441426518692
11	0xbfc8306d4a572706	-0.18897787218002565
12	0x3fd5c695e487aaf1	0.3402456981408895
13	0x3fcab50c868a6483	0.20865017480244683
14	0x3fe86b1f360b6705	0.7630764060552059
15	0x3ffec17cc47dd4fc	1.922238128228229
16	0x40040ec4019f0831	2.507209789911052
17	0x40037188fe2896c9	2.4304370742928296
18	0x4004822889e034ce	2.5635538837001155
19	0x3ff7f6acddf6a1ac	1.497723452610539
20	0x3ff0e874cd46db9c	1.0567520159363317
21	0x3fc51fef4a8d82eb	0.16503707065842063
22	0xbfe001aad9984f4f	-0.5002035379315916
23	0xbfee7a52d025b20d	-0.9524320664764346
24	0xbff5633b03fe93a8	-1.3367262035401186
25	0xbff8204265d7fad5	-1.5078758219021229
26	0xbff0b312e522ea3a	-1.043719191612253
27	0xbfd4a14f31d2186c	-0.3223455416231278
28	0xbfdb5e8d5c5cc6c4	-0.42764600772634886
29	0x3fde0ff7735f4baf	0.4697245241815677
30	0x4003fbad54ab5b47	2.4978891958993787
31	0x400a2fa720557af7	3.273267986878064
32	0x4008d8d4775b95de	3.105873997194734
33	0x4007576bce0e0d0e	2.9176860902822517
34	0x4001bae4d2bfccfa	2.2162567581923414
35	0x3ff6a160f1a53d1a	1.4143990935588762
36	0x3fcd1fed61c136fa	0.227536843044099
37	0xbfc3aaabb651d45f	-0.1536459579689646
38	0xbfef3e10d0bdbb26	-0.9763263775801974
39	0xbff71408a7e056dc	-1.4423910672825775
40	0xbffaacec79c4b9a0	-1.667217708261525
41	0xbff7ca1b8d5e04cf	-1.4868426820906284
42	0xbfebcd975d0b18e3	-0.8688465897801304
43	0xbfd7610c56d42678	-0.3652983520447388
44	0x3fdd596c87e1d41a	0.4585830046628999
45	0x40079e0acd452cb4	2.952169040368597
46	0x400db50427e35e9e	3.7133868328345008
47	0x4010a3dd0da24f83	4.160022938758519
48	0x400c100f25d1c632	3.507841392006207
49	0x4005db60bf17b80d	2.7321181229699563
50	0x3ffd9ec4b9de9439	1.8512618313336715
51	0x3fe1ed06873491ba	0.560183776925036
52	0xbfe27c91b68b64b3	-0.5777062001535768
53	0xbfeb5d8ad2e0c5e3	-0.8551687353812522
54	0xbffcb19fd3775f25	-1.7933653126146478
55	0xc0011aef83b4a4da	-2.1381521501067313
56	0xbffea30892abb40c	-1.9148030976605268
57	0xbff33b11e8743488	-1.2019213752967364
58	0xbfe91847f4f0628e	-0.7842139991726798
59	0xbfc50094afdab46a	-0.1640802248634004
60	0x40097de8914ef8aa	3.1864787437653677
61	0x400f821e18f2f377	3.9385339688437244
62	0x4010e5efe5848af9	4.224547945227408
63	0x400e1e07a8adf5a9	3.764663045700861
64	0x4006545f2c65b690	2.7911971539059053
65	0x3ff9d79d6d8e8fc9	1.6151403693738635
66	0x3fea6a4e2eebefe6	0.8254767338216851
67	0xbfe6ecf6edc39194	-0.7164263385607677
68	0xbff01926b2273fee	-1.0061404189218552
69	0xc000ded5b180315e	-2.1088060252424574
70	0xbffe0d0a0bcd6a1b	-1.8781834088355314
71	0xc0021467ef204859	-2.25996386353749
72	0xbffed0681849a13d	-1.9258805226073286
73	0xbff45667714c0771	-1.2710947442687621
74	0x3f8ba5b83052eba3	0.013499678587654723
75	0x4006b9aec1ecffc2	2.840665354771745
76	0x400eae651bc8bd56	3.8351537867198813
77	0x4010e98ce39de90b	4.228076511872369
78	0x400efe998fc04888	3.874316332870027
79	0x40066952f307b168	2.8014277445528712
80	0x3ffd3f6ca0201ef2	1.82798445271504
81	0x3ff1716bee349780	1.0901908211612579
82	0xbfe5f208ec5b3d8b	-0.6857952705703821
83	0xbff3c473ec11504c	-1.235462114466844
84	0xbffda2821c76fbcc	-1.8521748649507002
85	0xc00306f43e976e61	-2.3783955469096303
86	0xc0039fb83dbd430a	-2.4529881308920993
87	0xc0009065ae10d781	-2.070506439103099
88	0xbffa2e1fbeae07ec	-1.6362607429914489
89	0xbfd1d57fc52c32fb	-0.27865595107213864
90	0x4009bddb2193fd82	3.217703115776829
91	0x400e4ee4cedee042	3.7885223542944297
92	0x400e1424588e1d6c	3.7598349493379626
93	0x40102a8f5e42480a	4.041562531276222
94	0x40032c4af71be0db	2.396627359903602
95	0x3ffcfca2da6d81d3	1.8116787464460813
96	0x3ff120b5f23bd916	1.0704860174424247
97	0xbfd311270a8802ad	-0.29792190578886385
98	0xbff2e7e5a554a7c3	-1.1816154916982533
99	0xbfffe3d0f71dae6e	-1.993119206711437
100	0xc004109b530350cd	-2.508108757532773
101	0xc007d9ad203a086b	-2.981287242671035
102	0xc00688ec42531d73	-2.816856878434629
103	0xc0053fc0766c5e8a	-2.656128812009972
104	0xbff4fd3b7b3781a9	-1.3118243039281003
105	0x40058ab6b175822e	2.6927312721238854
106	0x400bb885c3dcad11	3.4650988866538985
107	0x400be8d9c8125514	3.488696635302981
108	0x400bd4772887d287	3.47874290146348
109	0x4006dfdc505d93cd	2.8593069342191257
110	0x40007ae9cf99be75	2.0600162714761674
111	0x3fee5de1013148a6	0.9489598296443276
112	0x3cc637062df63f61	6.165883926289409e-16
113	0xbff3c5474a7155db	-1.2356636913221937
114	0xc000de5019461460	-2.1085512136947244
115	0xc0074e70e2a2991f	-2.9133012491103183
116	0xc00d4eb476816327	-3.663430143188083
117	0xc00a2bdc28f13731	-3.2714160154927403
118	0xc00a5022729f39f0	-3.2891282038537994
119	0xc002bebfb989b74a	-2.34313912345434
120	0x3fef4c7cfd4e3c5b	0.97808694337608
121	0x4002a991df2477b3	2.332797759342577
122	0x400464371876a405	2.548933211441638
123	0x4007090a9b5f7442	2.8794147623544015
124	0x40013395c676e57c	2.1501880173715886
125	0x3ff860786f2d8f76	1.5235523550881829
126	0x3fe12d9486329e7e	0.5368139859246666
127	0xbfcfd2a777144f48	-0.24861615480824129
128	0xbff240111a784db8	-1.1406413110715743
129	0xc000b23c5bddf76c	-2.087029187880878
130	0xc007e3d45720784e	-2.986244850805668
131	0xc010fea1a4a9c766	-4.248663494932634
132	0xc01014f4560af271	-4.020463318269877
133	0xc00ff39fafc8e5aa	-3.9939569218810975
134	0xc00c88f0d2a88545	-3.566865583198395
135	0xbfb9e74bc64eb1a1	-0.10118554679383475
136	0x3fff5a08c791da58	1.9594810290997398
137	0x3ffce682ca3a7b5f	1.806277074770797
138	0x3fffaf49b59b0ae2	1.9802949041338072
139	0x3fff347400aadc82	1.9503059412070631
140	0x3ff4751d69af07a3	1.2785925033826764
141	0x3fe0a71d2031fc53	0.5203996304334261
142	0x3fae8d15ed96e4c0	0.05967014813672611
143	0xbffa44d15298da90	-1.6418011881302483
144	0xc001f31e7f0686ee	-2.243710510622683
145	0xc00b885246689626	-3.4415631771724007
146	0xc0101d4e724ac94e	-4.028619561972233
147	0xc0118c9dec55e015	-4.387321179143346
148	0xc011079587e56779	-4.257406352402421
149	0xc00c1101b0985d3a	-3.5083040043351987
150	0xbfe4a256a8f78103	-0.6448167133458188
151	0x3fe8e27492b5a5ec	0.7776434770032075
152	0x3ff9c04b489d7ac2	1.6094467960862606
153	0x40018af10b2ab3b2	2.1928425667196842
154	0x3ffa0a83a7fa0363	1.6275669633471004
155	0x3ff5c74d3808e182	1.361157626042854
156	0x3fe2219ddfabac6c	0.5666036003652954
157	0x3f96b777552989b8	0.02218424279488726
158	0xbff7478e659bd9de	-1.454969784650181
159	0xc001e39c750d56d2	-2.2361382622428687
160	0xc009566276753794	-3.1671799902459927
161	0xc010edcd15ba356d	-4.232227649202611
162	0xc0111be6fc0734f1	-4.277248323383206
163	0xc011e5a681e76180	-4.474267987964026
164	0xc00f2e0de5f33b8a	-3.897487446294183
165	0xbfe5c5ca534dda35	-0.680394327834455
166	0x3fc775849d4198c8	0.1832738654949877
167	0x3fea53c7ec502e7a	0.8227271666996352
168	0x3ff96f23274aa600	1.5896331343486736
169	0x3ffc899f4696d781	1.7835991628066667
170	0x3ff12430b6f2d383	1.0713355204036084
171	0x3fc33992a2c94390	0.1501944823126249
172	0x3fc3a2900ae6504d	0.15339851886949632
173	0xbff72a802034554f	-1.4478760965333384
174	0xc001d5d0e2417e0e	-2.2294023205029196
175	0xc00a4979008ab3dc	-3.2858753244713466
176	0xc00ec75acfaa88a4	-3.847341177360322
177	0xc01062e13fd9f801	-4.096562383345373
178	0xc0100a930c8f9235	-4.01032657266892
179	0xc00d9449c8b8a738	-3.69740635694043
180	0x3f7380d8b85d1d42	0.004761549533049804
181	0xbfe7099ae1ab998c	-0.7199224860785747
182	0x3fcd2a00de166de8	0.22784434169885448
183	0x3fef4e1c0c6ef5d2	0.9782848589745134
184	0x3ff3b741cc1cdee3	1.2322404835849106
185	0x3fe3eafa1289cbb3	0.6224336969447591
186	0x3fd0a56de7ca8beb	0.2600970042787469
187	0xbfaeb1769efb1b8b	-0.05994768801388436
188	0xbfef34b2428d28ad	-0.9751826572258061
189	0xc000acf866bf683e	-2.084458162990841
190	0xc005cfbc650d4413	-2.726433553187698
191	0xc00e2817deeab10e	-3.7695767798778723
192	0xc00da01ee50d2d3c	-3.7031839270254334
193	0xc00d862f6e535f6a	-3.690520154876073
194	0xc00a66c314cc4f8d	-3.3001767754412357
195	0xbff28e2e15e8b096	-1.159711919385733
196	0xbfdf17a959becd45	-0.48581918491546033
197	0xbfcee605e45ae3c6	-0.24139474535129873
198	0x3fa831847011fb53	0.04725278728527962
199	0x3fe340b1d248091a	0.6016472918566109
200	0x3fe25f2adedbf957	0.574117121955889
201	0x3fd4e055e0186606	0.3261923492842417
202	0xbfdb80dc2cbe1788	-0.429739993757146
203	0xbfed3b43a91c864c	-0.9134844115216736
204	0xbff679cdeed97205	-1.4047374086432012
205	0xc001039d9e487d88	-2.126765476786833
206	0xc007f7b6d93ee438	-2.9959542248075444
207	0xc006b7d30e4ef9cd	-2.8397580259181496
208	0xc0086f79561ca1d6	-3.0544306495178075
209	0xc0072132a5883f61	-2.8912098819927654
210	0xbffbe754b65eaee5	-1.743977272398234
211	0xbfea1dbe84e900aa	-0.8161308856870353
212	0xbfe0d5ac10c1b651	-0.5260830237654749
213	0xbfd64670cfedb13f	-0.3480493574668521
214	0x3fe61fa4bdba5db7	0.6913627343773702
215	0x3fdacb265fe62378	0.4186492859376396
216	0x3fc5140329d28250	0.16467322866539513
217	0xbfaa28370c16bbec	-0.05108806631630344
218	0xbfcb3c57edacee78	-0.2127790365719766
219	0xbfda06b480b193aa	-0.4066592461370485
220	0xbff0813afcf7ce48	-1.0315503961145556
221	0xbff6e58ace0b3acf	-1.4310405777538795
222	0xc003496d5a1879a2	-2.4108531035155503
223	0xc0028c2a46a8f2b6	-2.3184400101002565
224	0xc00236733ee42481	-2.276587001168594
225	0x4000d34d11463146	2.1031743382974666
226	0x40012ec8e2ca37f8	2.147844096943114
227	0x3fff3b8d9a72d454	1.952039340319307
228	0x3ff9150256345fe5	1.567629181610749
229	0x3ffb25dd25f0e27d	1.6967441064900008
230	0x3ff5da2ce7fedcdc	1.3657654821707217
231	0x3fe6d08ff32f9f8e	0.7129592656828991
232	0x3fd06f7036517640	0.2568016558123851
233	0x3f9d453203b74bd0	0.028584271885687518
234	0x3fdfd0d3727a94de	0.4971207254369129
235	0x3fe28a9000212c6f	0.5794143679171507
236	0x3feefbbfb73dd221	0.9682310656485847
237	0x3fe98e3f01d77f1a	0.7986140285465553
238	0x3feaca1045346018	0.8371659614231275
239	0x3ff4c84e65c14b98	1.2989028906638165
240	0x4002a5b5b4d15a73	2.33091298355003
241	0x4003cea9933ce16d	2.475909376426151
242	0x400567b2f2f88a57	2.6756342870806225
243	0x400407c3685bf181	2.503790679269685
244	0x40031f82c3fe6ffc	2.390386134340586
245	0x3ffd4e42c58973ab	1.831606647137259
246	0x3ff524f38824dad0	1.3215213125346743
247	0x3fe494b1946addf8	0.6431510828760443
248	0x3fd0f9ffab265885	0.2652587100395823
249	0xbfc7d8112353ceb4	-0.18628133988351225
250	0x3fd30a52a82c0e38	0.297505058508452
251	0x3fd878dcdbfc98b1	0.3823768757159867
252	0x3fd8c2e1c3fdc620	0.38689464702392407
253	0x3fe33e86a3d0361a	0.6013825606802954
254	0x3ff4e48a56ad2757	1.3057959924503473
255	0x4009a81f46364b90	3.2070909009284563

sampling_frac f8 []
0	0x3fb70a3d70a3d709	0.08999999999999998
