figs/grid_search_recon/skmodel/sv-ideal-p=2/recon-cs_seed=16-sf=0.090-skmodel-sv-ideal-n=16-p=2-seed=4-12-15.npz (npz, 251173 bytes, 2 tensors)

recon f8 [12, 12, 15, 15]
00000000: 7597 c769 5773 f73f abe8 9dee 8615 fe3f
00000010: 3a24 badb 2841 fc3f 3863 58f3 67a6 fd3f
00000020: beff f49d c42b f53f f99c 11cc c8e5 ca3f
00000030: 237f 6dc6 51cd d8bf 9ffa 2c67 ce39 edbf
00000040: 28f4 eb1e c8d3 00c0 93cd dc05 a198 f7bf
00000050: ce6e b5d1 3f7f f7bf c9da 4e92 cdee f7bf
00000060: 610e 1671 9de9 efbf 1d61 f8ac a2aa aabf
00000070: 6010 7afe 3fbb e93f d4f5 ba48 447a 0040
00000080: 3a1c 5bbe ba8e 0740 96e4 ce6d edf6 0940
00000090: 4b72 8cc1 567d 0c40 d05d d245 bec3 0540
000000a0: 251f 5e6e 2de5 f93f 380a 5f93 823b d53f
000000b0: 7a92 e5f7 75e1 e6bf 7de6 4b8f 680e febf
000000c0: f8d5 2992 623a 02c0 f5e1 071a 69de 00c0
000000d0: 1c27 a1ff 1b2e 01c0 50a2 ed69 2eda f7bf
000000e0: 0aba 1e67 dcdf cfbf 9d47 4105 50b7 e23f
000000f0: 8d6a 80b0 18a3 0840 d483 005f 5422 1340
00000100: 71c4 05a7 072c 1140 a7b2 5abe dd72 1140
00000110: f927 3d10 ff70 0b40 7350 c1b8 9d6b 0240
00000120: d337 8f92 112a e83f b877 a3dc 2440 e4bf
00000130: 9323 9c74 889a fcbf 6959 02ab 9180 01c0
00000140: e76e 5fd7 3bf5 04c0 b3a7 8e86 1241 01c0
00000150: d779 b998 f84d fcbf 5a1b d2f3 2dad e5bf
00000160: 9f4e bd36 2014 e8bf 8cc6 015f 7eca 1440
00000170: 00ed 8827 bdfb 1340 330d 3b13 e07b 1140
00000180: 787e d33d ec7a 1140 125e 6b55 5aeb 0a40
00000190: 5c5d ae5e ae09 0440 61b7 e214 e2d7 f13f
000001a0: 40bb 9412 bc78 d5bf 9ef6 69fa 655d f3bf
000001b0: a029 83ff 6c7f fbbf 6666 65fd ed3a 03c0
000001c0: b133 301c ac00 02c0 0610 8f90 7e89 02c0
000001d0: b060 5c23 9d4e e8bf b0ab faab 32fe d13f
000001e0: b378 0ec2 84fa 0940 dc97 e85d e8b5 1440
000001f0: 0ad1 59db 6e6e 1340 cf0a d00c d421 1140
00000200: 7d9b 7fbf 82aa 1140 389e a150 14cb 0540
00000210: 53f4 6db2 fcea f83f 7d6c 7952 309a a23f
00000220: d30f 1aa5 07d4 f6bf a2c0 4f5c 4859 04c0
00000230: 8dbc 26b1 7b9c 04c0 bf32 3789 e550 09c0
00000240: 2fc3 590d 5a25 07c0 159a 61c6 73ab f4bf
00000250: 754d 443a 6c4a c03f fab5 327e 2422 0e40
00000260: 2d62 4013 3ad9 1540 82fd 3b49 9bc2 1540
00000270: d548 4fd4 9476 1340 4942 010f 6fa5 1040
00000280: eafd 863e 97ef 0640 6d9a 6c57 46a8 f43f
00000290: e30f 569d d66e d4bf 5cd3 4eaf 381d f8bf
000002a0: 0944 6c25 e695 06c0 18d9 ffe0 0dfd 0ac0
000002b0: 96ea 772d 627a 0ac0 2b7b e327 cb84 0cc0
000002c0: e654 33a1 e12c 04c0 8c75 d931 b307 e1bf
000002d0: add6 c6df 8e11 0540 1b81 be6f 4e83 1340
000002e0: 6e9b e8cf 0fa9 1140 13d4 c4c5 6366 1240
000002f0: feae aea1 a280 1040 f28f e55e d4a3 0a40
00000300: b428 001a 8891 f73f 5c26 fffb 23cc bf3f
00000310: 51fc 5588 2e3d fbbf 7a3f 2fc7 7fda 02c0
00000320: bd1a 812c 7828 0fc0 2ad3 b5da e7a9 0fc0
00000330: 06e1 1f08 54db 0fc0 2999 fa65 9958 0fc0
00000340: a6ba 8833 bd0a 03c0 5a67 8a40 4449 ff3f
00000350: 4eed 9e93 5d9c 0840 a62a e27a a23b 0c40
00000360: 0dd4 c86a b28c 0f40 b874 9ae2 4668 0a40
00000370: 2573 a01e b633 0240 e913 50c9 58ae f23f
00000380: fa79 f772 3ca2 abbf d337 f116 7408 01c0
00000390: 0904 3149 3c9f 06c0 8a83 fc6a 1868 0fc0
000003a0: acb0 3fb0 9c98 0fc0 cf7e fc58 f4a4 12c0
000003b0: ab03 5b05 1075 10c0 4241 6c3c 37e5 ffbf
000003c0: fc45 74ab 274e fb3f e9ac 9480 927e 0a40
000003d0: 3223 f607 fea7 0f40 41f5 ee70 3818 0e40
000003e0: 75ab 9926 6e49 0c40 0d5a eecf aeb8 0040
000003f0: 9f03 11f1 91e4 ec3f fc21 0c3f 21d3 dfbf
00000400: 923b 547c bc0d 01c0 a81c ee76 9c2f 0bc0
00000410: 55b7 0330 c2e8 13c0 b04a 7940 129a 14c0
00000420: f441 3b35 2010 15c0 61cb 088a ddfe 13c0
00000430: 29f4 ca49 3d5c 13c0 1599 2cc3 cbb8 fb3f
00000440: ceea f602 2683 f63f 8409 990b b0aa 0440
00000450: 3c5b 8611 be5b 0740 baf3 0519 8a43 0840
00000460: 8999 496d 51ef fa3f 8148 b5f3 0e7e f43f
00000470: f20e 569d d66e d4bf bad0 ebc5 6343 febf
00000480: 7307 d15f c2bd 0bc0 4a06 a0c5 e695 15c0
00000490: e7f9 af53 c93a 16c0 6cd7 f2a6 7ad9 19c0
000004a0: 5deb 5f53 e306 19c0 a286 18fe e1f2 12c0
000004b0: 909c f8c2 1e6b e9bf 4140 a08b ea67 d33f
000004c0: 5cf2 28f1 d600 fe3f 76b0 b6cf e6c0 ff3f
000004d0: a63d cf39 3b2c 0440 1a4b 7400 c351 f93f
000004e0: 0214 90ec 5c47 eb3f 5042 b09a e12b c3bf
000004f0: 5a70 c9d7 d0b6 00c0 3002 244d afef 0dc0
00000500: e892 376b ab07 14c0 65b3 0c5f f0e4 17c0
00000510: f182 238f 586c 17c0 bd67 0372 6c90 17c0
00000520: 7aec ef8d b0c3 11c0 be60 090c daf5 ecbf
00000530: 9c4e 20c2 9755 d63f 430d 9a48 12b8 ee3f
00000540: 3747 93f8 37f4 f63f 28b9 7287 92df fb3f
00000550: aa12 c7ae 6224 f43f 59e5 d917 ac2c f13f
00000560: 2edb c145 d799 c4bf 43fc db67 e943 fbbf
00000570: bb9c 1ec5 7c59 0ec0 fa94 305c fd9b 12c0
00000580: 7264 926f 75c8 16c0 da59 d58e 5765 15c0
00000590: b212 301e 8a48 14c0 b2aa 2cea f300 0dc0
000005a0: f3fa d7b0 2b10 f5bf cbcb bb56 7c5c c3bf
000005b0: 52e0 3811 3a1d f33f 8328 1d96 7112 e93f
000005c0: 69ad 24f8 091c fe3f a937 680c 09bb f83f
000005d0: 75e0 d0d7 1fc0 e83f c1a2 ac7e 3799 bfbf
000005e0: 6fb5 eecb 6181 f9bf b6c9 c9dc 9f50 0bc0
000005f0: 1833 48be 6131 11c0 b373 32e9 5a60 13c0
00000600: d432 c1af 5a27 13c0 1679 39a7 1fa7 12c0
00000610: 1927 70c2 7653 0fc0 dfc2 ab98 f6eb fbbf
00000620: 2ae1 0c38 d0cd dfbf aef4 0500 6144 e23f
00000630: bdc0 6c18 968d ee3f 06d7 fcbc fec9 f13f
00000640: a6a7 3253 a171 ea3f 9f86 4e93 e36e f23f
00000650: 2539 9f89 de50 dabf 9287 b289 f803 f1bf
00000660: 5de7 f43c a179 02c0 953d beac 131d 0ac0
00000670: 9efc 5003 f5cb 0ec0 056f a8ff c210 0dc0
00000680: 48a5 7283 ce0c 10c0 a115 29d0 993e 08c0
00000690: 7f67 c549 e498 fcbf 2b79 3437 3589 f4bf
000006a0: 0b2d b999 5500 a63f 55c0 da2d 0646 e23f
000006b0: ccad 432b 2509 e33f b03d 84e0 9cd3 dc3f
000006c0: 0c14 36ff 8651 ee3f f014 e9b4 bb23 b1bf
000006d0: cf2e 67d0 d881 e2bf 1b43 2ed3 68f5 f7bf
000006e0: c172 f190 41d9 01c0 276e f686 7c77 01c0
000006f0: 1c91 624c 1b2e 06c0 a73d 111c 6ce7 09c0
00000700: e362 aad3 ea05 04c0 245f 8074 b6bf fa3f
00000710: d942 7621 d24f 0440 cadf ba83 fedd 0140
00000720: edc8 f98e 00f9 0340 c629 4371 6d3e fa3f
00000730: 8d68 7204 2e70 fd3f 609e 5b60 2a46 f53f
00000740: 117c f8a7 08f8 e53f 1806 9082 eae4 c53f
00000750: 5807 4be0 e0c9 a73f f0e8 bb4f bcf1 c4bf
00000760: 38c6 09de eceb b33f 4763 1b9d e6ee e33f
00000770: 6073 d0de f049 db3f 40d7 96c5 a874 ec3f
00000780: 31c1 ad6c 3c25 0440 6aa6 daa6 e8bf 0a40
00000790: 7925 929a a75c 1040 f8b8 7bc7 aecc 0d40
000007a0: d945 c159 7130 0c40 d449 a266 8907 0940
000007b0: 4ace 74fc 76ae fe3f c802 ff28 7a9b ed3f
000007c0: f452 2287 cfce b73f 8a16 87c8 2ce8 c3bf
000007d0: dfcb 64be 207d debf 4e93 c6e7 9811 d1bf
000007e0: a8c7 9f9e c940 b03f be60 b065 75da d23f
000007f0: ae07 6f58 0b67 df3f 17a8 6b6e 94e5 0940
1.4656595356004491 1.8802556344003658 1.765908106144947 1.8531264787363408 1.323185555476797 0.21013746227547594 -0.3875317037363734 -0.9133064284468054
-2.103409043861138 -1.4747629384044998 -1.4685667220828011 -1.4958015170247327 -0.9972674568857195 -0.05208309518292451 0.8041076631784669 2.059700554090094
2.944692122607674 3.245570047260638 3.561200630282007 2.720577760202765 1.6184515296208215 0.3317572058842049 -0.715022072003719 -1.8785176846999143
-2.2785083216683653 -2.108598903050956 -2.147514340501301 -1.4907669198820663 -0.24901919398458033 0.5848770239483546 3.0796369351567763 4.7835249752106
4.292997941710483 4.36217400959564 3.4301739948905348 2.3025469240183667 0.7551353323449298 -0.6328300771090118 -1.7877277903628268 -2.1877778396694123
-2.6197430444716363 -2.1567736160549997 -1.7690359082986242 -0.6773900758861189 -0.7524567669992911 5.197747692569134 4.995838754398619 4.370971966246816
4.370041814836092 3.3649183915511083 2.5047271153413657 1.1152058425754705 -0.3354940587477593 -1.2103023320955013 -1.718609808058865 -2.403774242073996
-2.250328273983961 -2.3171359342250097 -0.7595964136735542 0.28114001078454987 3.2473235283533426 5.177644221612322 4.857844760281532 4.283035469243898
4.416514389194046 2.724159841472808 1.5573698968794545 0.03633261687056064 -1.4267651032723634 -2.54359504812608 -2.576407798761983 -3.1645003051729357
-2.8932381670969316 -1.2918584584491601 0.1272712025171178 3.7666711672998163 5.462135601811082 5.440045494352832 4.865802113856451 4.161556467487181
2.8669876942583317 1.2910827078827893 -0.3192650352941639 -1.5071341369595848 -2.8231928752579774 -3.3735616281584377 -3.3097575714321676 -3.5648406139656763
-2.521914729479806 -0.5321899388906544 2.6335732920222967 4.878228899004422 4.4150993810388695 4.599989977014974 4.125620390211905 3.3299949086958742
1.4730301871918927 0.12420868780386612 -1.7024369550342906 -2.3566890298170025 -3.8947604634189177 -3.9579617583025497 -3.982093871567602 -3.9182613341428305
-2.3802436853505524 1.9553873559111339 3.076350358283583 3.5291184997816627 3.9436996786630574 3.300916452730771 2.275249709388293 1.1675651420384787
-0.05397213843729172 -2.129127673374549 -2.8277517049868988 -3.9258278234778503 -3.9495176095425304 -4.661088362132161 -4.114318927459787 -1.9934608803051366
1.7065808007649812 3.3118028684017315 3.957027494620342 3.761826402943058 3.5358546271940505 2.090177177869242 0.9029016216592146 -0.49726134449932125
-2.131707164116457 -3.3982476512351987 -4.977303266741576 -5.150460250285207 -5.265747863523291 -4.998891979967852 -4.840077546131433 1.7326161979668246
1.4070186725427223 2.5833435922697294 2.91979612056039 3.0329782442990707 1.6834272641222887 1.2807759780739902 -0.3192650352941505 -1.8914525729460778
-3.4676558957734698 -5.396388137714505 -5.557408626189932 -6.4623819432944 -6.256726553658919 -4.737190218207305 -0.7943261917142923 0.30321754107808735
1.875204984694526 1.9845951188863444 2.5215973392839315 1.5824613588089904 0.8524613018386165 -0.14977664998197548 -2.089265523753096 -3.7420335795034347
-5.007489848391494 -5.973573193693345 -5.8558065762924665 -5.891038686235274 -4.441103189247878 -0.9050111994829633 0.34897417028080624 0.9599696558001728
1.434623690602576 1.7420831004088289 1.2588831736804118 1.0734063083349012 -0.16094485193362956 -1.7040800148968323 -3.7936950111357794 -4.652333679642874
-5.695760482130128 -5.348966819545661 -5.070839378055711 -3.6254652304536075 -1.3164479167896246 -0.15125993952787406 1.194635455392945 0.7835014278328035
1.8818454449745678 1.5456629261638943 0.77345268394039 -0.12343165247569755 -1.5940874067412911 -3.4143674134331503 -4.298224423557961 -4.844096797661154
-4.788431879202751 -4.663206684954522 -3.9157538595653816 -1.745108219500416 -0.4969368502966228 0.5708470344976797 0.9547834851309954 1.1118152029352486
0.8263708710630808 1.1520725015801998 -0.41118586959500397 -1.0634694460681868 -2.309389568542356 -3.264197682910615 -3.8495884188738065 -3.633184430434883
-4.012506536362089 -3.0305668127573004 -1.7873270875629428 -1.2834980160183231 0.042971301093155466 0.5710478683086061 0.5948663563735237 0.4504158203644364
0.9474520668596838 -0.066951495807263 -0.5783504553196169 -1.4974144219633618 -2.231082088821808 -2.183342985530334 -2.7725130050258837 -3.2379991715203746
-2.5028893028614774 1.6718048621023138 2.538975011273902 2.233395604267547 2.496583096502141 1.6402410911856449 1.8398876355845772 1.3296302570323846
0.6865275650669692 0.1710484635842 0.04646208513214728 -0.16362718480360838 0.07781868382314705 0.6229126995559476 0.4263879943771851 0.8892406329311839
2.518181656887599 3.3437054667927457 4.090483107729022 3.724942739928448 3.523653699122161 3.12868004019513 1.9175939427922395 0.925229148932055
0.09299943017169793 -0.15552291671172142 -0.4763872012437655 -0.2666990531382013 0.06348857996616053 0.294583653741494 0.49066432605843147 3.2370995165447414

sampling_frac f8 []
00000000: 09d7 a370 3d0a b73f
0.08999999999999998
