figs/grid_search_recon/skmodel/sv-ideal-p=2/recon-cs_seed=12-sf=0.070-skmodel-sv-ideal-n=12-p=2-seed=1-12-15.npz (npz, 251182 bytes, 2 tensors)

recon f8 [12, 12, 15, 15]
000000 5f 37 3f da 7e 60 f5 3f 28 1d bc ba 44 49 f4 3f
       1.3360584759970704 1.2678878111199285
000010 d6 05 c7 09 8a 5d fc 3f 42 21 63 1f db 52 e8 3f
       1.7728367216044396 0.7601142514259112
000020 5a 0f 58 de 46 5e e4 3f 0f 4f 17 a0 28 1d c1 3f
       0.6365084021240179 0.1337023526854115
000030 04 c3 49 8d 89 48 d3 bf 2b 52 9b f9 eb 90 c9 bf
       -0.3013023261801637 -0.19973516166523217
000040 15 07 da 92 25 dd e9 bf 66 0c 02 9a 28 d1 ed bf
       -0.8082454555699053 -0.9317820556610854
000050 13 f2 ec 79 53 99 ee bf 6d cb b6 b9 85 65 dd bf
       -0.9562165624007001 -0.4593214334119498
000060 fd 3b f6 84 e4 5b e3 3f 93 04 0f c3 c0 34 e0 3f
       0.6049673649703206 0.5064395723094485
000070 dc ef 70 ac f0 98 e3 3f af 43 9f 37 a7 b0 f6 3f
       0.6124194496146589 1.4181282208194081
000080 21 a0 36 fb 81 98 01 40 8f 4a 19 40 d1 f5 01 40
       2.199466669659174 2.245028019687488
000090 02 5f c1 15 68 40 03 40 b4 df 5c ab f3 b9 f1 3f
       2.4064485263478455 1.10789839686002
0000a0 74 11 0a 59 1e a7 f5 3f b4 6b aa cf 31 df 93 3f
       1.35330042630184 0.019406107234867867
0000b0 c8 55 be 55 73 24 d3 bf f5 b1 25 d0 52 7a ee bf
       -0.2990997636164505 -0.952432066476432
0000c0 ec 58 2b 80 14 62 fa bf 0a f8 87 c8 54 39 fa bf
       -1.6489453322042733 -1.6389968713042458
0000d0 fe e9 22 e5 12 b3 f0 bf 47 fd 3c 69 b3 1c bf 3f
       -1.0437191916122397 0.12153168982785188
0000e0 bc 24 5b 3e b9 85 c7 3f bc b8 cc ad dd ea c4 3f
       0.18376842064598076 0.16341753946602988
0000f0 79 ec a9 ce fb fb 00 40 a0 7a 55 20 a7 2f 0a 40
       2.12303887802187 3.2732679868780252
000100 36 87 53 bd 59 42 0a 40 18 dd a8 5d 47 e4 08 40
       3.2823977271190428 3.111464244571504
000110 4a dd 4b 7a 5a 74 fe 3f 62 29 f7 a7 af 2d f8 3f
       1.9034065987778654 1.5111538468505263
000120 80 37 c1 61 ed 1f cd 3f 5c 25 d0 44 87 2f d3 bf
       0.2275368430441027 -0.2997759029390943
000130 2c 2c b2 d8 a7 74 f3 bf 28 49 f0 fb 44 d0 fa bf
       -1.215980383366296 -1.6758470383979986
000140 f0 13 dc aa 49 da fa bf b7 e5 32 61 02 d9 ec bf
       -1.678292910977003 -0.9014903925337227
000150 2d 4d 77 6d 8b 2d d2 bf c9 b7 34 a4 2f 6d c0 3f
       -0.28402982416192196 0.12833209531657833
000160 12 bb 6b 3e d4 7e e3 3f 83 02 41 08 76 ef 02 40
       0.6092320651203826 2.366924347385351
000170 73 72 59 5b e1 bc 0e 40 78 53 03 6b 10 28 0e 40
       3.8422267090484694 3.7695625648870497
000180 9b 5a ae 19 cd e4 0f 40 c3 77 3a 0c 2e 77 05 40
       3.9867193228086086 2.683193297895714
000190 fa 06 57 71 c0 dd ff 3f 42 64 10 fa 91 d3 e4 3f
       1.991638605817967 0.6508264431059916
0001a0 72 77 18 0d e7 e1 e1 bf 9b cc 99 1d 9c 5f e0 bf
       -0.5588259940884497 -0.5116711214199258
0001b0 c7 45 89 52 10 59 fd bf 9c 15 b1 e7 db 77 fe bf
       -1.8342440818854457 -1.9042624521692693
0001c0 62 39 b3 80 dd c7 fe bf e2 32 7d 25 a1 cd f2 bf
       -1.9237952258441386 -1.1752025093475642
0001d0 1e 4a 81 15 98 49 d2 bf df 39 5e 3e 94 e7 a2 bf
       -0.28574182605840004 -0.03692305814103113
0001e0 b3 34 cf f7 5a cc 06 40 62 e3 d6 e3 b8 63 0f 40
       2.8497828827008447 3.923692493434303
0001f0 1e 29 0b e2 ad 09 10 40 5a b7 4d b2 fa ff 0c 40
       4.009452373439016 3.624989884373389
000200 dd 6e df c9 0c ee 06 40 64 e7 c1 0b e3 46 fe 3f
       2.8662353297530516 1.8923063716196902
000210 69 f8 65 df 6b 1f f0 3f 1d ae 5d ff 4c 40 d5 bf
       1.007671234750456 -0.3320496076400746
000220 9a e7 83 8b a5 90 f3 bf 8e 8d 02 94 aa 1d 03 c0
       -1.2228141259970244 -2.389485508277807
000230 5c 92 62 91 a1 9c f9 bf bc 49 a1 90 49 4b 01 c0
       -1.600740020666442 -2.1617614077779006
000240 d0 54 b0 44 ee 0d f8 bf 0e ea 1d 58 e7 38 e2 bf
       -1.503401058498003 -0.5694462510139731
000250 f3 45 dc fb 99 db d1 3f 78 f9 8c 9b 5a f6 07 40
       0.27902841182466814 2.9952900078198432
000260 3f a4 d4 a2 2e 6c 0c 40 fa f1 34 18 0d c1 0f 40
       3.5528233262198508 3.9692632571370696
000270 90 ed e1 ef f6 cb 0d 40 dc 35 28 4f 30 d1 03 40
       3.724592088777804 2.4771429237505185
000280 71 c0 ab 81 c5 da fe 3f f5 46 93 4a 34 b5 ed 3f
       1.928411013152097 0.9283696610020501
000290 23 4d c9 0e ee 6b e3 bf 65 a9 bf d3 5e 7a f2 bf
       -0.6069250382228443 -1.15487559046104
0002a0 15 c3 d8 e8 10 2e fa bf 10 85 c8 e9 48 ac 02 c0
       -1.6362465949607146 -2.334123445922735
0002b0 69 84 af 35 7a de 00 c0 c4 a3 b4 c7 92 3d 00 c0
       -2.1086315340221984 -2.030065117073237
0002c0 42 43 f2 f1 92 32 f4 bf fa 56 b1 03 6a b4 a7 bf
       -1.262347169020544 -0.046298325491688844
0002d0 27 71 8d 5d 1c f0 00 40 83 0d 43 2d 19 a3 0d 40
       2.1172416027822183 3.70463786469344
0002e0 40 a2 a4 98 1a de 0c 40 6a 6b 2f a6 ed ab 0d 40
       3.6084491658441777 3.7089493735524472
0002f0 0e ff b7 89 30 bd 03 40 89 71 8f fa 49 60 ff 3f
       2.467377735068914 1.9610080516350499
000300 ab e6 d3 f4 bb 7a f1 3f b3 8a b3 ee 1a db da bf
       1.0924644054015669 -0.41962312040974864
000310 bf 59 d0 d6 21 05 f4 bf 98 61 f7 e5 3a 45 02 c0
       -1.2512529746214651 -2.283803745853401
000320 f4 2e d8 37 84 59 00 c0 c0 0c 61 49 f2 d2 04 c0
       -2.0437092173432294 -2.6030011875860453
000330 1f 28 69 0a de 35 05 c0 da 58 5c 43 46 00 fa bf
       -2.651302415212754 -1.6250670081404253
000340 1a 22 1c 6c 18 16 ee bf 32 82 75 b1 b6 8a 05 40
       -0.940197192337169 2.692731272123887
000350 4a 45 fe 87 2d e3 06 40 28 a5 a1 56 1f dc 09 40
       2.8609266876671073 3.2324816482620413
000360 48 ee cb 92 36 19 0a 40 74 93 5d 50 dc df 06 40
       3.262311121796106 2.859306934219086
000370 93 69 4a 9a 86 a6 00 40 b5 70 57 3a 88 c9 eb 3f
       2.0813114217718947 0.8683510913356459
000380 3a 38 08 9f 36 0a e7 bc cb 55 71 4a 47 c5 f3 bf
       -2.5579422972723173e-15 -1.2356636913221901
000390 b7 b0 43 c6 11 61 fd bf 4c 37 e2 05 fc 89 08 c0
       -1.8361985916808814 -3.067375226942124
0003a0 c9 d6 76 4c 6b 0e 0d c0 c0 ad d1 eb 73 3c 0e c0
       -3.6320405935065065 -3.7795179770816674
0003b0 b5 1b 22 b7 5e 00 05 c0 d7 97 90 e7 00 10 01 c0
       -2.6251806552204138 -2.1328142252923317
0003c0 01 6b a7 0f 4e 89 e4 3f 88 67 8d 92 20 a9 f9 3f
       0.6417608552686432 1.6037908291532137
0003d0 b8 ba 78 ca 26 5d 03 40 41 b2 f0 4a a5 27 08 40
       2.4204841440290146 3.0193582396225627
0003e0 55 eb 9b b8 8a 5f 02 40 89 31 57 84 1d 39 00 40
       2.296651308306006 2.027888330374655
0003f0 63 14 67 04 80 79 e8 3f 6f 41 d1 be 24 0c c3 3f
       0.7648315511693337 0.14880809132820214
000400 3a ba 50 8b 3c aa f6 bf 34 0e 20 77 bf a2 03 c0
       -1.4165616456990748 -2.4544667536408955
000410 38 e5 72 18 bf 72 04 c0 cd 5a 9b 44 8e 9c 0e c0
       -2.5560285482466973 -3.8264432296667565
000420 a9 48 db fb a2 7d 10 c0 52 ac 38 3b 7e a7 0c c0
       -4.12269204641249 -3.5817837359113947
000430 cb 84 a8 d2 f0 88 0c c0 49 d3 c9 32 37 91 a1 bf
       -3.5668655831983407 -0.0343110322473082
000440 de bc 18 89 25 28 cc 3f 3d 32 ce 2b bd c1 fa 3f
       0.21997517770930747 1.6722995482588339
000450 ae c8 b2 92 67 6a fe 3f f8 8b 92 0e f0 d5 fc 3f
       1.9009776811986216 1.8022308892475376
000460 d7 a9 4a 22 d5 61 f9 3f e4 a3 fa fa 89 9f d9 3f
       1.5863849010007607 0.4003624869315543
000470 53 b6 e5 c4 ae b9 c4 3f 98 b6 9c a6 f7 37 f7 bf
       0.1619165860569632 -1.45116391260982
000480 c3 15 a1 de 70 d7 01 c0 ad 51 ec 97 d8 56 07 c0
       -2.2301957505139582 -2.917405306720147
000490 b6 a0 d5 19 ec b0 10 c0 36 2f 2d c9 98 0c 0e c0
       -4.172775653518491 -3.756150790873927
0004a0 25 06 5f 8d e0 64 11 c0 0c 61 7e 3f c8 96 06 c0
       -4.348512848782353 -2.8236241302912557
0004b0 63 ba 12 4c b1 eb e0 bf db bb 36 94 f6 92 b7 3f
       -0.528771065311798 0.09208623045445512
0004c0 c2 7a 9d 48 4b c0 f9 3f ae 0a 91 c2 44 3b fe 3f
       1.6094467960862606 1.8894698715454683
0004d0 f6 f8 be 44 7e 44 fb 3f 18 4d d7 16 ff f6 f9 3f
       1.7042219815626232 1.6228018657901142
0004e0 e9 3e 7d 83 fe c4 e1 3f 56 d2 98 db c1 10 a9 bf
       0.5552971428059809 -0.048955972725171534
0004f0 6b f2 97 bd e5 64 f6 bf d8 20 d4 50 65 19 04 c0
       -1.3996331602094425 -2.5124002756821078
000500 61 a8 89 4f 5e 3e 05 c0 e8 3c 0b 47 36 b1 10 c0
       -2.6554533208737188 -4.173058614788921
000510 ed f8 5a 39 4c e2 10 c0 70 3f 02 3b 7e 5d 12 c0
       -4.220993896653664 -4.5913018436548185
000520 f3 92 dd 68 2e e4 09 c0 1a dd d2 d9 cb 41 e7 bf
       -3.236416644346144 -0.7267817739838478
000530 a6 35 ce c9 1c a3 e0 bf e3 99 b1 35 f9 a9 e2 3f
       -0.5199111882699767 0.5832487152773037
000540 92 46 6f 2a 8e 31 f9 3f ea bd 83 e7 18 f6 fd 3f
       1.5745984704593963 1.872582344392749
000550 72 11 2d 8c c5 6f f4 3f c9 8a f2 cd a3 0a e7 3f
       1.2772880054118017 0.720048811188769
000560 9d 6c 72 39 99 10 c9 3f 4b 3f 6e 2b e7 f9 f6 bf
       0.19581904702213118 -1.4360114761838811
000570 fe 6e 22 6a 5b 30 00 c0 b4 db 10 25 d4 f5 02 c0
       -2.023611859489278 -2.370033540322277
000580 86 c2 86 b2 39 49 0f c0 7f 24 82 6b eb 63 0b c0
       -3.9107545802474446 -3.423788871678482
000590 59 a7 45 c6 09 37 10 c0 5d 87 76 ea da 56 0a c0
       -4.053748224259686 -3.292409736387454
0005a0 42 fa 5c b8 d8 80 73 3f 37 df 18 75 c7 c2 e4 bf
       0.004761549533042033 -0.648776749329932
0005b0 c9 f6 56 fb 54 22 c5 3f fc 77 0d 8b a7 2c eb 3f
       0.16511022827574198 0.8492009845610933
0005c0 cb 92 4e d1 ee b6 f5 3f 6f 34 40 27 e9 ec f2 3f
       1.3571613479663707 1.1828395398363474
0005d0 4d 62 05 8c fb 3a e4 3f 7b d7 c6 17 2d 45 c2 bf
       0.6322000250612035 -0.14273608838055538
0005e0 68 af 10 06 38 14 e9 bf 39 89 b5 30 d6 ae fa bf
       -0.7837181204281309 -1.6676847365093421
0005f0 b4 c5 5b 67 26 e0 04 c0 68 29 06 61 f7 40 0c c0
       -2.609448249328773 -3.531721837997953
000600 09 21 38 27 37 ea 0c c0 c3 02 0f 6b d7 52 0c c0
       -3.614363008881018 -3.54044994010505
000610 b2 ea 84 cc f4 5c 08 c0 c8 46 24 bd 7a 19 ec bf
       -3.0453887918532354 -0.8781102842496802
000620 29 59 62 5a 37 c5 eb bf bd e3 5a e4 05 e6 ce bf
       -0.8678242459598425 -0.24139474535129848
000630 ff d1 d6 3a 5c 34 e1 3f 2c 1c 69 5a 9b bf eb 3f
       0.5376416348649967 0.8671395078498612
000640 5d c7 03 5e a3 2f e6 3f 3a 93 c9 2c 57 56 cb 3f
       0.6933152042604253 0.21357240378270054
000650 0b 0d 89 be ec 7c d5 bf ec 87 fd b1 3d 74 e0 bf
       -0.3357498036095456 -0.5141895748495222
000660 17 79 02 12 52 74 f7 bf 78 38 00 b1 8d ce 00 c0
       -1.4658985808851577 -2.100856192416412
000670 41 90 13 a0 23 f3 09 c0 b8 8d 61 95 8d d7 06 c0
       -3.2437202936144165 -2.8552505178829186
000680 61 65 02 dd e7 ea 06 c0 e4 42 e8 0d 9c 8f 01 c0
       -2.8647000566822247 -2.1951218687539598
000690 39 1b bc d7 1e 94 f8 bf 08 34 6a 8f f6 eb f6 bf
       -1.5361622264042138 -1.4326081850188093
0006a0 59 89 82 7e 05 a5 ec bf 51 b1 ed cf 70 46 d6 bf
       -0.895144221391358 -0.3480493574668531
0006b0 e8 96 5f c8 9c 21 d8 3f 96 39 e8 91 46 cc bc 3f
       0.37705154006685726 0.11249199926553496
0006c0 54 0a 6a 5d de ab c9 3f f9 be 73 39 21 74 d6 bf
       0.20055751382104126 -0.35083799944457855
0006d0 d1 b9 5f a3 d8 df b3 3f 3c 59 1d 52 65 39 de bf
       0.07763437260266605 -0.47225316065795986
0006e0 0a d5 0e a1 c1 6e e1 bf de 03 11 91 26 2a f3 bf
       -0.5447700639403206 -1.197790686288719
0006f0 84 79 18 5a 6d 49 03 c0 21 2d 3f fd 67 02 fa bf
       -2.410853103515537 -1.6255874531223713
000700 4e 8a 1f f6 94 eb fe bf 32 50 ab 26 5e b9 00 40
       -1.9325151075542126 2.090511610129419
000710 36 7e 91 f1 62 72 f9 3f b4 ba 8d 3c 4e d7 f8 3f
       1.5904263912451717 1.5525648465515305
000720 ae 54 1b ee f2 f8 f3 3f 35 e2 f0 25 dd 25 fb 3f
       1.2482785512013765 1.6967441064899849
000730 52 63 05 a1 44 57 f6 3f 04 8b 78 12 20 dc f2 3f
       1.396305684078659 1.1787415238874823
000740 e7 1a 97 cb 52 eb e4 3f 63 ed ba 18 2e 70 d4 3f
       0.6537260033008722 0.319346927786418
000750 c6 28 ce e2 9d 66 e3 3f 88 5f 0b 8c 71 d7 e5 3f
       0.6062764577666477 0.6825492606394485
000760 dc ce bb 35 a3 ad e8 3f 9d 66 91 c2 04 36 ef 3f
       0.7711959886059634 0.9753440666347221
000770 88 70 67 a2 4b 92 ed 3f 63 16 de 03 9f 35 fc 3f
       0.9241083309130014 1.7630911017489772
000780 d4 41 db 10 41 85 04 40 ff f4 4f bf e6 27 03 40
       2.565065509501645 2.3944830843234963
000790 82 74 ca 46 f3 85 01 40 99 a0 94 af 31 96 04 40
       2.1904054194006344 2.573336955760237
0007a0 1e 3e 1c d3 20 ad fe 3f c1 45 ab 2f 3e 5d 01 40
       1.9172676321503626 2.1705287670272075
0007b0 ed 44 dc dd 9f 26 f5 3f 27 e9 0a e5 87 f7 e4 3f
       1.3219298044608039 0.6552161668289828
0007c0 f0 4a 60 33 0e f0 e9 3f c0 f3 a1 b0 41 e3 9a bf
       0.8105536464157392 -0.02625754013614645
0007d0 20 e3 b4 1a 7b c9 b6 bf a0 0c d6 12 a3 fa 9b bf
       -0.08901185419098256 -0.027323291802087923
0007e0 c2 b5 6d 16 4f 35 de 3f 2d 68 2c 11 81 21 ea 3f
       0.4720037192372183 0.8165898642939787
0007f0 bd a1 60 55 ae b5 fa 3f 08 c9 e7 1c 62 77 07 40
       1.6693557105119077 2.933292604278112

sampling_frac f8 []
000000 eb 51 b8 1e 85 eb b1 3f
       0.06999999999999999
