figs/grid_search_recon/skmodel/sv-ideal-p=2/recon-cs_seed=24-sf=0.010-skmodel-sv-ideal-n=24-p=2-seed=3-12-15.npz (npz, 251757 bytes, 2 tensors)

recon f8 [12, 12, 15, 15]
00000000: 4f5b e789 b359 0140 1bf3 840a 9fa3 0240
00000010: bfdd a26f bd3a 0840 6e92 739b 70c6 f73f
00000020: ac8f 83cb 5fac 0440 f12b d87b 103a e53f
00000030: 0f28 6e16 1fa1 babf fdf5 a9a3 a812 c53f
00000040: 3875 cad7 fb1a d0bf e07f 84e4 a2ae fe3f
00000050: 4ead 55c3 b4e6 f73f cf0c 531a b393 0440
00000060: b6ab 35e8 1f29 fd3f 9a17 0cd7 cbc1 d33f
00000070: f7cd 4c19 24fa f53f c4d5 1423 18ae fd3f
00000080: c107 5a43 e89d f23f 4764 ad77 ad36 0e40
00000090: 9743 dd06 2070 1040 a30b 08b6 ea6c 0240
000000a0: b855 58b4 5817 c83f 7295 c5a7 45ae d9bf
000000b0: d3a6 db8e 7c8d e23f f6e6 d7bc 4672 b93f
000000c0: ea72 abfa 3280 e93f 84d0 a619 a93d 0540
000000d0: 692f 043b 86be f83f ce95 9725 bd77 0c40
000000e0: 9c64 3fb8 29bb f73f 66f8 defc 2b8e e0bf
000000f0: 9550 60ec e86a 0a40 3bab e870 d49d f73f
00000100: 3571 ffd1 ab82 1040 72d5 58df 1269 e63f
00000110: 1b8a 8935 ec0d 0040 4644 705f a8b9 f53f
00000120: d09b 66c5 9ba4 d33f 680a 0de3 2c36 c33f
00000130: 1a78 c5cc 6581 e6bf 1a56 5773 b970 f93f
00000140: 176e 5ffe 65e8 a03f 64cf 09ba 4f79 ee3f
00000150: ec64 bc04 5d89 0a40 c651 e166 7568 eb3f
00000160: ed27 480d a9e3 eb3f 6898 983f 9503 0140
00000170: 942e 64e5 e157 ca3f 9b72 b00a 3573 da3f
00000180: 52ae acbe 2a23 fe3f b2fb 698b 4a56 f63f
00000190: 40a1 9db8 391d f13f 0cf0 9bb1 95c1 bd3f
000001a0: 662d ea9f 3e03 f33f cf11 2f2e 0d36 d93f
000001b0: 504a bab7 fec0 f23f 4b11 cb50 f9e4 f63f
000001c0: 6207 8419 066a e3bf b586 ee4a ec9d 0840
000001d0: 98a9 74c2 d1ac f53f 6afe fcb4 cef5 f73f
000001e0: 9023 2a59 17db 0240 675d f09a 68c7 f93f
000001f0: 4583 bcf0 ec74 0340 6050 ba9d f99e fa3f
00000200: 0c11 b5e9 acf8 f4bf 7681 eacb 154e e93f
00000210: c85f a149 4680 f4bf 910d 7edb 08cc e3bf
00000220: 1ba7 4969 9218 bd3f 5813 d761 8353 f43f
00000230: c730 84d7 a503 e53f 0de6 81d2 d232 de3f
00000240: 5491 20a6 03c2 0140 e9ab a5f9 efce f53f
00000250: cf2f e196 04b9 d5bf 056e 05af 40d3 0340
00000260: c5b5 8e32 05c1 a4bf e48c b153 6207 d1bf
00000270: e3d4 02e5 d965 f13f 5064 3874 eb93 fb3f
00000280: 3b57 fb95 29d7 0140 3d6b a77d ed35 edbf
00000290: eaf1 f93d 8b18 d93f b5ce 51e0 aa88 f2bf
000002a0: 77f9 30bb 6660 e7bf 4759 dba5 2c59 eabf
000002b0: 4766 f80e ac10 f33f d7ea 5d85 6aa0 f53f
000002c0: 1acc 7420 5f47 f83f 5a56 4ace ed5e e1bf
000002d0: 993a b706 48ae 0040 8157 313a f37a d5bf
000002e0: 2c21 d221 dc9a 0640 4508 f2b6 2467 f93f
000002f0: 5021 9ef3 aabf f23f a215 2e2f 9acb ee3f
00000300: 2220 849a 4427 eb3f 857e af42 d96a d5bf
00000310: ba74 009e 1f4b fcbf 0a9a d74e c763 c13f
00000320: 58fd db63 699b d63f 0a3e b0e2 8a2a a83f
00000330: fb2d 6bd1 5190 fabf 46e5 654e caf7 f83f
00000340: 3ee5 f979 ba5e f8bf e58d 5ac4 0c1a f83f
00000350: 90a5 1bc3 7b3b d6bf ce72 868e 015f c83f
00000360: 4517 d02e df32 dbbf a0b8 42a8 f600 e8bf
00000370: b44f 3981 25ec ecbf aa12 3239 9935 dc3f
00000380: c679 fb1a c6bf ed3f ed39 30a8 571b f03f
00000390: 5096 25ce d3bd bd3f 6741 e149 3245 e5bf
000003a0: 181d 3499 f403 ed3f 8bf6 070c 0909 f3bf
000003b0: 5186 1345 dd27 f73f 2e0b a866 a440 03c0
000003c0: 340a 0ac3 e32b ec3f 83c5 843f 585a 05c0
000003d0: 5ad0 b040 7e35 e1bf 37d8 6552 50b6 f2bf
000003e0: cebb 4615 cf1d ec3f 8faa d929 74f9 e4bf
000003f0: 4224 4d9e a05f d6bf 348a bccf 55fe eabf
00000400: 5969 a25b 0cd6 f5bf 6c8b c796 2cae f1bf
00000410: 6274 7ec6 550d f2bf 5e66 2294 b4d2 f6bf
00000420: 3d17 22cc f389 eebf 8f90 58a4 3a22 bdbf
00000430: b07b 3015 bff3 f6bf cad6 6040 123e f5bf
00000440: 3be0 8b7b 6b35 fdbf f6f9 7490 e026 f7bf
00000450: c02c 8afa f73c f7bf f1d3 c958 8a68 fbbf
00000460: dd83 44bb 7542 01c0 9b66 66e0 6f41 a6bf
00000470: d636 3124 ada4 ebbf dba7 1cf6 a112 f53f
00000480: c303 a675 4620 e3bf e68f 6e43 b4ff f73f
00000490: 5038 499d 7206 f4bf f87a ec0c ebff fabf
000004a0: f56f ddeb 78d1 cd3f b814 8f2a 54bc 00c0
000004b0: de45 7250 25e9 f0bf c7c8 dfe5 4684 f3bf
000004c0: 156f 797b 32cb 02c0 92ef e157 73cb e3bf
000004d0: df7e dae6 31a4 eebf d231 a74b 3ce8 e23f
000004e0: 294f 8875 a4eb f13f 2746 8544 35c5 eebf
000004f0: 6b05 0567 dda2 f4bf 72a3 1574 aef9 0ec0
00000500: 0398 1d45 8406 f6bf fb5c 732e e496 0dc0
00000510: 2560 7be7 d36a 04c0 3292 044c dde2 f8bf
00000520: cc33 701f 44cf 09c0 abbf eda0 e531 f9bf
00000530: 9d47 f6cb 612c 06c0 c047 ad7e cd7e ffbf
00000540: f622 1a33 168c edbf 33b0 7972 c000 ed3f
00000550: edbd 2bf2 e6f3 c93f 2303 e4ab de25 d63f
00000560: 1c90 015a 9b46 e4bf b18d 0db6 e437 f3bf
00000570: 1edf 177b 62fe f8bf c823 360d 5f0d fbbf
00000580: c733 7785 984f f5bf a0e7 c37c 576f 02c0
00000590: b311 ec28 1afc bf3f 57ad 39e6 c659 05c0
000005a0: 239f 7c7d 7ecc eebf 860b 87f5 d02b f0bf
000005b0: efce 6ec2 cb6e 08c0 967f e8d2 2179 d5bf
000005c0: 1775 ff39 66c9 01c0 cce7 3aeb c180 e1bf
000005d0: 40fd 2839 7543 c1bf f670 2094 8b8e d1bf
000005e0: cba7 bbb0 5501 dc3f 953f 2639 6379 ebbf
000005f0: 257c 8074 a743 f2bf 521a 7e11 c691 03c0
00000600: c218 5321 fc6f 0ec0 6e07 5fdd 31cf 01c0
00000610: 58d7 3252 5ec6 0ac0 a610 1089 0444 0cc0
00000620: a10a f695 0b4a 05c0 65ef 574f 5120 fabf
00000630: 8e60 d6d1 e554 df3f a516 5bb2 8a17 f5bf
00000640: 0ccf 1a04 cc9e f1bf 0b80 8ab7 59ca f1bf
00000650: 06d5 2187 165d 09c0 e1c2 d2c5 2ad7 07c0
00000660: 7076 a354 6774 01c0 a70f 95be bc95 ffbf
00000670: bbe1 eeb7 9343 cdbf 712e 07bd 12da e7bf
00000680: f1cd 03d7 2bd6 e9bf 9918 5442 b99d 08c0
00000690: c5d4 2e41 21c8 f8bf cea1 f113 2b84 06c0
000006a0: 4e5e ceff 31d3 0ec0 cc71 6f3c 4766 f6bf
000006b0: 9fd2 4e69 d0c3 03c0 f35b b1f0 0c43 eebf
000006c0: 9a6e 99a3 edbd e5bf 008a 527a ebc6 fabf
000006d0: c27e 1ffe 23e8 dfbf ba43 5ede 9136 fcbf
000006e0: d981 8974 2c61 e9bf db54 7696 729f 02c0
000006f0: 3c11 ccf9 9341 09c0 c014 39e4 d9cf ffbf
00000700: 6277 e250 741e 01c0 4d3b 84df 5d30 0440
00000710: 32d9 e132 adbb 0a40 1823 2af9 572f 1040
00000720: 1673 22b0 f555 0540 c651 dc19 1969 fa3f
00000730: 1552 ce42 aa2c 0940 f5d1 a769 27d2 0240
00000740: 9c71 9214 0039 0d40 0cb5 f60b 6c5c 0540
00000750: 3b76 4cd3 3099 0940 c7f0 2f54 d7f4 0840
00000760: 1c26 72dd 9b79 0140 d035 07a0 d786 e93f
00000770: aefc 7dc5 8f50 0c40 d065 4b39 624c fc3f
00000780: 377a 79b0 dbc9 1340 7333 1212 0103 1340
00000790: 88c5 63d7 3e95 0b40 8bab 12e6 551a 0840
000007a0: d780 94c5 e6bd fa3f aaab bf4f 4643 1440
000007b0: 968e d06d ec62 f83f ed18 0718 ce84 0740
000007c0: 4bec b735 6eff f73f 7f6c a138 efd9 1140
000007d0: dd88 bc4f 16fa f13f a2c5 6c93 5f02 f63f
000007e0: bf61 8566 72c5 ed3f dcae 025e fee1 0640
000007f0: 9616 d61c 45e7 0240 e837 b587 4a01 eb3f
2.1687994741181806 2.3298931905577667 3.028681633146078 1.4859472343752276 2.5841670894169138 0.6633379381977403 -0.10402101800551143 0.16463191977884142
-0.25164695809674553 1.9176358152835675 1.4938247328053254 2.572118955287443 1.82254019457717 0.3087033844061523 1.3735695827753014 1.8550034876219437
1.1635515814709694 3.7766980504789305 4.109497172598728 2.3031820508199004 0.18821247869406732 -0.40126172431913354 0.5797713079639045 0.09939996824678218
0.7968993087666523 2.6551076892884016 1.5465147309614287 3.558466237724793 1.4831940838978772 -0.5173549593817028 3.302202078522962 1.4760326776983692
4.127608567443805 0.7003263818975667 2.006798189411041 1.35782658844643 0.306921904348596 0.15009080015632326 -0.7032956122818661 1.5900206094278304
0.03302305917869946 0.9523085244713738 3.3170719499581676 0.8565012940767296 0.871540571156627 2.1267495125239755 0.20580695820568862 0.41328168910858104
1.8835856865142842 1.3960671850070239 1.0696351253082668 0.11623511873398246 1.1882921454115034 0.39392404089110483 1.1721179177153722 1.4309018283830308
-0.6066923616747142 3.077110848812334 1.3546922298361093 1.4975115842679778 2.3569781270966317 1.6111837436963812 2.4320925529031308 1.663812271236587
-1.310711777609927 0.7907818777785411 -1.281317031496643 -0.6186565672837095 0.11365618772984158 1.2703889676933695 0.6566952904991233 0.4718520217644205
2.219733522290122 1.3630218269197434 -0.33941759809817723 2.4781507180721314 -0.04053512804180629 -0.26607568906020007 1.0873660035843435 1.7236132182936394
2.2300597874954327 -0.9128329710177706 0.3921230416524667 -1.158366085289271 -0.7305177360611158 -0.8233855475798827 1.1915703377511748 1.351664086307826
1.5174247043439721 -0.54283800402727 2.085098316637709 -0.3356292789734355 2.825615181183954 1.5876814981752585 1.1717938915554278 0.9623537942394942
0.8485434549229505 -0.3346465254998992 -1.7683406993813109 0.13585749959675325 0.35323557617080814 0.04719957368081047 -1.66023427776497 1.5604956686423335
-1.5231270565694355 1.5063598318164335 -0.34738058141245975 0.19039935549962766 -0.42497996875350835 -0.7501176153507636 -0.9038264774230726 0.44077139459140346
0.9296598937033245 1.0066753930910821 0.11617778571015802 -0.6646968310324554 0.9067328445679861 -1.189705893513209 1.4472325037280778 -2.4065635700257166
0.8803576287612658 -2.669113632430425 -0.5377799285402134 -1.1695101946511508 0.8786387839844509 -0.655450898875033 -0.34958663424601266 -0.8435467774728012
-1.3647578792066126 -1.105022992117223 -1.1282556298895305 -1.4264417444705013 -0.9543398844695968 -0.11380354416229664 -1.4345084026060526 -1.3276541247154676
-1.8255419565230244 -1.4469915049409088 -1.452384928389435 -1.7130225628181928 -2.1574511175426623 -0.04346799482591487 -0.863852091491675 1.31704898965335
-0.5976898477384726 1.4999277719552935 -1.251574148558138 -1.687480020984081 0.23295508877606577 -2.0919574093737445 -1.0569203512608207 -1.2197941760501168
-2.349217381137246 -0.6185852734047208 -0.9575433262689009 0.5908490636443793 1.1200298873054158 -0.9615732515614511 -1.289761927051894 -3.8719147748092206
-1.3765909862354426 -3.6986774090725 -2.552161987736343 -1.5553868264625064 -3.2262041526905474 -1.5746818815496038 -2.7716709074529278 -1.9684576938930007
-0.9233504293525516 0.9063417659613208 0.20275580239056926 0.34606138979147455 -0.6336189992839567 -1.201145850319204 -1.5621056373910913 -1.6907644764016698
-1.3319325650693246 -2.3043660876546284 0.12494052409244354 -2.668836401591459 -0.9624626589693189 -1.0106973257940992 -3.0540995779100437 -0.3355183181429252
-2.2233395129284292 -0.5469674677217369 -0.13487115183850484 -0.27432527032375675 0.4375814653309333 -0.8585678211402291 -1.1415171194892164 -2.446178566609242
-3.804680118893061 -2.2261693281770283 -3.3468595906987666 -3.533211775591627 -2.6611549106322205 -1.6328900431971871 0.48955674640593194 -1.3182475058578487
-1.1012687836018271 -1.1119019670077275 -3.170453124732947 -2.9800620512909153 -2.181837712515339 -1.9740569538707662 -0.22862478715047793 -0.7453702632860325
-0.8073939513691909 -3.077013509932908 -1.5488598390777935 -2.8145352895846605 -3.8531227097371703 -1.399970279765614 -2.4706123568706313 -0.9456848813086921
-0.6794346041965185 -1.6735644129008733 -0.4985437375707812 -1.763322704912055 -0.7931120182147949 -2.327855277525129 -3.157020522632733 -1.9882449068984869
-2.139870292578892 2.523616548750772 3.3416389441655605 4.046234029003948 2.666972518969838 1.6506587038212372 3.1468091220106182 2.3526142362918514
3.652832184523687 2.6701279577888553 3.1998001582822133 3.119551332200078 2.184379320188567 0.7977102399396987 3.539336722285575 1.7686483610217358
4.947127110876457 4.752933771477603 3.4478737666437986 3.0128591513106975 1.6713626592609694 5.065697904657023 1.5241512574802178 2.9398462178388542
1.4998609636666227 4.462826619007614 1.1235564341264344 1.3755794295105734 0.9303524019588209 2.8603484482353974 2.362924790652708 0.8439076090378395

sampling_frac f8 []
00000000: 7b14 ae47 e17a 843f
0.01
