figs/grid_search_recon/skmodel/sv-ideal-p=2/recon-cs_seed=20-sf=0.050-skmodel-sv-ideal-n=20-p=2-seed=2-12-15.npz (npz, 251340 bytes, 2 tensors)

recon f8 [12, 12, 15, 15]
00000000: 9e82 9a48 78fc db3f de2a a7a5 3165 0140
00000010: 2122 7d4f 002b f43f 3d1e 48c6 fcf9 f43f
00000020: 8ab5 0611 1138 f53f f556 042b ee97 e53f
00000030: 50ea 4f90 6ef4 debf 6bde 3753 e13d fabf
00000040: 8010 654d c0a7 f2bf 8156 9deb 3beb fbbf
00000050: 46ea 0230 18a9 f7bf c82c 3333 7cfb f1bf
00000060: ae4a c70b 3e19 a2bf 38c6 53b3 b389 c33f
00000070: eb4d 2465 c2fd f53f b7dc c0ff ee69 f13f
00000080: dbe2 75e0 0c07 1240 0c85 c19b d39e 0840
00000090: 0673 1fd7 77d1 0d40 eb84 6f41 d758 0640
000000a0: f494 5612 2303 0040 3d5b a574 7b54 b63f
000000b0: ca59 9559 21a8 f0bf 25aa c431 47d9 f7bf
000000c0: c759 7bfe e7bd 03c0 2f74 6d5b 0bff 05c0
000000d0: c3fe d226 886c fdbf fe65 0c2a c51a f9bf
000000e0: 4e68 5293 7174 dcbf 4b82 b978 d422 f63f
000000f0: 02df a7bd 6204 0d40 e160 db7e c65e 1440
00000100: efd1 28bd bfa5 1140 afc3 54b1 c996 1140
00000110: 132b 3f42 b90f 0b40 cb20 d3ca 6dac 0940
00000120: 5e6e af7c 8414 d73f f734 e83f c5c2 f0bf
00000130: 086a 9ebf d951 01c0 9197 fb2c 6fdf fcbf
00000140: 316f 5643 e7c8 07c0 3567 4522 ba98 ecbf
00000150: c5e4 6a09 f941 edbf c92f 1d84 98ae f33f
00000160: a5f2 1441 f765 f03f 12b8 0d01 762f 1840
00000170: e12f 85c2 cfaf 1a40 6e81 72b1 ed80 1440
00000180: 79a5 46ae 9477 1540 28e6 fa3d f29d 1240
00000190: 6556 7960 f628 0840 a182 3f4a 1d0c e23f
000001a0: a023 2f5b 897c e7bf 437b 8cd5 4874 03c0
000001b0: b87b a0eb afd1 f5bf 7e16 5540 2da6 09c0
000001c0: 8d8c 856c bd25 fdbf 5cb1 7e62 3d4f dabf
000001d0: fee4 23fc 1135 903f 8a80 37a6 29c0 f83f
000001e0: 3ee5 d294 8315 1940 888d f839 1f21 1d40
000001f0: 8df5 4491 9e99 1540 e0b4 3d14 29f8 1240
00000200: fcbd 3964 4668 1340 6a5c d3ff fe59 0140
00000210: 2bff 2c6c dea3 bc3f a757 8e1b 6276 e2bf
00000220: 5342 ba1d f359 03c0 04a8 5fb0 f0da f8bf
00000230: 0033 b32c e741 0ac0 02aa d378 29c9 cebf
00000240: 1486 8b2d 49b6 0cc0 c226 e79c 0a07 ee3f
00000250: eeea d6c6 46c0 f63f 1f37 d4dc c019 1540
00000260: 7820 2ead 8ba1 1840 a084 3f86 c0f1 1140
00000270: 11b2 e7dc 1005 1240 ef1c 820d 5fbe 1040
00000280: 5d74 d286 4a35 0640 a153 46b3 77a1 f03f
00000290: b64c b6fe 6425 dabf 8490 870e 118b f5bf
000002a0: 9795 3abd ece1 f1bf 63bc 8ef7 6134 ffbf
000002b0: 4ad0 70d3 9dfe f4bf 01bb 5caf 0dde 00c0
000002c0: 5053 b17b e2ce f0bf b863 f1f0 1fd3 e0bf
000002d0: 0054 63df f7d3 0e40 8175 763f 7527 1240
000002e0: 4963 583b 6cb2 1440 470d d9e9 4ccf 0a40
000002f0: 87fd cb7f ddc7 1140 43c8 e360 e150 0040
00000300: 337b e38b 70a0 f23f 63b4 9dc0 3d41 e2bf
00000310: c9ec 1cb3 e6c4 f0bf 4f99 492e 3bc1 e6bf
00000320: 001a d263 c3d4 04c0 2a35 0c66 8a13 fabf
00000330: 461f 506b 1308 00c0 57f9 6afb a3a1 07c0
00000340: b848 ed7a dbd0 fabf 53cd e70e 7660 0340
00000350: d0b4 7979 cfce 0840 7169 2465 c70d 0840
00000360: 4505 fbae 4d4b 0140 0b0d b230 4422 0440
00000370: 92c7 88dd b65b da3f 4254 74e9 554b f43f
00000380: 3088 7a66 8314 efbf 6965 495d 8b47 f1bf
00000390: 60b0 7c72 30d8 00c0 b482 161c 028c 09c0
000003a0: 2fa1 fb8a b1e3 0dc0 77b9 2c00 103a 0cc0
000003b0: 2142 5708 a965 10c0 a565 5738 94c2 06c0
000003c0: d2e8 8622 4845 a8bf 66b0 3d5d 03e8 f33f
000003d0: b64d c6d5 b134 f93f a38c 7d02 3cfc f53f
000003e0: c078 772c 38c7 f93f 76e4 fae9 9d47 cc3f
000003f0: 36da bc03 9d4b cf3f 18b8 6787 6ce8 f0bf
00000400: 1526 6549 944c fbbf 4b9e 4d57 e21d 06c0
00000410: 4836 9260 8a7b 10c0 7b20 6cfa 1810 13c0
00000420: 0570 e43f 8e43 14c0 8650 ce8d 5e14 13c0
00000430: 5db1 25c7 c850 15c0 b144 2bee 2d36 f4bf
00000440: ba4f 7652 a5e2 cd3f cb69 45cc fe4d e93f
00000450: f704 724d 4231 85bf c569 9f75 c4b1 ff3f
00000460: 3147 9bef a8fb f43f 9a16 b21d aa9e d53f
00000470: 4d33 a62d 04bd f4bf ff23 9e81 f67d 05c0
00000480: f193 86ce 2c14 0bc0 3625 dfe3 2ac9 15c0
00000490: e11a 0aa6 b317 1bc0 be22 b19f bdb5 19c0
000004a0: 0954 f2c6 bc24 1bc0 f891 a3df 052f 15c0
000004b0: 39d1 8f51 e084 01c0 e2be d91e e0d2 e2bf
000004c0: 7246 ce95 405c d4bf 7ac7 c6da 3f23 d23f
000004d0: 96f5 2f33 4cc9 f73f 5a48 f933 c536 f23f
000004e0: d937 d353 b963 e43f 39a7 8d6c ebed b63f
000004f0: 26d9 8d63 2563 02c0 6c3e c0b0 db67 11c0
00000500: a0db d008 cbda 16c0 cf10 cda4 d26b 18c0
00000510: 1ab5 d296 d577 1bc0 f9ad a629 7758 1dc0
00000520: 2b1e 98df 26c2 17c0 8784 c8c9 06cd 05c0
00000530: 2d2a 467c 209a 01c0 d6fa e6b9 8531 e53f
00000540: e8ad 6744 d66a e03f 2b93 8841 1509 0340
00000550: 0a86 3d30 e615 ff3f bd8a 7d39 1395 f03f
00000560: ed45 204d 2f06 e23f 0967 be28 c9cc f8bf
00000570: 520a e2ca faf8 07c0 fd23 d1d1 2fd6 18c0
00000580: db29 bcfe cca0 17c0 57c0 cdcd 5f16 19c0
00000590: 6f8e 897e 6674 1dc0 2f70 bc40 b18d 16c0
000005a0: 64e7 9925 a80c 05c0 7b2c 035c d5c8 edbf
000005b0: 7495 a076 5f79 de3f 2e82 470b 5a3b e83f
000005c0: 6d5c 237a cc0f 0340 193f 2f00 c62c f13f
000005d0: e6d0 b894 debd fa3f ea42 a03c e328 d9bf
000005e0: 75a5 b927 c132 f5bf cd3d 0cf1 ba9a 09c0
000005f0: 9536 7d74 474f 13c0 ea86 c341 40e0 15c0
00000600: 08f7 2eab 0483 13c0 9e42 6027 1501 16c0
00000610: 5951 3539 91a5 13c0 786a e961 ee65 c1bf
00000620: d955 b73c a760 f3bf ae42 31e4 6933 f33f
00000630: 1970 263a db10 e13f 3edf 83fa 5ba5 0040
00000640: c2e0 bbb3 f7dc f33f 55ce d4b0 7d6c de3f
00000650: 853c a9da 078b 9bbf 0d3e 4ff5 a51d ffbf
00000660: a227 872c b06f 10c0 249c ca57 68df 0cc0
00000670: ccf0 a1ea d694 13c0 9c31 0beb 8c66 0fc0
00000680: ec92 1b9a 1d76 14c0 a789 9375 fea1 07c0
00000690: d37f 017c 462a fcbf 1320 c463 e276 e1bf
000006a0: c64a f035 e460 c4bf 1828 90e2 f5c0 c43f
000006b0: c495 948b 6e79 c23f 2fdd c7f4 b74b e3bf
000006c0: aa91 1bf5 dd43 c2bf d583 c9ce 9d2c e0bf
000006d0: d911 cc00 29fa edbf bd19 90d4 595d ffbf
000006e0: cba4 aff3 2d04 f9bf e183 c4f4 5752 00c0
000006f0: c6e5 5470 8091 00c0 bcc7 d7bd 489a 09c0
00000700: 47c3 7f2f a557 fcbf cc2d c027 3673 0540
00000710: adbb 3d3a d289 0b40 8317 f9eb b05e 0540
00000720: f29e b0f2 7d98 0640 6a68 21b0 4efe 0040
00000730: 1a68 ee14 cfa6 0040 eefe 15ca 1107 ec3f
00000740: e764 a5b6 2a54 eb3f 506c 40a9 abaa b63f
00000750: 1432 b5fa b7a2 f73f f021 0d5c cfa4 c4bf
00000760: 94d6 70b9 ae11 f63f 78b9 abbe f289 f93f
00000770: c634 82ae 6c0e 0140 d2e8 46cd cd3d f53f
00000780: dd5d 1da4 714f 0a40 2c83 f5e6 cb90 1140
00000790: 32b4 e530 62f8 0c40 1d53 6fe7 fe7b 1240
000007a0: 9cdc 13d3 da65 0f40 ca34 0187 27e7 0640
000007b0: 543e 604f 4756 fa3f bce1 b9b4 2732 e93f
000007c0: ec73 956b 1811 c43f 7aa0 8652 e555 d3bf
000007d0: 256c 685b 9e5c e5bf 0a4d 673f add5 ed3f
000007e0: 487e 021f ecd9 c1bf eb8b 1ee0 3743 0140
000007f0: 0433 2172 95d0 e33f 00a0 c8fe 563c 0840
0.4372845372218225 2.1744111005440194 1.260498342993863 1.3110320802096702 1.3261881508909448 0.6747961845564691 -0.483668938569882 -1.6401074648582845
-1.1659548781617843 -1.744930191392456 -1.4787828326649488 -1.1238977432247328 -0.03534883397846521 0.15263983017170957 1.374452967725001 1.0883626928678447
4.506885058589172 3.077552048533681 3.7272793585274284 2.7933793174894297 2.0015317375824626 0.0872265968113028 -1.0410474299766173 -1.4905464119025365
-2.467727649821629 -2.7495333807733213 -1.8389970318384463 -1.5690356867329451 -0.44460715662865347 1.3835034099394246 3.627141458211441 5.09255407537441
4.41186423837324 4.397253771589859 3.382677571823828 3.2091937871628935 0.36062729049965536 -1.0475513931626759 -2.164966103574674 -1.8045493847980405
-2.97309734923865 -0.8936434430463353 -0.9143033203064524 1.230125919409135 1.0248940031298528 6.046348587477057 6.671690978411761 5.125906727422587
5.366778109609521 4.654244392813361 3.0200011765507946 0.563978810325427 -0.7339522152843649 -2.431779545163779 -1.3636931614089303 -3.2061409975020174
-1.8217138518455471 -0.41108641260759327 0.015827446951310435 1.5469147198528241 6.271009755489386 7.282345681949103 5.400018949350295 4.742344204202908
4.851831022285747 2.168943403852201 0.11187544003496146 -0.5769510782436001 -2.4189207384554634 -1.5534521951290126 -3.2821792118251096 -0.2405139770483658
-3.5890067632869975 0.9383595528135731 1.4219424979370916 5.27514977498302 6.157759386005743 4.486085984827838 4.50494713939817 4.1859094725289046
2.7760210545516615 1.0394207957190036 -0.4085323798582964 -1.3464518134651664 -1.1176574126960526 -1.9502887411324756 -1.3121622332955831 -2.1084245395826433
-1.0505089599366393 -0.5257720666805801 3.8535001232326067 4.538533202748455 5.174240996618047 3.3512209195484135 4.445180889916975 2.0394923753274568
1.1641698326490768 -0.5704640161544713 -1.0480715748406502 -0.711087789922013 -2.603888301705638 -1.6297706590879195 -2.003943289168009 -2.953926052286231
-1.6759905626136469 2.4221001781931277 3.100981663729364 3.006727972196295 2.161769263301411 2.5167316250168645 0.41184779772003666 1.2683924788773457
-0.9712540627990673 -1.0799668926250325 -2.1055611557294895 -3.193363398968666 -3.736178479961516 -3.5283508313797785 -4.099277620626283 -2.8450092698737586
-0.04740357800933882 1.244143833372641 1.575364909226534 1.3740806672365486 1.6111375557880336 0.22093557286078508 0.24449503595833882 -1.056744126249674
-1.706196104716928 -2.7645918675005183 -4.1206450547447915 -4.765720284318486 -5.065972326581691 -4.769891944615784 -5.328890906978214 -1.2632273963429663
0.23347918058845868 0.7907709111853419 -0.010347860325284659 1.9809002489697474 1.3114404067641312 0.33780911350218334 -1.296146562878863 -2.6865053297410664
-3.384851087076179 -5.446452675337516 -6.773146242491493 -6.427481169878488 -6.785876377621215 -5.2959208434663125 -2.189880978776412 -0.5882416346121
-0.31813063268155084 0.2834014545907092 1.486644935560752 1.1383716612076769 0.6371733319481293 0.08956786537387708 -2.29841115738522 -4.351423989995606
-5.713665139911342 -6.105295729652609 -6.867025715456544 -7.336392069624247 -5.939601415309464 -2.7251106037443296 -2.200257273570307 0.6622952109244931
0.513041623691092 2.37943507383388 1.9428464779269938 1.0363952871054345 0.5632549768799301 -1.5499965278199304 -2.9965720987541227 -6.209166792287758
-5.907031994089688 -6.271849837954583 -7.363672234674239 -5.63837147855888 -2.6311800897209867 -0.9307658002011431 0.4761580141515289 0.7572450847911278
2.3827142278710682 1.0734310157021751 1.6713548478556333 -0.39312058372983805 -1.3248912383808975 -3.200551875291899 -4.827421016828926 -5.468995120581647
-4.8779474971213475 -5.501057257890947 -4.911686796073206 -0.135923192795264 -1.2110969897961381 1.2000521577612449 0.5333076606507375 2.0807418414587167
1.2414471646171 0.4753717638843445 -0.026897547455800214 -1.9447383482364586 -4.109070487736888 -3.6090857371050493 -4.895351091512747 -3.925073467520816
-5.11534729760454 -2.9540986238145766 -1.7603211254099633 -0.545762247901623 -0.15920689233515456 0.16213868677761023 0.1443308049721691 -0.6029929905770696
-0.14269613712452883 -0.505446342354953 -0.9367871299332889 -1.9602907469976423 -1.5635203856457334 -2.040206825492064 -2.071045758810871 -3.200334056041326
-1.7713977675850445 2.681255636741957 3.442295508393235 2.671235888995342 2.82445897675995 2.1241735229678413 2.0814496646171508 0.8758629748335502
0.8540242736154625 0.08854172594185283 1.4772262376092202 -0.16127960200016345 1.3793170207767718 1.5961787651136472 2.132043231342865 1.3275888460762428
3.288790971895408 4.391402825102698 3.6212810344791473 4.621089569253653 3.9247337809025122 2.8628683612101655 1.6460641003249252 0.7873724489027647
0.15677170994868506 -0.30211766299408505 -0.6675559792814779 0.9323335874891268 -0.13946296228549415 2.15782141774388 0.6192118863196758 3.0294628052688495

sampling_frac f8 []
00000000: 9999 9999 9999 a93f
0.049999999999999996
