figs/grid_search_recon/skmodel/sv-ideal-p=2/recon-cs_seed=12-sf=0.010-skmodel-sv-ideal-n=12-p=2-seed=2-12-15.npz (npz, 250960 bytes, 2 tensors)

recon f8 [12, 12, 15, 15]
00000000: e9f0 00b6 f122 f43f 0086 9fbb 2f45 0040
00000010: 0c87 5011 0f44 f03f f0c3 a71d aa60 ea3f
00000020: 4bf4 1935 0a43 f43f a999 6f5b af52 b83f
00000030: a26d 1252 176e ff3f eec6 d964 fe69 df3f
00000040: 6740 8a2d 79de da3f c3e8 9389 2c94 f0bf
00000050: 0d08 0d75 9838 df3f aba1 5485 24cb e63f
00000060: b314 ef2a 399e f43f 3623 d93e 3507 fa3f
00000070: a6eb ed75 8f0a f43f 1325 42b9 9cb9 f93f
00000080: 14a5 a1c3 f315 f23f f91e 88c5 9558 fe3f
00000090: abc0 f595 fb41 f13f cd9d 1f8d 07d8 fc3f
000000a0: 8bcc 8ee4 43f9 0140 f48e d36b a0b6 f03f
000000b0: ce0e 5286 4845 f13f 9ce8 773e 041b e43f
000000c0: 00d8 b6a1 201a dcbf 80e3 504b 51ad f13f
000000d0: 8965 d79f 90b4 f73f 10ea b2a2 9d46 ee3f
000000e0: 87df 0341 1a31 fe3f 19b2 c542 3f7c f93f
000000f0: 39f3 d614 eadd fc3f 6655 aace 5694 0a40
00000100: a32e d23c aa31 fd3f 3e50 6303 dc6d 0040
00000110: 168e d5c0 1e04 0440 196a 2b8f 6cd4 f53f
00000120: d5a3 d62c c154 0140 ed61 7ee2 7dde c33f
00000130: 3ea2 f875 b3d6 f03f 60d2 5cd4 38c3 e13f
00000140: 014b 5f70 8aaa d33f e4a2 1f04 27ba ec3f
00000150: f96f fea3 4d29 f03f 98d0 c77a 854a ee3f
00000160: e551 fb6a fa36 f93f 0cc1 dce7 bca6 0040
00000170: ddf8 beb6 36b3 f93f 922b ddf2 a27a 0440
00000180: 4a39 5b52 60d6 ff3f 5db9 ebca b782 f53f
00000190: 9977 585c e674 fa3f 58e0 ba8e d98c 0040
000001a0: c359 30d3 c2ba e23f 57df 581f 470d f03f
000001b0: ae47 4f21 9eea e43f 509e 3f4c f54a e73f
000001c0: 1574 67f8 b8ef e13f 180a 4612 98c6 f23f
000001d0: 3b4b 77ae 70f4 e73f 0112 2d50 cf4f f63f
000001e0: 7ec3 6621 1203 fa3f 3d0a 6dd1 ff62 fe3f
000001f0: 9426 2bae 0f73 fa3f 5971 6012 84e0 fb3f
00000200: aced 4acc 7c03 f43f df7f 8445 ec6e fb3f
00000210: e24a 26ce 4227 e83f 8d4c a300 c108 f33f
00000220: 0789 021b 74dc cbbf 869d ea45 7b75 e33f
00000230: d0aa 903c f053 d13f acf4 2243 3d42 d73f
00000240: 4858 9ba9 211e f13f 572b e876 a367 e53f
00000250: 60bd a860 c830 f93f e132 ae9e 71f0 e53f
00000260: 3154 355f 1b60 fb3f 2e86 186e 6e30 f53f
00000270: c697 f749 29c0 e83f 7699 6de1 b020 f13f
00000280: 499b 8e29 19da f33f 74d4 9380 17cd e53f
00000290: e64e 234b fc92 cfbf 39ab 1435 0fc0 bdbf
000002a0: a316 10f9 de14 edbf 99c5 920d 9e28 e53f
000002b0: 5eeb 10d2 8919 c83f 9e10 c73d e0b0 f13f
000002c0: aabe 6a64 90d8 e33f b4a2 736e 64df fb3f
000002d0: 1e80 1d01 0d7f e93f ede5 5f68 9d08 e43f
000002e0: 3548 e09b bf12 f53f ca60 448a 9ce3 f73f
000002f0: 9bf7 70ec f0c4 0040 ec17 dc21 ce16 0140
00000300: 3d75 9b2d 752a f63f bc77 6222 e295 d7bf
00000310: 06b8 a58b af19 7bbf 8446 d3ac 1657 ecbf
00000320: f158 4d21 c640 bc3f fae5 cc33 94a8 e8bf
00000330: 6c66 7735 b96e c73f 914d 5bdc c8f4 bd3f
00000340: 5dd6 1d48 dadb c73f 7e27 fd85 dde5 c43f
00000350: 7302 834d c031 ec3f fe85 d722 327a e73f
00000360: 7021 0281 36f8 f93f da2b 00f2 3a3a fb3f
00000370: 335a a4c5 edd3 ed3f 170f 5b98 6542 d03f
00000380: 12d4 2679 15d4 13bd 1520 da36 963a f3bf
00000390: 3fb4 1d3a 5771 b53f a659 f0b5 be1b b33f
000003a0: 5c20 55d0 a417 f6bf 0d59 4c8b 749a 803f
000003b0: 98ad 7a50 8d8e e5bf 25db d473 3b74 a2bf
000003c0: 96ba 52c9 99d4 dabf 29e9 0b79 f4dc a83f
000003d0: 7039 92f4 baec c63f aeea 55b7 2864 ca3f
000003e0: 471e 5398 56e3 e33f 7769 6fc5 aa58 b73f
000003f0: 767d 044f e1e9 c4bf 1716 0982 117e c6bf
00000400: b9c7 b6a6 8a24 e9bf c689 1b73 67f7 f0bf
00000410: b72a 98fa 23c1 d2bf 7bb9 c72a f78b fbbf
00000420: 8ec6 2747 e629 04c0 ebc6 9edb 1be6 fcbf
00000430: c3bf a87b 3691 f1bf f89d e2e4 99df f4bf
00000440: 2374 8d51 5944 d6bf fda7 d602 0692 dabf
00000450: 25f0 85ae adb6 babf ee25 f474 7920 ce3f
00000460: 4da8 0d5e 8f16 d4bf 4a9c 1fa6 2422 f4bf
00000470: cfe4 1e3d 8462 f1bf fd94 5b86 c08e debf
00000480: aeec a879 59c5 edbf ecf5 fb27 a9e7 f7bf
00000490: 6745 170b 2535 00c0 136c f7ab 396d 01c0
000004a0: 3b07 b4a6 3940 00c0 6ba8 3746 9ad9 efbf
000004b0: cf31 0718 b3e7 e9bf 7113 cfb8 0b57 f8bf
000004c0: dace 3bf2 5bd8 e9bf 1657 dcf7 00a9 c7bf
000004d0: e3b8 ab30 07cb f9bf 4639 3014 2748 e23f
000004e0: 4dce f9a9 b59f f6bf 0739 9d94 c0c3 a1bf
000004f0: 3850 d5ef 2536 f7bf befc 962b d21c f0bf
00000500: 2590 6d6b d848 04c0 53e1 62de 4c25 00c0
00000510: be30 99a4 d851 01c0 2b86 9b0a 4947 01c0
00000520: 407c 2b47 114c fcbf d998 6abc e9dd f6bf
00000530: 4b84 73ed 3553 00c0 449f 2d99 9331 fdbf
00000540: 52e5 a40c a764 d7bf 4514 342e dc8a ebbf
00000550: e77b b8c0 5455 c4bf 4a5d 220a 7a8a ca3f
00000560: 14e6 2402 d2b0 aabf d28f 6bc9 7658 e7bf
00000570: 0d2e 8a46 5664 f3bf cd1d 3f1e 9bd6 02c0
00000580: ce2f 1f6a 3be5 fdbf ba7c 58e1 944c 01c0
00000590: 3d75 34ee e1f9 00c0 b389 609d 9642 f7bf
000005a0: d4f6 e4e1 3f1a f2bf ff70 7405 bd73 e5bf
000005b0: fc0a a94d 6b64 f2bf 46ea 71eb a81c d7bf
000005c0: 8d43 f80f 33f1 edbf 63b7 559b e470 b4bf
000005d0: 6fc7 f8df 2902 f4bf 3590 1507 e8d8 f0bf
000005e0: 9b34 120a fe2c dfbf e3d2 9b16 0587 ecbf
000005f0: 2fcd c5cf 90d0 f5bf 0036 06c6 5c4c f9bf
00000600: 0116 128c 0f4e febf 5881 b80a 1467 febf
00000610: bdd8 f69f 731b f8bf bafd fa31 6c23 f9bf
00000620: 9269 ee1f 6124 f3bf c7c5 dc69 c8ca f2bf
00000630: 7b0c 2ab8 c3b9 e4bf b400 7d7c d0fd fcbf
00000640: 397a 8697 0a50 eabf 2ad6 aad2 cdc3 f6bf
00000650: fad3 2463 3f0e d03f af74 3eb0 19be e5bf
00000660: 1633 a554 72a1 f1bf 313a b7fb 9f24 febf
00000670: 2b60 2f7f e990 febf 5b3f 5bbf eaea 00c0
00000680: b4ef 5ea2 09cf fbbf 2b08 4da0 cb7a fabf
00000690: 0c9b 91bd a1d6 f9bf c95d 0c2d 70c6 e2bf
000006a0: 9649 73d1 49b8 ecbf 8a0d a57f 4a94 d4bf
000006b0: beb3 594b c85a eabf 30f4 cd40 7a9e f2bf
000006c0: 2330 3e6e 75a7 debf f373 56a7 c0d7 e3bf
000006d0: 1a41 ae5e 7952 eabf deea 36ec f4f9 f6bf
000006e0: e1ab 7b8a 29e0 fbbf f7c2 ee3e c2a5 f8bf
000006f0: 0078 d8c0 5fea f6bf 0c68 9845 2672 f6bf
00000700: 8ca0 5d90 a030 00c0 f4d1 4a1d 160e fc3f
00000710: d52f 3268 5388 f63f 7d9b 01db cf2e f43f
00000720: ba14 ab83 bc47 f83f 304f 436e 1752 f03f
00000730: a93c 85cb 4171 f63f ea01 1f9d 5ca9 ef3f
00000740: 7d61 9649 435c f43f ca18 6bdb 154f ec3f
00000750: 64a3 4e51 1b3b fd3f 1eac 5b0a acb3 f33f
00000760: 4d92 e0dc 2323 f73f 9670 bbcb 0709 f43f
00000770: 4109 8d1a 196f fc3f 1d7a aae6 04a7 f33f
00000780: aed3 618d 6d08 fd3f 7054 50de 9d17 f63f
00000790: d18b 0e71 2555 0040 e1f9 6c40 253f f83f
000007a0: 5d5a 8755 dcd6 0240 b689 59f6 8380 f73f
000007b0: a157 1c19 dd36 fb3f 4fa5 f06d 906d 0140
000007c0: 2844 149d 207e f73f 79d8 0e59 d14b f93f
000007d0: 684f 1af2 7a11 f63f 373c ba2c 057e e43f
000007e0: db5f 56d2 892f ef3f 9fa3 3319 2deb f53f
000007f0: 83e7 bb2f e2cf f63f 91b0 4d71 6b79 ff3f
1.2585312947767824 2.033782449537057 1.016615932116511 0.8242998675542577 1.2663671564362342 0.09501167280504909 1.9643777090012482 0.4908443436498676
0.41982869574804343 -1.0361752866870553 0.4878293173861728 0.7122976879227755 1.288628738127312 1.6267597632415352 1.25257822099841 1.6078154789595984
1.1303594247677369 1.8966272083361544 1.0786090715228436 1.8027415764462262 2.2467115264967723 1.044586583325267 1.0794148680587798 0.6282979221425822
-0.43909469406514745 1.1048138563184864 1.4815832370571533 0.946120088359125 1.8869879283574578 1.5928337677279443 1.8041783155487805 3.3224311967593847
1.8246252418347602 2.0536422981913622 2.502011782185728 1.3643613426744479 2.1663840773585243 0.15522740897428325 1.052417240929699 0.5550808093744983
0.30728398298121823 0.8977236824549348 1.0100838094722333 0.9465968511635934 1.575922410867059 2.0814149965518762 1.6062533510699304 2.55988111245592
1.9898379532856603 1.3444135595887794 1.6535400016068478 2.0687743330745825 0.585297977903615 1.003241655778728 0.6536398554401239 0.727900170252676
0.5605130054133293 1.173484870320527 0.7485888869799519 1.3944848186375796 1.625749712442683 1.8991697483730967 1.6530911258181833 1.742313453468418
1.250851438539807 1.714580794861824 0.7547925974234568 1.18963718651938 -0.21766520804255426 0.6080910077625254 0.2707481948333852 0.36341792637160597
1.069856321837067 0.6689011881256687 1.5744098449466364 0.6856010531642732 1.7109636038851586 1.3243240643136107 0.7734571880980574 1.0704811864648867
1.2407466529200113 0.6812856208113218 -0.24667314213603858 -0.11621184392849394 -0.908797728014822 0.6612081780532889 0.18827936894544 1.105682603186359
0.6201860390919667 1.7420391382712923 0.7967591306478459 0.6260516203466843 1.3170772637281634 1.4930692101534526 2.0961626502966744 2.1361353535930814
1.385365656045294 -0.36852315290331794 -0.006616292690848629 -0.8856309295171774 0.11036337197342384 -0.7705784808851484 0.1830665122095526 0.11701636676598627
0.1863968708163836 0.16326493303705186 0.8810731424237715 0.7336664848809844 1.623098854006539 1.7017163708830965 0.9321202144809092 0.2540525424812911
-1.761120374490301e-14 -1.2018034117372782 0.083760692299351 0.07464210454813855 -1.380772413062025 0.008107100010914548 -0.6736513683185192 -0.0360430315872036
-0.41922611866440584 0.048560752655207935 0.17909943525269112 0.2061816115563792 0.6215012526599332 0.09119670219607721 -0.16338745458868303 -0.17572230195416758
-0.7857106453068275 -1.0604013916387074 -0.293038363190742 -1.7216712637997194 -2.5204587515843917 -1.8061789111056281 -1.0979523497044148 -1.3045901242093105
-0.347921685830274 -0.4151625659675345 -0.1043499518472691 0.2353660412848479 -0.31387695488831896 -1.2583357323835735 -1.0865518939520376 -0.4774628936850858
-0.9303405166787309 -1.494057804287304 -2.025949560783079 -2.178332656372285 -2.031359960907961 -0.9953128215249881 -0.8095336407946493 -1.521251413259247
-0.8076610308766832 -0.18484508612225942 -1.6120674039080363 0.5713076967529467 -1.4139916076354837 -0.03469659628045645 -1.4507197731482062 -1.0070363714910822
-2.5355690377055162 -2.018213021652778 -2.164963994908333 -2.159807284232348 -1.7685711650917852 -1.4291779861464902 -2.040630202377121 -1.8246036513828168
-0.3655183433034682 -0.8607006933604074 -0.15885409746348886 0.20735097403369657 -0.052130282174811665 -0.729548829458958 -1.2119963412723138 -2.354788051892433
-1.8684648652442664 -2.1623933415536074 -2.1220129594572925 -1.453756918672849 -1.131408579254118 -0.6703782183208488 -1.1495163949591065 -0.36112425797151493
-0.935693293753603 -0.07984761040071713 -1.2505282162569207 -1.0529556538322258 -0.48712111457354873 -0.8914819184852515 -1.363419353115045 -1.5811431632349695
-1.8940577956685731 -1.9001655977991359 -1.5067020653346355 -1.571148104892798 -1.1963816878620475 -1.1745075354814263 -0.647676334091002 -1.8119664061378389
-0.8222706756094517 -1.4228037099068254 0.2508696048928979 -0.6794556085839271 -1.1019156748254253 -1.8839416344304818 -1.910378929916997 -2.1147055577966234
-1.7380462973223816 -1.65497934930364 -1.614900341513649 -0.5867234115457275 -0.8974961367442116 -0.3215509649782794 -0.8235818359076956 -1.1636908084322037
-0.47897086873922684 -0.6200869816126428 -0.8225676392776535 -1.4360245921258676 -1.7422271165366896 -1.5404684503848196 -1.4322202237158308 -1.4028685301368595
-2.0237437513897643 1.7534390587071558 1.4082826681287675 1.2614286951954619 1.5175137656490691 1.0200418765206898 1.4026506376283499 0.9894240444919522
1.2725251078137199 0.884653976966342 1.8269303489743942 1.2313652424443329 1.4460791233078851 1.2522047003067533 1.777123550142804 1.2282761583698012
1.8145576021899887 1.380765789426075 2.0415753204883704 1.515416385329097 2.3549124414378597 1.468875849059811 1.700894449318618 2.178498133570123
1.4682928214936144 1.5810101965739973 1.3792676407947173 0.6403833268722171 0.9745530231621119 1.3699160561029442 1.42575281759352 1.9671434808651933

sampling_frac f8 []
00000000: 7b14 ae47 e17a 843f
0.01
