figs/grid_search_recon/skmodel/sv-ideal-p=2/recon-cs_seed=24-sf=0.070-skmodel-sv-ideal-n=24-p=2-seed=1-12-15.npz (npz, 250888 bytes, 2 tensors)

recon f8 [12, 12, 15, 15]
0	0x4007b3c68be783de	2.9627810411479762
1	0x400b433f52ac616d	3.407835622678411
2	0x4005256393d7d274	2.6432563352812455
3	0x40021b658b705014	2.26337727486135
4	0x4007fda26b1bdf53	2.998844944751832
5	0x3ff936a661054486	1.575842265116337
6	0x3fca38e80b69bd25	0.20486164624478778
7	0x3fc2490db1376ec3	0.14285441544676844
8	0xbfee58954c152fa7	-0.9483133779517531
9	0xbfffe533dc8113aa	-1.9934576619573172
10	0xbff2a37635ce7d09	-1.1649076558895237
11	0xbff1dc084b827a18	-1.1162188481899928
12	0xbfe3a0820940bd58	-0.6133432560654155
13	0x3fe5824d614d0847	0.6721560383232451
14	0x400c66064dfedad7	3.549816712703755
15	0x400cce00869f69f0	3.6005869405173527
16	0x400ac498cb9f8877	3.345994559103072
17	0x40127a20b9a2e6d9	4.619265461509451
18	0x4011e8b6a331c0be	4.477259206687618
19	0x400fa46fb54e39d3	3.955291191530003
20	0x4005a17a022e5b93	2.7038459940335513
21	0x3fe66f347166fdb9	0.7010748114479873
22	0xbfa6943e505f9ec2	-0.04409975749132179
23	0xbfebe0f33c18aa58	-0.8712097333676168
24	0xc006cd3cb7a5bf08	-2.8502134654480678
25	0xbff642a8288daa9b	-1.391273649608286
26	0xc00135ebffdf75bb	-2.1513290395803017
27	0xbfdba84d604f91ea	-0.4321473541770319
28	0x3ff8141ec248eb84	1.5049121464969355
29	0x400c799212c4a257	3.559360643983648
30	0x401cae592124294d	7.1702618768998265
31	0x4018fbfad6dcf509	6.246074063526302
32	0x401686954ed59561	5.631428939615348
33	0x40149172b661e992	5.142039155698869
34	0x4013f32b198bc03a	4.987469100146024
35	0x400addc2c815471f	3.358281672620151
36	0x3ff929412992b401	1.5725719093272803
37	0xbfd2ca052203f0d5	-0.2935803253346994
38	0xbff46f01125bef7b	-1.277100631442379
39	0xc009cb36c80d8491	-3.224225581085712
40	0xc005511e477b5840	-2.6646085342900108
41	0xbffcd817317e9904	-1.8027564938907412
42	0x3f9ff87452913f4b	0.03122121576262708
43	0x3ff75e69842c069f	1.4605498469322027
44	0x401013a9774bd17d	4.019201148989279
45	0x401311c40ba3f186	4.7673494166196
46	0x40194295ea771673	6.3150250086961135
47	0x401ce92b4563e160	7.227704128476347
48	0x401969939573566f	6.3531020499845985
49	0x40170066887feaaf	5.75039113312475
50	0x4010f9d465f5b2cc	4.243974297639124
51	0x3ffaa80b17055470	1.6660262011767166
52	0x3fed1356baf7dc9b	0.9086106921885347
53	0xbfe031289d5fdb98	-0.5060008119315738
54	0xc004d2e17164029f	-2.6029690607686713
55	0xc00b9da62dfcb3d1	-3.4519771187537818
56	0xc003bc673ef2233f	-2.4669938008923107
57	0xc002b67b5ff7ee52	-2.3391025064027327
58	0x3fea4c935dfd6230	0.8218476138818627
59	0x4007be7650012584	2.9679991007184885
60	0x4012c2eefabe4d29	4.690364759316517
61	0x401a6cc0e9ae672a	6.606204653997148
62	0x4017210c2d1bbc41	5.782273011033852
63	0x40198d7259647722	6.388131520039481
64	0x401693b5d7516d3e	5.644248356194394
65	0x40128272ca587e2a	4.627391015673803
66	0x400659ef88aa5e1e	2.7939139058105544
67	0x3fe18d055e967fb9	0.5484644744319588
68	0xbfd6e6a902ac357d	-0.3578283811665058
69	0xc0021048fee4abcb	-2.257951728204238
70	0xc00763329ecef4d7	-2.923436394396599
71	0xc0051ea5b9eb22f7	-2.6399645352251997
72	0xbffd62daed58d4ef	-1.8366345664374497
73	0x3fc2d7ef6096dc9f	0.14721481529497724
74	0x40046f4e49bd15c6	2.5543485413388423
75	0x400a8e7d43608a12	3.319574858077666
76	0x4013e428f565470d	4.972812494570246
77	0x401af6019c05c015	6.740240514613125
78	0x4019d7a8c3d89566	6.460604724973882
79	0x401a20ebe20514fd	6.532149821815662
80	0x4016eb0c39fffcea	5.729538828133835
81	0x40034a235e085abc	2.4112002702998705
82	0x3ff8c3ad4838c369	1.5477726765786548
83	0xbfd3af634369dd43	-0.30757981856682565
84	0xc00aa493fb2364ef	-3.330360376374862
85	0xc00b1d2c7b8a14cb	-3.3892450000299497
86	0xc0100b5c74faec91	-4.01109488278884
87	0xc00a2b68aaf6c235	-3.271195731788135
88	0xbff712b4c46efdcd	-1.4420669243989892
89	0x3fa1938756d251e8	0.034328679416976204
90	0x3ffe4a8ce161df46	1.8932007602688414
91	0x400a975c92d77e94	3.3239070388806997
92	0x4015e8f6e5a617bc	5.477504337561125
93	0x4015d09e1eac59f5	5.453728179234976
94	0x401a4c168e305a1a	6.574304792119188
95	0x4011462c7749c344	4.318528999211427
96	0x400c8d16e467854b	3.568891319665146
97	0x3ff2cfa84d206663	1.1756976139789905
98	0xbfe488e5012bc27d	-0.6417107603902675
99	0xc0091d98420d8df8	-3.1394505653749967
100	0xc011de905658d885	-4.467347478077618
101	0xc01324cd5b7109d2	-4.78593962552482
102	0xc00c0c047e0b8ab0	-3.5058679435035955
103	0xc00228dd0ee44fc9	-2.269952885000724
104	0xbfd18554eda1eaf8	-0.2737629242543984
105	0x3fdd8cb9355be4b5	0.46171407900653644
106	0x3ffdd9c9c690a509	1.8656709438749337
107	0x40100011650a2e33	4.000066355463377
108	0x401263af60708f9a	4.597348696584868
109	0x4012a151b3f3a0a9	4.657538234467361
110	0x400ab49242fd4bb3	3.338169597010585
111	0x3ff7755d612e2e44	1.4661535068616027
112	0x3fe0ab6d75f1bc10	0.5209262183760774
113	0xbff1a65ffa5fb0c6	-1.1031188755251136
114	0xc00bae9217bc78f1	-3.460239587249014
115	0xc0119c567a7ac2d7	-4.4026736390521455
116	0xc012a600a4222dd2	-4.662111820779915
117	0xc01148021e535da0	-4.320320581281891
118	0xc0030dab28592f90	-2.381674113485083
119	0xbff12d927e5eed41	-1.0736260353431393
120	0x3fd8cdfe2b1c6dd5	0.3875728055006367
121	0x3ffe1ce387ae4d55	1.8820529270204436
122	0x400a8a083b30125e	3.3173985122723897
123	0x40110c445704496e	4.261979446064613
124	0x4016a284f9ea31b9	5.658710389060098
125	0x400ad5bb4033b4fc	3.354361058786365
126	0x3fe4ba021c70fbba	0.6477060847754423
127	0xbff4440a05c928f5	-1.2666111207968787
128	0xc0032c504fa11c39	-2.3966375561754174
129	0xc015a8dfdc8620ea	-5.414916463553007
130	0xc017ae03827c5e13	-5.919935263481892
131	0xc0166539d4761727	-5.598853416164082
132	0xc01307adb55c9e30	-4.757498582628202
133	0xc010242a4b77c976	-4.035317591844764
134	0xbffdb05799324042	-1.8555522903661914
135	0xbfd00891b9ce31f6	-0.25052302498877965
136	0x3ff4da4438d15bc8	1.3032877177663398
137	0x4008cb0e40335e7c	3.0991482749630546
138	0x400e6f87122c7052	3.8044568462192183
139	0x4010d59f742f7199	4.208616080661522
140	0x400b776801befd15	3.433303846016893
141	0x3fe2da0325f0f310	0.5891128293074832
142	0xbff29ddc1461b4be	-1.1635399624022251
143	0xc0071a597fb6a1f2	-2.8878660180673643
144	0xc01406ac4cf436e6	-5.00651664963309
145	0xc01a525319ea71ea	-6.58039513104857
146	0xc01c1138db91048b	-7.01681845734232
147	0xc017da295fc9bbbd	-5.963048454940631
148	0xc0153e22549c7832	-5.310677835512296
149	0xc01008b7075dd319	-4.008510699369048
150	0xc0078c942ef236c1	-2.9436420123737155
151	0x3fe716857d8e89ec	0.7214992000847906
152	0x3ff60ec08bd6d20a	1.3786015951601507
153	0x4005be5ad08dd162	2.7179466527251614
154	0x4009a76839f2fe82	3.2067417647629677
155	0x4009a28578b6ac20	3.204356139254301
156	0x3fe0ecf02643818a	0.5289231059396553
157	0xbfd841691478faac	-0.3789923381736269
158	0xc001f3e5973f8451	-2.244090253473168
159	0xc0122ea494e347a4	-4.545549703952847
160	0xc01a7ce31ffbdf64	-6.62196016287621
161	0xc0172621cf506050	-5.7872383492286446
162	0xc01bbb32a2444603	-6.932810340325434
163	0xc0159eab5be4b8a5	-5.4049505575514205
164	0xc012f8338e85fdd7	-4.742384173324772
165	0xc0047299010daa04	-2.5559558946890792
166	0xbff1f92754f8162a	-1.1233285254578598
167	0x3fe38eaa2ac0d0ed	0.6111651263259127
168	0x40059629bd317717	2.6983217983933048
169	0x4009162e59ab6f85	3.135830593628216
170	0x4007f0bfffdabc32	2.9925537098529498
171	0x3fedb4c1e46b30a0	0.9283151112845367
172	0xbfd81d73e23e0943	-0.37679764837243485
173	0xc003256edac1b748	-2.3932778444640554
174	0xc01044492f040c57	-4.066685423490603
175	0xc0151314e8381352	-5.268634441778731
176	0xc019fa0d5ba06e23	-6.49419158140839
177	0xc01a7b021b676ac3	-6.620125225245547
178	0xc0191dbf99f40a3d	-6.279051213760394
179	0xc01f6ad88aef6b78	-7.854341669905686
180	0xc00ed584bdfd41c9	-3.854257091800012
181	0xbffad4d9ec888b82	-1.6769656409821612
182	0x3ff5224c9132ed46	1.3208738014062233
183	0x4001616f534227eb	2.1725756172718227
184	0x400643a01ff6c80c	2.7830202576815335
185	0x4008829beb8783bb	3.0637739563685193
186	0x3ff39e197d0be3f8	1.226098526442227
187	0x3fdad01c177c364d	0.4189520100925151
188	0xbff29ee22cd5ee17	-1.1637899161713727
189	0xc00b5e52347da3ff	-3.4210552311747047
190	0xc014ecdc3766cf0c	-5.231308808946562
191	0xc014d5ab79bac814	-5.208661939645044
192	0xc018dca81600d9f3	-6.215484947015727
193	0xc015c3bbeeb90998	-5.441146593135635
194	0xc0145ef651b55251	-5.092736508075704
195	0xc00b363e3f101b28	-3.4014859129705606
196	0xc001dc83f6cafd30	-2.232673576421483
197	0x3fe787165f013be4	0.7352401595652478
198	0x3ffe215185d216e4	1.883134386765442
199	0x4000c5eb82fd0f54	2.0966406091192002
200	0x4003e2e9d49bbb37	2.4857975587869094
201	0x3ff38e80ed36d452	1.2222909227541732
202	0xbfe3a47142f91215	-0.6138235385956842
203	0xbfeeb830cb556ffe	-0.9599842044221985
204	0xc001c4f3dbf7c238	-2.2211682496056504
205	0xc00fd171a79807c3	-3.977267560317132
206	0xc01189fbbdcdf567	-4.384749379821506
207	0xc0110b54d86f8e2d	-4.261065847214508
208	0xc00e9740e68a37db	-3.823854256718716
209	0xc00b4a8c452b329d	-3.4114003566558737
210	0xc003d56432aaf6f9	-2.47919501861804
211	0xbfc42d6f99ceb832	-0.1576365948689627
212	0x3fb1ef91ffb6762b	0.07006180279719192
213	0x3ff76db35bf9a29e	1.4642823784617245
214	0x3fea73057c54c73c	0.8265407017081325
215	0x3ff64d4c96c5c577	1.3938718690445435
216	0x3ff189c74a2c21a7	1.0961373231276441
217	0x3fe2c3def0de9f26	0.5864100174412428
218	0xbfe4c95316b7e378	-0.6495757526127894
219	0xc0000e31d6e14b75	-2.006930998564196
220	0xc0000779c2045c52	-2.003650203474117
221	0xc0016b7a4e680b91	-2.177479374456603
222	0xc0041393ed48c67d	-2.509559491904666
223	0xc0023203f128df7c	-2.2744215813253827
224	0xc00c28cb06106e48	-3.5199184869541433
225	0x401045821b4b10af	4.0678791298452515
226	0x400e9fb4f86a60ae	3.8279818923438915
227	0x400fa450f0e2c377	3.9552325076296557
228	0x401104da26533c0e	4.254738425092922
229	0x400320424e6ef946	2.3907514693848126
230	0x400439062c21e67c	2.5278438041539726
231	0x4003e11c53c10b56	2.4849173110282363
232	0x3ff08e33e1ef15b7	1.034717447809596
233	0x3ff2478778cc4cb1	1.1424631804155008
234	0x3fed87177d319fd4	0.9227406926338468
235	0x3ff52c81cc37bde2	1.3233659722571862
236	0x3ff4c60a8057a3c4	1.2983498586056479
237	0x40019885ce7f38ba	2.1994739658904026
238	0x3ff763e5da8be82d	1.461889127442656
239	0x400308107739cc9d	2.378937655879396
240	0x4011b741df295158	4.428962218186221
241	0x40124d5f09cf2c00	4.575557854909675
242	0x4014b75944e74a86	5.179051472298516
243	0x401483d436e1d84e	5.128739221128923
244	0x4015d1b3894e510a	5.454786439328254
245	0x4010ea3ef6502e99	4.22875580658333
246	0x400297aed8d38a45	2.324063962894146
247	0x3ffabe46f97cdb2e	1.6714544053663292
248	0x3fe6699566b53ef6	0.7003886228576153
249	0x3fce87cd1849b928	0.23851932226120565
250	0x3fca7723c6a6ac60	0.2067608566261212
251	0x3ff225bb19fe2246	1.1342116370525601
252	0x3ffbf6c29f8fd7ab	1.7477442009817235
253	0x3ffffa1393d19280	1.9985538267293634
254	0x400787cab9149c74	2.941304632131102
255	0x4013bf56d082cf44	4.936854608520495

sampling_frac f8 []
0	0x3fb1eb851eb851eb	0.06999999999999999
