figs/grid_search_recon/skmodel/sv-ideal-p=2/recon-cs_seed=16-sf=0.070-skmodel-sv-ideal-n=16-p=2-seed=6-12-15.npz (npz, 251301 bytes, 2 tensors)

recon f8 [12, 12, 15, 15]
2.7739710884445192 2.5271058394168007 2.3742221730911806 2.005970127099591 1.4022509298956773 0.1593472620174159 0.6797165375540511 -1.005190778309311
-0.8409021985702967 -0.5519630808195722 -0.7598189092127903 -0.31175748192776936 -0.4932367387079871 1.2883386143833089 1.775588662288749 3.253925829847416
3.193124665444671 2.996937659390695 3.1530676062845466 2.092827199377709 2.0504020646139907 0.4902115681600396 -0.3445936937185686 -1.030940647464048
-1.1105964257442127 -1.2879353618086826 -1.073360814057935 0.04364746014081025 0.3448804377545561 1.86053540480617 3.6078212166116748 5.028531212812822
3.8922674342116585 4.368507067063938 3.4980085682484057 2.016504134770871 1.2226956681310743 -0.274689307575507 -0.7433722796354881 -1.6404147834697058
-1.8716555926284342 -2.2759441438904227 -0.9380792853749125 0.03210696383952911 1.712881911407955 5.367463083883803 5.23022876438608 4.332094279769102
4.764668726641706 4.042529817136091 2.7508777530865887 1.2036649761795575 0.09129074332235285 -0.6212699380348584 -1.8619912929126057 -1.5868796324097998
-2.6658360263527396 -1.3851419886015468 -0.8639057424615122 1.5464693488569092 3.577850605808856 5.354262999368936 4.757483260245041 5.489278270704499
4.564155696004097 3.1553593602128536 1.4327866976440795 0.6059267423692946 -0.6086493876808948 -2.1020169118699297 -2.4867317495242216 -2.561402494958926
-2.351641347265958 -1.0427695734090718 1.181429273493848 4.448732742376385 5.561585803879378 5.560117344959331 5.1482918124676855 4.485176812891867
2.931208945129961 1.1956344502313985 0.03190249943371217 -1.125001377055008 -2.5124622378763557 -3.2016914863146364 -3.535447945558185 -3.226483594319109
-1.4503123303520424 0.30392501716056264 2.8388085086004535 4.947488196853319 4.774967575941314 5.105821619651637 3.9010218977039615 3.1949125983431776
1.674513857204698 0.09855821426842407 -1.6791066541450148 -2.5877773326029363 -3.7212588035274283 -4.129014286830695 -3.202996468475864 -3.60868474863403
-0.9665399598859634 2.4241268466895525 3.756987318137287 3.571523665805694 4.395797512765575 3.6400186266798906 2.329624697178281 1.7697482938059093
0.011488384684557044 -1.3080399366268378 -2.1991940640844776 -3.5720489199155536 -4.745657363448829 -3.7190070258991854 -4.083106026602182 -1.5527678523785309
1.1156418236302108 2.991975936408317 3.2400496299227592 4.297598693036263 3.7584916000644553 2.7299247009489256 1.1502086037111972 -0.478591449361478
-1.3473386168952926 -2.4760504523066174 -4.054249440830434 -5.100698623588642 -3.9183140184770657 -4.845711463501169 -4.486079947273929 2.1800058067758354
1.754950853028506 2.326331536943959 3.978635543191369 3.2494367099886166 2.2087454772495656 1.4653236744246247 0.13260525533172024 -1.5253985521062297
-2.626833151766756 -4.294134909193837 -5.43995356097987 -5.479499156655813 -6.138120217954081 -3.939402235156711 -1.39383128882243 0.7599067125698064
1.5520521317364921 3.0562087719946773 2.3813642268593753 2.036284477047549 1.0462124114222988 0.19922392343168402 -1.5519690202980254 -3.478308927309619
-3.859798780176787 -5.587856231611857 -4.981923582978184 -4.91508031358771 -4.1557853753455305 -1.7787113740666776 0.7656751807515702 1.6386885806992508
2.0302139625732876 2.274000162529719 1.3505032186941606 0.7702623402876947 -0.1968323320115787 -1.8165542663676462 -2.557578645226919 -3.847140437231593
-4.928767439464059 -5.159037270290912 -5.2877693405008594 -4.180902399320892 -1.9446604513111438 0.18117279234317268 0.7861348347011391 1.3039702796161228
1.8453177953835922 1.9466144905328087 0.6799614007714718 0.47655175395740595 -1.204607426923702 -2.1742766518182624 -3.706857766789073 -3.6903247907288677
-4.723160834606077 -4.327057471720708 -3.219195957884055 -2.182594202182909 -0.792159544808401 0.2515761622380503 1.0381027347846294 1.3464879757791137
0.9235010875168395 1.0065627755395516 0.36078132468529306 -0.5511120635667716 -1.4061709033088363 -1.993231193077991 -3.4639497148464575 -3.4110094452743307
-3.2517416107541517 -2.930106717220723 -1.8473173948783104 -1.2428996452013505 0.007365850714736449 0.4372689271482059 0.5046081459210026 1.4145234231061106
0.971475763849833 0.39242062832252006 0.11313233695800601 -0.44564636631904153 -1.6955886163936666 -1.6904358867987377 -2.036137399310299 -2.4547500239737414
-2.2328974620752975 2.4296048398176713 2.6248685488946175 3.1102654505452256 2.662561005532612 2.1774704982705226 1.4211811823671439 1.2794360207268285
0.8995519307263299 0.9239075011438322 0.07058731946549202 0.9462643006615382 0.8012913098156093 0.9909840361378185 1.1301718484072212 1.911023014073676
2.695459154469244 3.3860909079566075 4.6378479204146545 4.059956939909737 3.842388299069434 2.8705018860382623 1.9451349008826402 1.0103686838397539
0.5384768091897782 -0.11170081212109684 0.6114492941859139 0.2827462198276357 0.44427795370402257 0.751616742773873 1.0207063013229032 3.51613588602294
00000000: 9159 07c1 1731 0640 369b 2e44 8337 0440
00000010: d9ea d631 68fe 0240 682a e510 3a0c 0040
00000020: 1800 cbab 9e6f f63f 7835 89b7 7d65 c43f
00000030: 490a 6be5 3cc0 e53f b844 f1ec 4215 f0bf
00000040: 36ce 3fba abe8 eabf e105 977a aea9 e1bf
00000050: 4671 bebe 6f50 e8bf e96f 4aa7 d5f3 d3bf
00000060: a6ef 7bd3 3091 dfbf 4b34 6ff3 089d f43f
00000070: 67db 3aa8 cf68 fc3f 3b6f f643 0a08 0a40
00000080: 2016 d1f1 848b 0940 dede 9973 baf9 0740
00000090: 958d 5882 7b39 0940 600d cc2f 1cbe 0040
000000a0: 0058 9932 3967 0040 5391 5757 a05f df3f
000000b0: 4276 3bb5 d20d d6bf 389a cf9e bb7e f0bf
000000c0: a103 fac1 00c5 f1bf 9448 251c 629b f4bf
000000d0: 00fd 9263 7c2c f1bf b46b b7bb f558 a63f
000000e0: 22e7 4b66 8512 d63f fa14 cbc5 c0c4 fd3f
000000f0: ee4b b95e d1dc 0c40 ffc8 4749 371d 1440
00000100: 9bcc c91b 5d23 0f40 b889 a5ea 5979 1140
00000110: 9909 8eea ebfb 0b40 a4b7 78eb cc21 0040
00000120: 6257 3955 2990 f33f 8440 2676 8294 d1bf
00000130: 4932 b9a9 b4c9 e7bf 7409 6e92 233f fabf
00000140: 196f 7b22 4df2 fdbf b541 0c34 2235 02c0
00000150: 8ab0 77d9 be04 eebf a94a 54ef 5270 a03f
00000160: a183 f6dc f667 fb3f ad12 1f3e 4878 1540
00000170: fc8b d616 c1eb 1440 1830 db85 1054 1140
00000180: e5cc 9451 050f 1340 47d1 b6ef 8c2b 1040
00000190: 2a68 0632 cc01 0640 5482 c034 3642 f33f
000001a0: be3d ff84 d45e b73f 0f20 3b7e 71e1 e3bf
000001b0: 3ff1 c761 b7ca fdbf ac37 bee5 db63 f9bf
000001c0: 0978 add6 a153 05c0 c2c2 55a5 8a29 f6bf
000001d0: 845c d6a7 1da5 ebbf 9eb5 d9a4 56be f83f
000001e0: f261 6f23 709f 0c40 cae3 71eb c36a 1540
000001f0: 6314 18b1 a907 1340 ec46 ed5c 05f5 1540
00000200: 45c2 e007 b241 1240 fbee 590c 2d3e 0940
00000210: 1067 88be b1ec f63f 1bef c77a c063 e33f
00000220: 5d3c da47 0e7a e3bf 4cf6 203e eed0 00c0
00000230: 190d 919d d3e4 03c0 5fee 5d97 c07d 04c0
00000240: ea6d b356 29d0 02c0 b3e4 f025 2faf f0bf
00000250: 0217 c361 22e7 f23f 979a 9498 80cb 1140
00000260: 3c3d 5659 103f 1640 3917 ba66 8f3d 1640
00000270: cb40 13cf d997 1440 a297 c030 d2f0 1140
00000280: 539b e8ac 1d73 0740 ce6f db96 5121 f33f
00000290: b3f7 743f 8655 a03f e57f a671 0100 f2bf
000002a0: 4fe9 40cd 8519 04c0 efd2 0c6d 109d 09c0
000002b0: f60f b7ee 9848 0cc0 e772 75a1 d6cf 09c0
000002c0: a68f bdb3 7a34 f7bf c603 49ea 8173 d33f
000002d0: 265d 403c e1b5 0640 f652 8b58 3aca 1340
000002e0: 6c83 a819 9119 1340 4274 ae80 5c6c 1440
000002f0: 6df2 fcf7 4a35 0f40 dbb2 1b56 2e8f 0940
00000300: b249 d60a cfca fa3f 82f8 0873 1c3b b93f
00000310: f9c7 60f0 9edd fabf b8e0 269a c4b3 04c0
00000320: b4d1 e855 23c5 0dc0 4f9e 3a52 1c84 10c0
00000330: 6a75 ca9c bc9f 09c0 39a8 071c 96de 0cc0
00000340: 7e98 bf35 e5ed eebf 0e19 bf9d 9c64 0340
00000350: 5617 f75d 4f0e 0e40 3434 ecff 7a92 0c40
00000360: 47aa 74f1 4b95 1140 225e f315 c21e 0d40
00000370: 4dad f245 12a3 0240 58c5 4096 e350 fc3f
00000380: 0246 08e4 3887 873f 72c9 da48 bbed f4bf
00000390: ba66 b60e f397 01c0 d3fe 5562 8e93 0cc0
000003a0: 2123 989a 8dfb 12c0 5aa6 6ec1 86c0 0dc0
000003b0: 716d 09bf 1955 10c0 65ef 831a 23d8 f8bf
000003c0: 36aa a83d abd9 f13f 7257 6a14 91ef 0740
000003d0: 327b ef23 9feb 0940 3fb1 37b6 bd30 1140
000003e0: 568a 440b 6411 0e40 1bf2 f8c2 e2d6 0540
000003f0: 5647 0823 4167 f23f 48c7 c907 3ea1 debf
00000400: 1f40 03f0 b28e f5bf 3339 1f8a f3ce 03c0
00000410: a2c5 582a 8d37 10c0 0043 3c8a 1d67 14c0
00000420: e889 2605 b558 0fc0 f95b 962f 0262 13c0
00000430: b821 13f1 bef1 11c0 d989 69e2 a670 0140
00000440: 0a84 7d58 4714 fc3f 2c9f 76b5 539c 0240
00000450: 56ae 25df 3ed4 0f40 6495 7eac d8fe 0940
00000460: 62cc afbf 82ab 0140 4255 bb3c f771 f73f
00000470: 46b7 7681 35f9 c03f 9697 ea4f 0868 f8bf
00000480: 3618 7719 c103 05c0 d965 9eb3 312d 11c0
00000490: 4cab b02f 83c2 15c0 692f b1d3 01eb 15c0
000004a0: df1d ec62 6f8d 18c0 8b4c ae51 e583 0fc0
000004b0: 5224 9a09 224d f6bf 2df1 cfe1 2751 e83f
000004c0: d2ec b79d 34d5 f83f 43b9 ab95 1d73 0840
000004d0: 80cd 11b0 080d 0340 692c 1284 4f4a 0040
000004e0: 2da6 bb39 49bd f03f 6325 dc65 2b80 c93f
000004f0: e55c a977 ddd4 f8bf ef6f 81a1 93d3 0bc0
00000500: fcff cf2e dee0 0ec0 4617 e6fb f659 16c0
00000510: f13f 3060 7ded 13c0 624a 50d0 0aa9 13c0
00000520: 7037 9133 869f 10c0 d03b ca0e 9a75 fcbf
00000530: f1fa 953c 6980 e83f 39e9 6684 1138 fa3f
00000540: 2614 69d1 e03d 0040 854f 49ff 2631 0240
00000550: 4df2 5643 a99b f53f c808 1c35 fda5 e83f
00000560: 9d7f 6446 cd31 c9bf 4055 d734 9b10 fdbf
00000570: b194 f1ca eb75 04c0 0d3b c890 f1c6 0ec0
00000580: e659 c8cf 0eb7 13c0 73fa 8aaa daa2 14c0
00000590: 81f8 8801 ad26 15c0 9767 837a 3eb9 10c0
000005a0: a04b 0347 541d ffbf 86fb 0489 ab30 c73f
000005b0: 5135 a93d 0428 e93f fc83 9ef0 0fdd f43f
000005c0: bb63 def3 6b86 fd3f 3d21 6c3c 5525 ff3f
000005d0: e262 5b69 3ec2 e53f c74d 86ed d27f de3f
000005e0: 047f f26f 1246 f3bf 6420 4028 eb64 01c0
000005f0: e542 7a0b a5a7 0dc0 6463 fe00 c985 0dc0
00000600: 5086 1946 84e4 12c0 c1cf 6327 e84e 11c0
00000610: 2338 74cf e9c0 09c0 b984 f6f2 f375 01c0
00000620: 9152 45f9 5e59 e9bf dbff 50e7 d219 d03f
00000630: 3e9c fc9c 119c f03f 46db c6f9 368b f53f
00000640: 7c91 1627 528d ed3f 8903 a591 e11a f03f
00000650: 1ffa a18d 0a17 d73f 5369 2ec4 b5a2 e1bf
00000660: 8dc5 a40f ad7f f6bf 4931 3a64 46e4 ffbf
00000670: 5108 a244 2bb6 0bc0 1f67 ee51 bf49 0bc0
00000680: ffd9 091b 9103 0ac0 fe05 62ca db70 07c0
00000690: 2259 45af 9c8e fdbf cc98 05bd eae2 f3bf
000006a0: c609 d57e a72b 7e3f b325 6acf 36fc db3f
000006b0: 30d4 80fb bf25 e03f deaa 1a50 e3a1 f63f
000006c0: d0ee 5257 5416 ef3f 95f1 3a69 6b1d d93f
000006d0: d4cc 5aa7 3df6 bc3f 2cfa 3a56 7885 dcbf
000006e0: 4c17 6e87 2121 fbbf bd90 1c80 060c fbbf
000006f0: 119a a167 024a 00c0 5994 06fb 53a3 03c0
00000700: 7a7a 3758 f9dc 01c0 01c3 89a9 d46f 0340
00000710: 2f69 ee14 bbff 0440 7bc3 3fda d2e1 0840
00000720: 86f0 d2c8 ec4c 0540 1f9d 10a7 756b 0140
00000730: e651 bf7a 28bd f63f a789 a5e7 9178 f43f
00000740: 6bbe 7021 21c9 ec3f 9223 be76 a690 ed3f
00000750: 00d9 9db4 0212 b23f f5d5 1612 cc47 ee3f
00000760: f543 47ac 2da4 e93f 8b3d 4227 24b6 ef3f
00000770: 5a4d 7c13 2f15 f23f b998 35de 8c93 fe3f
00000780: 9831 a1e3 4c90 0540 11a7 77d4 b616 0b40
00000790: 9d02 5801 288d 1240 7e52 205a 653d 1040
000007a0: 504a 9813 36bd 0e40 1020 5db1 c9f6 0640
000007b0: 1596 19c6 451f ff3f aee8 5f5a 782a f03f
000007c0: 26fc a3b7 333b e13f 182b ffa6 6c98 bcbf
000007d0: e51a 361c fe90 e33f 728c ce99 8318 d23f
000007e0: 6a86 5fcc 0c6f dc3f e1df 2a8e 3e0d e83f
000007f0: 400c 7021 d054 f03f 8715 f6d9 0b21 0c40

sampling_frac f8 []
0.06999999999999999
00000000: eb51 b81e 85eb b13f
