figs/grid_search_recon/skmodel/sv-ideal-p=2/recon-cs_seed=20-sf=0.070-skmodel-sv-ideal-n=20-p=2-seed=4-12-15.npz (npz, 251153 bytes, 2 tensors)

recon f8 [12, 12, 15, 15]
3.0178057851345406 2.4883585222119278 2.026424371446358 1.8171740904527893 1.4724312353134958 -0.10892184491684599 -0.6056489822614475 -1.684985918472482
-1.5874937918685506 -1.4372653540457443 -0.7320192541136497 -0.6499229321726143 -0.07250103190541195 0.08004665667671333 1.1797626762909557 3.10951673139274
3.7405012941512563 3.451212840000725 2.762079558610111 2.3928461822142153 2.117141512071434 -0.018853758728421134 -0.9796522930583111 -2.172748192410255
-1.5202917276923287 -2.22984146606066 -1.0483429329397886 -1.4203485599697006 -0.6086830666855773 1.0561662486587802 3.9503761150032486 4.233893113704202
4.321006438681794 3.060927975435824 3.316144283934297 1.577407426856441 0.35869325354211634 -0.8998189115575987 -1.8399283218862192 -1.9500932690803496
-2.2968612847874113 -0.8594157901926798 -0.6972455034743025 -0.009260696674512915 0.8361858459835835 5.425257849229429 6.383528245935213 4.648706478703608
3.9840117901082435 3.5077113439921215 2.288599543277966 0.8409594596374557 -0.2609978849370768 -1.263879612504331 -1.6368611860445617 -2.304348705814797
-1.3142655052938323 -0.6010022550265997 -0.717018450034041 0.33132427831881717 5.8779949321292895 6.018779632443368 5.070776278610481 4.273334939894557
3.9805163026591615 2.2228415420027057 1.2014870800451223 0.006555521276058081 -1.206220453915527 -1.659781710279804 -2.5701648683705876 -1.0328726948768459
-3.353467155133473 -1.498197074967853 -0.5718922629099755 4.522506730865102 4.806994816392713 4.707903525659722 2.9871944025971318 4.680808670820541
2.164213880234778 1.04679689668016 -0.3856264365647136 -0.6210550551577486 -2.266921500959297 -2.629016930731267 -2.3242912464132477 -2.0821930934773056
-2.8279095391543434 -0.9899434026108351 4.186388004674191 4.980759742919136 4.072433868140972 3.7723863767007084 3.632783524696787 1.5863303241220361
0.9576829597452807 -0.13416695461589997 -2.097834892315526 -1.8765254115820205 -3.595957869567523 -2.3607826953606086 -2.6261076988491676 -2.6400026820657474
-4.118760436488368 3.3501938136759457 3.6404247157757026 4.1073142553078394 2.499906360534842 3.5607186158918522 0.8326016921763064 1.1348627466012717
-0.494693507795222 -2.1381088049126786 -1.9661961940410106 -3.38020028319745 -3.6707639234657474 -3.8173846563199194 -4.879388764945071 -3.1985288040206585
0.47737943221769724 1.6928863247404233 1.6340449102989743 2.166817625006833 2.100928635162413 1.659269752824076 0.40160051123687757 -0.8089680641178506
-1.9549920337034679 -2.9179623230758867 -4.460630213493611 -3.9109841989690546 -4.901838165001036 -5.514765011795523 -5.113384274529914 0.6426949271128974
1.095209646904101 1.8390391980457719 0.8418044570841154 2.5694145869642395 0.7465524766610852 0.6954139433639631 -1.666309670347544 -2.363139423366902
-3.2864002008985143 -5.1005167309609645 -5.367629650281441 -5.777743725824652 -6.099972418006465 -5.243650319958814 -0.5442536940691503 1.8157060067983262
0.7581860886505459 1.6440036555189514 1.3356082815728076 0.7062941332776165 0.49204727536199144 -0.7960877800469915 -2.069824661999494 -4.329851705759738
-4.858949076137996 -4.808284231350781 -6.121694660998654 -6.491858390194402 -5.493094085349869 -1.5681451681246268 0.00566723172334046 1.001360585749984
0.3474027082145735 1.1484898583128778 1.6238608335773377 0.4281644629653659 -0.5060721878637772 -1.8420269424311455 -2.8415150141654477 -5.117097101566907
-4.643204407126955 -5.9180224885584645 -5.760705408592968 -5.3438216537120375 -1.65354214262483 -1.0421339130886642 -0.12333538341434871 0.6670957330051253
1.0038263813523334 1.2928378323862997 1.2928958862002142 -0.28217629690536034 -2.033048376118183 -3.0507591964220264 -4.1305090148750025 -4.862442629669327
-4.363961777605433 -5.201543216836982 -3.8352442492762275 -1.3650545193083925 -0.8704601566193951 -0.7372201216732567 0.8082955103249663 -0.18505671161101858
0.8214824202879407 0.6922525767596511 0.09618188053957552 -2.030481400443249 -2.9261421220725836 -3.947688562308759 -3.3759320902865677 -4.389882592973364
-3.960569993622497 -3.8324695549170813 -1.888924836951332 -1.4155725981507412 -0.1834795003571932 0.439221078091077 -0.06272782460970507 0.30179806802743386
0.9699172062991732 0.3782344988103054 -0.31975943882199226 -1.0591225754991915 -1.3206405819312272 -2.3821351594007365 -2.5776386972715573 -3.5572927671525876
-3.435635531858621 3.0158213683797643 4.224928135127979 3.297665810703037 3.7316431489365143 2.421786872741129 1.976542910354611 0.5994209790607594
0.7521468053341277 -0.11209704272828946 0.24162470794076452 0.15363928256265313 0.49696979205203395 1.8811012528310962 2.0481869046994654 2.071403407515849
4.274108825494714 3.568584412837911 4.064160770980411 3.8796252857047815 4.075848687970814 2.896243991461085 2.2600365411002503 0.9071552960130346
0.032959547692930746 -0.17539770610482175 0.10712347185802717 0.3817776518663617 0.3918135985268876 1.817992365591319 0.9705475857950374 3.9524035229759304
00000000: dea8 065c 7724 0840 26fc 4c83 28e8 0340
00000010: 8b6f 19fb 1d36 0040 e621 9a23 2513 fd3f
00000020: 4b7c 140e 148f f73f e9e2 bc51 4de2 bbbf
00000030: 2e65 75f9 7961 e3bf 13f5 60cb b3f5 fabf
00000040: f4da eae3 5f66 f9bf 2ace b4f4 09ff f6bf
00000050: eabb 8ea4 b36c e7bf fc41 532d 2bcc e4bf
00000060: 5bc2 f578 6d8f b2bf c3a3 940c f07d b43f
00000070: 9f60 fbd3 4ee0 f23f b592 dd4e 4ae0 0840
00000080: dc33 48f1 8bec 0d40 08b5 3a7a 159c 0b40
00000090: c071 e92a bd18 0640 83bf 078a 8c24 0340
000000a0: 6fce 9ae3 e7ef 0040 aaba 9454 664e 93bf
000000b0: 1c61 04c4 4f59 efbf e4c2 e6cd c961 01c0
000000c0: 1316 2d6b 1d53 f8bf 3af6 5f1f b7d6 01c0
000000d0: 7d81 3f3d 03c6 f0bf 54d9 5f69 bfb9 f6bf
000000e0: b164 21e9 547a e3bf 310e 9294 0ee6 f03f
000000f0: 39b5 e6ca 5e9a 0f40 047a 28ad 81ef 1040
00000100: 62c6 6fe9 b548 1140 5044 6fce c77c 0840
00000110: 6a85 82a7 7687 0a40 090e ed91 0f3d f93f
00000120: 2897 508c d4f4 d63f 5eca ae07 51cb ecbf
00000130: 7fc4 17ae 5870 fdbf e798 edff 9433 ffbf
00000140: 40e2 2ccf f85f 02c0 d264 118b 5580 ebbf
00000150: dd90 56cd d54f e6bf c777 d7aa 45f7 82bf
00000160: 2b15 bcd1 08c2 ea3f 153b 2bcb 76b3 1540
00000170: 3389 e5a0 bb88 1940 f7f0 da82 4698 1240
00000180: 8625 cb92 41df 0f40 f208 12f7 ca0f 0c40
00000190: bc27 0047 0d4f 0240 56f3 0cd0 23e9 ea3f
000001a0: 8b50 0879 30b4 d0bf 9898 1cd4 d938 f4bf
000001b0: 5c73 e25a 9530 fabf 926f d05f 4e6f 02c0
000001c0: 80f7 3744 3b07 f5bf fc2a c514 693b e3bf
000001d0: 4bcb 30ad d0f1 e6bf fe01 f0be 6a34 d53f
000001e0: 3732 7e1a 1183 1740 5fb3 ccf7 3a13 1840
000001f0: c0db a793 7948 1440 14ce 4e1d e517 1140
00000200: 70ed 68ee 18d8 0f40 12bc 7825 61c8 0140
00000210: eec3 3584 4a39 f33f 888a d257 f6d9 7a3f
00000220: de55 95d1 ad4c f3bf 4a69 4244 778e fabf
00000230: abd6 3799 b28f 04c0 cbd6 d684 a586 f0bf
00000240: 4111 7c96 e6d3 0ac0 5632 ff7e 9df8 f7bf
00000250: b714 c100 f14c e2bf 9e05 2401 0c17 1240
00000260: fcca 61d9 5c3a 1340 f6b9 6da9 e4d4 1240
00000270: 6d97 cf2d c6e5 0740 a207 80e8 25b9 1240
00000280: d542 e95d 4f50 0140 b0ba 4c1a aebf f03f
00000290: 822e 6181 1aae d8bf 4f60 ddd9 aedf e3bf
000002a0: 5cc1 69bd a722 02c0 fef7 5007 3a08 05c0
000002b0: b4ca 4d02 2698 02c0 6b89 43da 54a8 00c0
000002c0: f6b6 5509 8f9f 06c0 0c58 63c9 9dad efbf
000002d0: f6c4 417f dcbe 1040 c348 3448 4cec 1340
000002e0: 2b27 9b1a 2c4a 1040 9f71 9ee8 d82d 0e40
000002f0: 9729 00cf f00f 0d40 981d ece7 9b61 f93f
00000300: e05b 01bc 56a5 ee3f 0bbd 23fd 612c c1bf
00000310: 1239 f7a8 5dc8 00c0 36b9 8d82 3f06 febf
00000320: d6b0 3c8f 85c4 0cc0 d84a ac09 e2e2 02c0
00000330: dfa5 d2c0 4402 05c0 ed98 e6b9 b91e 05c0
00000340: db1a fb55 9c79 10c0 65ff 076a 32cd 0a40
00000350: 3374 4efe 961f 0d40 5ec4 c3c9 e36d 1040
00000360: ec79 ece7 ceff 0340 731c ac0a 5a7c 0c40
00000370: 54ba cf4d aca4 ea3f 819e e1d6 6528 f23f
00000380: 3589 61f5 0ea9 dfbf e61d 03ca d81a 01c0
00000390: 1fd0 ee23 8a75 ffbf 981a 3272 a60a 0bc0
000003a0: ecf9 d479 b95d 0dc0 872b 79f7 008a 0ec0
000003b0: baa2 077d 7e84 13c0 6aa9 0445 9696 09c0
000003c0: a11d 4a76 628d de3f 2bb1 89f8 0f16 fb3f
000003d0: 9cde 9e46 0c25 fa3f ea67 9e7a a455 0140
000003e0: 1405 1aac b3ce 0040 4cf1 b970 5e8c fa3f
000003f0: ea6e 74a1 d2b3 d93f 8fa0 5cfe 10e3 e9bf
00000400: 9a26 0bba a547 ffbf a791 64a1 fc57 07c0
00000410: ab04 5a72 afd7 11c0 72f5 6d15 b249 0fc0
00000420: 3ddb c376 7b9b 13c0 b625 2b8f 1e0f 16c0
00000430: 59f2 db01 1b74 14c0 f228 a8f3 f490 e43f
00000440: 1a78 fb8c fa85 f13f d2b2 ba5d b46c fd3f
00000450: bab4 99e6 0ff0 ea3f 9903 273c 298e 0440
00000460: b03a 0005 c2e3 e73f 9fc7 fdbd d440 e63f
00000470: 7d6b 3254 34a9 fabf 3efe 59a4 b5e7 02c0
00000480: 646a 4330 8c4a 0ac0 73b6 a0db ed66 14c0
00000490: adfe 33e8 7378 15c0 2358 ecd9 681c 17c0
000004a0: f75b 672b 5f66 18c0 3c88 2f78 7ff9 14c0
000004b0: 5222 18b9 866a e1bf d197 e5bd 210d fd3f
000004c0: f928 e178 0f43 e83f 6355 efc6 d64d fa3f
000004d0: 95f3 19ca a65e f53f c216 7927 f699 e63f
000004e0: 9200 f1da b37d df3f 9981 8114 8d79 e9bf
000004f0: c8ef 7d3b 008f 00c0 5212 43a5 c451 11c0
00000500: b8c4 bb58 906f 13c0 ae18 8edc ae3b 13c0
00000510: 1d59 7486 9d7c 18c0 b897 d0b9 a9f7 19c0
00000520: 02b7 e9a7 edf8 15c0 719c 4763 1f17 f9bf
00000530: 59d2 91ee 8536 773f 1acb 74ad 9205 f03f
00000540: f9b2 9491 d83b d63f 1edd d3e6 3660 f23f
00000550: f984 577f 55fb f93f bab8 6feb 0b67 db3f
00000560: 6d48 094d be31 e0bf 797b 413e f178 fdbf
00000570: f677 4739 6cbb 06c0 babe 764d e877 14c0
00000580: 6c03 152d a492 12c0 9167 5516 0eac 17c0
00000590: 3f30 cf5b f60a 17c0 3c66 99c8 1260 15c0
000005a0: 441a 129b e874 fabf 094b 2c9c 94ac f0bf
000005b0: a249 345e e892 bfbf 74dc 9126 d958 e53f
000005c0: 2253 6c40 ac0f f03f 4b17 12b9 76af f43f
000005d0: 44ce c598 b3af f43f dd8d ba2b 2d0f d2bf
000005e0: 74e8 f4dd ae43 00c0 acd4 0470 f467 08c0
000005f0: a0e2 ba27 a485 10c0 8b6c 2429 2473 13c0
00000600: c93c 6f65 b274 11c0 912e 5458 61ce 14c0
00000610: fc81 7689 94ae 0ec0 18fc 5a68 43d7 f5bf
00000620: c7d7 2442 cfda ebbf dd45 11a7 4e97 e7bf
00000630: f62d cb8b 8edd e93f 0527 2336 f0af c7bf
00000640: 2e05 2c80 9549 ea3f 4d24 38e0 ee26 e63f
00000650: 1ea0 622f 609f b83f fe51 5008 6d3e 00c0
00000660: 90ff 6d33 bd68 07c0 6846 afbd dd94 0fc0
00000670: bf61 0aaf e801 0bc0 af66 e861 3d8f 11c0
00000680: 3b05 2152 3faf 0fc0 bd46 4acc e5a8 0ec0
00000690: feed f43f 0939 febf 2bbd e273 2fa6 f6bf
000006a0: e1a1 c29a 417c c7bf c85c 87b9 321c dc3f
000006b0: d976 3f43 ee0e b0bf bb1f 0bd8 a850 d33f
000006c0: 8a3e 1ccf 8f09 ef3f 57fd a678 fe34 d83f
000006d0: 2dfa 144b f076 d4bf cf96 8383 2af2 f0bf
000006e0: f6a3 d204 5821 f5bf 2939 e2e0 9c0e 03c0
000006f0: aa7b 8d09 019f 04c0 ddbd 09e9 5575 0cc0
00000700: 7d77 527b 2e7c 0bc0 0727 1ef4 6620 0840
00000710: bd4c a18f 53e6 1040 dfda d09c 9e61 0a40
00000720: c332 28b9 67da 0d40 2e71 c2cb d15f 0340
00000730: c6d1 7175 eb9f ff3f bc45 b3e7 742e e33f
00000740: 3d6e 562d 9611 e83f b00e 7f4c 64b2 bcbf
00000750: e06c 41f5 8eed ce3f 5866 feb6 73aa c33f
00000760: 74a8 fd62 5ace df3f aafc 95a0 fd18 fe3f
00000770: c53c ded0 af62 0040 09d4 20f3 3b92 0040
00000780: d82d e4fb af18 1140 c83b 11fc 758c 0c40
00000790: 2430 745c b341 1040 8cb1 56fb 7809 0f40
000007a0: db1d 4947 ab4d 1040 b27e 44f8 812b 0740
000007b0: 0453 be09 8e14 0240 259d 188b 6a07 ed3f
000007c0: e03a dde6 12e0 a03f 98be c199 6e73 c6bf
000007d0: d0a2 43a0 716c bb3f 4605 4788 0b6f d83f
000007e0: 8044 f357 7913 d93f 6f7a a929 7f16 fd3f
000007f0: 3272 86cf b90e ef3f e636 febc 859e 0f40

sampling_frac f8 []
0.06999999999999999
00000000: eb51 b81e 85eb b13f
