figs/grid_search_recon/skmodel/sv-ideal-p=2/recon-cs_seed=24-sf=0.030-skmodel-sv-ideal-n=24-p=2-seed=7-12-15.npz (npz, 251126 bytes, 2 tensors)

recon f8 [12, 12, 15, 15]
000000 75 2e c7 dc 13 68 01 40 d0 cc 5c 7e 19 18 14 40
       2.1758191345486986 5.023534750379625
000010 dd c8 d8 50 51 96 ff 3f 18 d6 47 26 d6 dc f5 3f
       1.9741986425474842 1.366415166410098
000020 84 ea 79 e7 cd ca fc 3f e2 e8 fa 6a 9c 8f f6 3f
       1.7995127718010346 1.4100612811003477
000030 78 0e 8a d4 b5 b4 ec 3f 5d 10 4c 57 40 29 e6 3f
       0.8970593596608998 0.6925355629941908
000040 cf 5d fe 56 37 22 c6 bf 79 01 1f 9a 22 4a 4f bf
       -0.17291919467673586 -0.0009548825221302035
000050 1c 06 16 4a a8 31 9e 3f 32 76 33 98 f9 6c cc 3f
       0.029486302873470746 0.2220756524247221
000060 7f 06 0b 6c 17 e2 03 40 3b c7 b2 14 00 05 e9 3f
       2.48539623650214 0.7818603901161859
000070 da 7e c3 c0 dd d4 0b 40 b5 8b e5 e8 a2 46 11 40
       3.4789385852489945 4.318980826387748
000080 00 df 3e 44 4f 45 0d 40 43 ce 2c ab cf c3 0f 40
       3.6588425952612624 3.970610940270292
000090 86 ec 5a a2 0f 23 07 40 27 20 43 18 39 79 f1 3f
       2.8921196636197832 1.0920954654448083
0000a0 5f ea 30 55 67 e2 f9 3f ed 75 57 cd 2f 38 e5 3f
       1.6177743270660796 0.6631087313250511
0000b0 b6 a4 bf 2b 57 bd ec bf 6b 87 1a 07 69 2d d9 3f
       -0.8981128553833944 0.39339662259782554
0000c0 97 86 79 0d 01 9c f9 bf a2 7d e8 81 3d 50 0b c0
       -1.6005869413715226 -3.41417981615787
0000d0 41 51 95 49 2b 48 f7 bf ca b4 92 40 bd f2 e1 3f
       -1.4551194071146514 0.5608812581246181
0000e0 59 18 e6 50 c0 e4 05 40 22 70 1e bb cb f8 05 40
       2.7366949386805968 2.7464823359168955
0000f0 7e 05 34 67 60 6c 0f 40 8a 14 e5 55 1c 8c 17 40
       3.927918249392575 5.886826841456363
000100 35 b8 08 4f 35 fb 08 40 f2 8f a4 4e f9 94 11 40
       3.122660272077179 4.3954822814884995
000110 ad 5d e3 f4 3b 0d 13 40 8c 64 43 80 72 0e 06 40
       4.762924028756442 2.7570543308798445
000120 f5 6a 02 3c 6b cd e7 3f 4e 05 75 46 bb e7 eb 3f
       0.7438255474147285 0.8720375419726822
000130 f3 e7 e9 86 3c 21 f8 bf 75 b2 96 62 aa b7 fa bf
       -1.5081143636766654 -1.6698402262801697
000140 9b 72 c2 b2 9f 77 f6 bf 9e d9 61 ac a5 85 d7 bf
       -1.4042050345225678 -0.36753217539026106
000150 ad cc e1 1c 09 f0 f0 3f 81 c8 a1 9d b8 dd f7 3f
       1.0586024406627914 1.4916311414240513
000160 79 31 72 90 78 7f 06 40 a5 29 ab 70 0d 04 11 40
       2.8122416767930045 4.253957519957486
000170 d1 4e 7d 77 d3 40 16 40 5c f8 35 d1 ce ed 10 40
       5.563306681655107 4.232234257620885
000180 1e a2 bf e4 33 b1 0f 40 f2 95 ba ab 9f aa 0c 40
       3.9615247603399117 3.5833123604122585
000190 fc d7 cf 8c 8a e4 0e 40 cc 97 42 9c 7f bf 02 40
       3.861592388241659 2.3435051162550504
0001a0 92 18 63 ae a5 4b e6 3f d8 64 84 8c c4 3d e9 3f
       0.6967342763898776 0.7887900108791213
0001b0 bb 34 a0 ec 84 e5 05 c0 f9 26 7a e2 d1 b1 08 c0
       -2.7370699392691598 -3.0868261045005707
0001c0 0d 7c 76 1e 3d eb e9 bf 98 12 1c 1d a9 ca e2 bf
       -0.8099656672455936 -0.5872388428257009
0001d0 79 ba 4a b2 f0 25 fe 3f 98 dc 10 33 bc 00 0d 40
       1.884262749150052 3.625358962013319
0001e0 88 57 02 08 e9 da 10 40 9f 93 27 a9 33 68 10 40
       4.213779568808498 4.101759570160453
0001f0 56 22 3c 7b 9c 6b 0f 40 d4 d0 71 82 2c 86 11 40
       3.9275445583082655 4.38102916545559
000200 c5 b8 02 20 49 6e 10 40 74 37 44 43 d5 47 0d 40
       4.107700824895976 3.660074735183054
000210 69 8b e7 eb 98 5b 03 40 27 a2 d8 c8 80 7f fd 3f
       2.4197252683674617 1.8436286778979907
000220 f0 07 ae 5d c6 bf e3 3f c9 e3 59 e1 6d a6 ca bf
       0.6171600179370653 -0.20820401671860925
000230 10 67 25 42 7e 9a 00 c0 b0 1d e8 80 72 56 01 c0
       -2.0754361312546123 -2.1672105856739208
000240 9c 0c e7 bd c8 94 cd bf 20 54 8c 02 6c ee c0 3f
       -0.2311030318506696 0.13227605938360032
000250 e1 10 b3 f6 f3 83 ed 3f c2 ed 56 7d 16 ff ee 3f
       0.9223575418805262 0.968638653568114
000260 f1 12 8e 12 8e 3d 05 40 27 17 b4 bc 69 78 00 40
       2.6550561380012074 2.058795427556919
000270 65 d1 b6 46 0d 5e 08 40 ea e0 98 25 c4 83 10 40
       3.045923759893571 4.128677928405731
000280 bd 8d 4d 47 89 4a 12 40 f8 70 8a 83 a2 85 01 40
       4.572789301022053 2.1902513767837455
000290 a7 a5 64 74 1d fd fd 3f 8b 2c b2 14 6a 5c e4 3f
       1.8742956682784582 0.636281052038059
0002a0 cc 9d 98 40 c2 e2 fd bf e8 1c 0b a9 4d af 00 c0
       -1.8678610347068227 -2.085597344066276
0002b0 ef 3d 6d 9f 78 99 fc bf 7f b9 ff 05 ea 5e ca 3f
       -1.7874685504538055 0.20602155011097165
0002c0 19 a8 65 3a da f9 ff bf d4 a3 72 93 ba 71 d3 bf
       -1.9984991341721126 -0.3038164558334391
0002d0 4b 98 96 cd a6 cc 04 40 07 87 25 85 37 42 03 40
       2.5999275266249575 2.4073324586942166
0002e0 1d 5a af 84 94 e5 0c 40 34 21 dc 87 6c ba 06 40
       3.61209968242771 2.841027318387342
0002f0 14 0c 05 86 7f 1a 18 40 f7 9f 46 6d 08 53 13 40
       6.025877088602119 4.831086833415603
000300 a7 8f 0f 1c c6 1c 01 40 2c 5d f4 ee 24 19 f1 3f
       2.1390497390984424 1.0686387380754452
000310 74 ea 1e 24 0f 66 d1 3f 99 7a 91 e8 ee 8b f0 bf
       0.27185419585627035 -1.0341633877466505
000320 58 07 db d3 4d 91 12 c0 34 f4 11 f3 ce b4 0c c0
       -4.6418984510836125 -3.5882853498319722
000330 81 92 a3 5f 47 00 07 c0 60 f4 5f dc 80 cb 05 c0
       -2.8751361343186663 -2.7243668762953774
000340 63 f6 de 71 ae 9d f9 bf 2e 50 ae 72 0e 90 ef 3f
       -1.600996441658389 0.9863350143300573
000350 fb 90 29 41 5b 97 02 40 ea e4 be 88 2e 37 02 40
       2.323904522973064 2.276944225621823
000360 53 37 17 c8 f0 2a 0e 40 89 fa 7e 0a 78 bd 11 40
       3.770967066963672 4.435028232574617
000370 f1 fa dd 77 0e c0 04 40 57 18 a1 68 f8 22 fd 3f
       2.5937775959604257 1.8210376822549017
000380 c1 79 ee 50 b0 0f e5 3f 09 9f ac 5b 61 49 eb bf
       0.658165128774094 -0.852707556773539
000390 7f b3 59 46 32 d7 fd bf 3a fb 3a a0 4c ba 0e c0
       -1.8650381801664648 -3.8409664648055726
0003a0 f3 6f 38 be b5 3b 0a c0 c1 8d 81 3f ca 78 03 c0
       -3.279155241105394 -2.4339795075809154
0003b0 c7 02 07 d9 96 e9 00 c0 55 29 9e ea bb fc e7 bf
       -2.114057250524954 -0.7496013243083249
0003c0 d3 e7 db 9b db 09 f6 3f 37 20 2d 72 70 ef 09 40
       1.3774067009203363 3.241913692476398
0003d0 0b 61 bf 6d d7 33 0d 40 1b 67 76 3a 0a 89 0c 40
       3.650313241389204 3.5669140403159765
0003e0 a9 4d 58 c8 59 6f 16 40 a9 61 04 e6 0a d0 00 40
       5.608740930928811 2.1015832872473834
0003f0 b3 eb 65 39 1d 64 d2 3f fd 1e f0 b9 0c 2d 02 c0
       0.28736048321996605 -2.2719969297794465
000400 47 6b b0 82 3e 54 06 c0 94 1e 1d e2 b7 7e 0c c0
       -2.791134854325182 -3.561874166978507
000410 5c c8 80 aa ab 2c 17 c0 cc d3 b7 47 f3 a6 09 c0
       -5.793623603925962 -3.2065187075590753
000420 da 6f 0a f5 e9 49 01 c0 43 cf 04 dd 7a 64 f2 bf
       -2.161090769177446 -1.1495312341257466
000430 9d 6e 4e 65 05 d5 f7 bf 53 bc 22 ff 30 fa dc 3f
       -1.4895070988922392 0.45277047076792093
000440 62 77 2f 4f 8c bb fd 3f c3 ba 12 5b 84 29 9c 3f
       1.8582881062679566 0.02750212484232396
000450 d2 b6 57 25 42 ee 00 40 f5 35 8c ef 74 33 03 40
       2.1163371007340652 2.4001253809608394
000460 9e 97 5e 6f 65 68 ea 3f a1 23 50 ec 0f e7 dd bf
       0.8252436804948393 -0.46722791745610875
000470 94 05 02 96 64 28 03 c0 a2 ba 28 11 3d ed 04 c0
       -2.3947231025092126 -2.6158391323618426
000480 58 24 ff 9b 5b 55 0e c0 f2 c7 29 0c b9 db 11 c0
       -3.791678637241187 -4.464573087740051
000490 63 b0 49 89 5b b2 12 c0 8e 7a 0d fe 55 ae 01 c0
       -4.67417730819952 -2.2101249549735433
0004a0 67 90 1c 2a 46 16 09 c0 c1 17 8e 9c 0b 55 0a c0
       -3.135876015660006 -3.2915260535109785
0004b0 3f 0e 56 3f 10 89 ee bf 83 43 07 3a af 17 eb 3f
       -0.9542313801798129 0.8466411717764547
0004c0 fd 71 4b d2 73 a9 c4 3f 10 01 e4 0b 92 f3 f6 3f
       0.16142127769752782 1.4344654526212857
0004d0 77 88 f6 a8 88 98 fe 3f 13 b8 56 70 6e af e3 3f
       1.9122397041433297 0.6151649660221231
0004e0 b6 a0 ab 2b cc dc f4 bf b3 91 49 0d 0f 64 05 c0
       -1.3039056497455426 -2.6738568342281837
0004f0 63 fa 59 21 4e 64 f8 bf af 11 cb 15 b4 ca 12 c0
       -1.5244885733406128 -4.6979525952523735
000500 ea af c9 60 a2 f8 10 c0 7a b4 88 36 7b 43 11 c0
       -4.242806923208244 -4.315899707883654
000510 fb d1 a9 5d ee 84 10 c0 b8 d2 9e 37 ad 53 13 c0
       -4.1298155436420485 -4.831715458935541
000520 18 77 18 86 ab 84 0d c0 1e 65 fe 88 33 41 fc bf
       -3.6897802807060422 -1.7659182883565516
000530 1e fc 11 4b a1 21 f8 bf 17 51 39 75 21 0d d3 bf
       -1.5082104618484276 -0.29767643401761873
000540 0d f6 64 df 13 74 00 40 53 4f 99 4d a1 5b ff 3f
       2.0566785290418523 1.9598706275182465
000550 cd 31 5f ce 51 2a 02 40 87 f6 e9 02 87 40 e2 3f
       2.2706638453293864 0.5703768784439526
000560 32 e7 f3 78 a7 94 e2 bf 87 68 1c 03 e4 7c 03 c0
       -0.5806462633474665 -2.4359817736668137
000570 2a 13 3e 5d ef f0 05 c0 a8 38 bc 8b 10 0f 0e c0
       -2.742644051033854 -3.757355777436789
000580 e9 8a c8 5f ff b7 0a c0 af d4 b9 ff f2 f3 0d c0
       -3.3398425562930822 -3.744115827425581
000590 a0 16 6b c2 e2 65 15 c0 a1 6a d2 a2 d8 b6 15 c0
       -5.349497831140667 -5.428560775845342
0005a0 b9 2c bb 09 3f 70 0c c0 56 fe 07 12 25 76 fe bf
       -3.5548077354665932 -1.9038439468712531
0005b0 0f d6 30 a8 d2 8d f8 bf ef c0 99 cd d3 89 fc 3f
       -1.5346247262908752 1.783649256827683
0005c0 59 58 11 55 b5 dd 03 40 ed 8b df f0 1e 42 f3 3f
       2.483256020156699 1.2036427888021948
0005d0 98 1c 75 57 b0 82 a4 3f 2e 39 41 d4 73 19 c0 bf
       0.040059576679191966 -0.12577674736025685
0005e0 d1 ed 9c 5a 55 33 03 c0 0c c2 41 07 d0 ab 0d c0
       -2.400065143503277 -3.7088928763334987
0005f0 3f 1f 27 8d 40 87 09 c0 83 9b 1f 85 e8 d7 0d c0
       -3.191041090732966 -3.7304239654799303
000600 f1 be 9f 1d 32 01 18 c0 29 73 67 b9 7f c1 16 c0
       -6.001167738795389 -5.688963791789129
000610 d5 8f a4 32 57 5c 06 c0 e4 58 04 5d cd bb 0b c0
       -2.7950881916494645 -3.466700293250243
000620 93 9b 87 00 d7 8f 0b c0 d4 70 b0 1d f9 e1 d1 3f
       -3.4452343026527585 0.2794173040326886
000630 c9 07 1c f4 39 50 c3 3f ef 47 47 3e df 9d e5 3f
       0.15088581485184552 0.675521489751416
000640 19 3f ee ef 54 e8 fb 3f 06 a2 f6 c8 75 c4 b9 3f
       1.744221627453902 0.10065399319012877
000650 91 47 fa a3 d7 c7 e7 bf e1 ed 98 4a c2 8f f1 bf
       -0.7431448176086964 -1.0975974000892779
000660 09 6b f4 49 91 9f e2 bf c5 97 17 61 ab 8c 04 c0
       -0.5819784588269111 -2.568686255009171
000670 6f c3 ac d5 37 07 0d c0 5c 37 35 57 c1 69 10 c0
       -3.628524464926549 -4.103276598570883
000680 9f 47 7f 03 85 22 10 c0 2b 3c d0 e1 81 45 0a c0
       -4.033710531848469 -3.283939136664704
000690 e8 62 c0 ab fc 9b 0b c0 bd a1 ca 6e 0b 23 06 c0
       -3.4511655252539306 -2.767111650046188
0006a0 70 0c 44 5b e9 f1 f8 bf 03 6d 09 2a 29 c4 d7 3f
       -1.559060436732377 0.37134770493658226
0006b0 e2 18 ef aa 9a 15 d1 3f 4b ec 73 b3 39 d0 c5 bf
       0.26694361393709987 -0.17041703474373757
0006c0 ec 18 86 2c ca 08 e7 3f 7a d4 f7 46 83 3a b7 3f
       0.7198229665380302 0.09073658449763569
0006d0 65 23 42 e9 f2 f6 f1 bf 7b 47 02 b8 7b 88 00 c0
       -1.1227902518896482 -2.066642224855
0006e0 c8 4d 32 57 70 e0 b4 3f 64 25 bc 31 71 34 03 c0
       0.08154966477223191 -2.400606525949728
0006f0 af 1a 49 04 26 5a 01 c0 37 78 26 b1 54 d5 09 c0
       -2.1690178236779825 -3.2291654434075343
000700 86 4b 76 88 72 67 10 c0 b9 81 69 94 0f d0 10 40
       -4.10102284643188 4.203184431972141
000710 25 60 12 0a 0c 0e 11 40 11 91 61 d7 3b 44 0b 40
       4.263717801448398 3.408317263283728
000720 78 8c 38 30 f1 52 08 40 51 9f 61 fe b0 48 0c 40
       3.0404990927941604 3.5354938386480304
000730 19 1f 5c ca f5 5e 0a 40 1a e3 15 a9 dd 5c f7 3f
       3.2963672456134074 1.4601723294164857
000740 f8 f8 c9 30 1c 08 f6 3f d6 5e cd f7 c4 8c 05 40
       1.376980009633881 2.6937350616025055
000750 72 13 1b 27 2e 2c 0b 40 c2 a1 28 41 04 da f8 3f
       3.3965724043977668 1.5532267136824065
000760 36 f4 9f 99 f7 c4 04 40 77 66 c7 2d 5f 27 04 40
       2.5961753847064086 2.519224507949555
000770 87 a6 45 5b d0 6b 12 40 d1 ea 62 99 45 cd 13 40
       4.605287004591111 4.950460812246733
000780 3f da f8 ce 3d ba 16 40 94 65 27 af 8e 98 19 40
       5.681876405657532 6.398981797008123
000790 33 a1 a4 e0 2f 94 12 40 32 4e 40 07 39 b7 0d 40
       4.644713888214301 3.7144642416476694
0007a0 0b dc cb d6 ab 70 13 40 34 40 a4 7f db 29 13 40
       4.8600305139471045 4.790876383209298
0007b0 0b 6b a1 89 77 fd 04 40 e9 4c 69 a0 5c a9 f7 3f
       2.6237631561647325 1.47884810124088
0007c0 8a 6d c8 f3 68 da f2 3f 6b 69 94 60 1b fb 01 40
       1.1783227465410584 2.247610811738175
0007d0 35 22 0f d1 df d1 f6 3f f8 da 82 ef c2 e7 f4 3f
       1.4262388388034541 1.30658238944096
0007e0 53 99 2d 93 e5 99 fb 3f cb 88 5c 88 7c 83 0d 40
       1.7250724553246826 3.689202370952534
0007f0 58 14 91 eb 6f 5e 10 40 54 01 51 0c a2 7f 15 40
       4.092223816614101 5.374641601986088

sampling_frac f8 []
000000 b8 1e 85 eb 51 b8 9e 3f
       0.03
