figs/grid_search_recon/skmodel/sv-ideal-p=2/recon-cs_seed=20-sf=0.050-skmodel-sv-ideal-n=20-p=2-seed=1-12-15.npz (npz, 251292 bytes, 2 tensors)

recon f8 [12, 12, 15, 15]
0	0x40019d923f74f244	2.201939101940555
1	0x40089be4e0f1faf5	3.0761201452108886
2	0x3ffc5bb771392cff	1.772391741064723
3	0x3ff01e94eb03d2a8	1.0074662380476784
4	0x40010de5f2cdd7e9	2.13178624811825
5	0x3ff56b2ac61e5fb1	1.338663839245765
6	0xbfd4e42b733c049d	-0.32642637494434174
7	0xbff0f29342b30e11	-1.0592224698492638
8	0xbfe4a4dc67010a0c	-0.6451246272848166
9	0xbfe13ae5a6a36eaf	-0.5384395842224502
10	0xbff160ffc5d07f04	-1.0861814238668908
11	0xbff26bee2fd0063a	-1.151350199478101
12	0x3fe246f451a3f0c0	0.5711614222086823
13	0x3fe134f6d51cbdf9	0.5377153551434609
14	0x4007a3801048e0c7	2.9548341057053196
15	0x400b5de4b741d713	3.4208463971107306
16	0x40129da671a8960a	4.653955245890311
17	0x400cb0271c126b09	3.586012095748974
18	0x400e92b39106e3f2	3.8216315584399974
19	0x400eaafefb037073	3.8334941492485597
20	0x4000d3803e76a3f0	2.1032719497638865
21	0x3fdbca78d06045db	0.4342329058573264
22	0xbfd764cf9e6a86b2	-0.3655280158073807
23	0xbfec8e6f7668557f	-0.8923871338508177
24	0xbff4eeb70c051861	-1.3082800359275313
25	0xc0019afc73a782ef	-2.2006768260474625
26	0xbffb447fa6cda1bd	-1.7042233005287095
27	0xbff0aa5e9e6d2651	-1.0415941418199461
28	0x3fc4597a4908eef7	0.15898064199597403
29	0x4008a64f4c34b324	3.0812059358198827
30	0x40128655142a8036	4.6311839247646756
31	0x40166aee2e52653a	5.604424213198678
32	0x40134b56c376eca2	4.823573164113585
33	0x40153538bc91f40d	5.301974245460781
34	0x400f8956ba8777eb	3.942059952983063
35	0x400992576b77e1c6	3.196455802532202
36	0x3fe5644cd43bffb6	0.6684936661913443
37	0xbfdd62a51ad05e7f	-0.45914580935048116
38	0xbfe89fbfb073dffc	-0.7695005842533642
39	0xbfee0fd31f72e340	-0.9394317259057985
40	0xc00437a46b3b187e	-2.5271690728578156
41	0xbffb6523512c0889	-1.7121918841153578
42	0xbfd8b82094a1b40f	-0.38623823656854567
43	0x3ff48ad527894182	1.2838946861630522
44	0x4002ada9edd366ef	2.334796770109157
45	0x401cbbd635b531ef	7.183434333023327
46	0x401af92bb5ac9a18	6.7433308016393525
47	0x40171648dc58a27f	5.771762316617809
48	0x4016295a19a9e23f	5.540382767671473
49	0x4015c308806873a9	5.440462118506653
50	0x400995c31d83aea8	3.1981260591326937
51	0x3ff01317db0866d2	1.0046614223451127
52	0xbfc304dadbe67564	-0.14858566033664566
53	0xbffd7e06c6af5569	-1.8432681809548177
54	0xbff0d36e56aa65c6	-1.051618898904381
55	0xc004e367bdfa791f	-2.61103771610864
56	0xbffeefe74f59de3e	-1.9335702037477769
57	0x3fdbf2b7a9c3449f	0.4366892965163717
58	0x3fe28ac02601878f	0.5794373266510194
59	0x4002357b3f04150e	2.2761139796372225
60	0x401b26c9545539d7	6.787877385808733
61	0x40194a7a3ce29918	6.322731925325819
62	0x40160d99b7959810	5.513281696801656
63	0x4014e1b0c1232128	5.220400827187667
64	0x401954c72572db43	6.332790932784351
65	0x4004818832f0fd47	2.563248060206806
66	0x3ffeac8804e29c62	1.9171219054058146
67	0x3fd5d74224dcb579	0.3412633285505176
68	0xbffbcb4c81a1283b	-1.7371335090306406
69	0xbff381b7694b9be0	-1.2191690552806378
70	0xc004bf9c2b30ea2d	-2.593559586935291
71	0xbff5dd20f27183f4	-1.3664864988752443
72	0xc0062c59de198ee1	-2.771655783801052
73	0x3fb11034e2e62285	0.0666535428955602
74	0x3ff6cae68efbf8ee	1.4245362840006766
75	0x4013c6680e414eb3	4.943756315933274
76	0x40189758d022a1b3	6.14779973231673
77	0x4015061163c288b3	5.255925711391842
78	0x4013e18058a3b379	4.970216164580841
79	0x4016bfe2dce04532	5.687388850391743
80	0x400371e4f0d10e01	2.430612450961917
81	0x4001860bb40549d0	2.190452009593379
82	0x3fc45a783ffffa12	0.15901091694827635
83	0xbff3d2e636c795d4	-1.2389890804127974
84	0xbfed99af32c1ace2	-0.9250102988566165
85	0xbffeb4a2d5541f04	-1.9191006024502153
86	0xbff71765ec729fc5	-1.4432124363174677
87	0xbff57dc6f569a708	-1.3432073198732173
88	0xbfe7ded5f25b4330	-0.7459516271138451
89	0xbfe052bceeb9ad7d	-0.5100998556712707
90	0x4013def8f2fd76e8	4.967746540756458
91	0x401306d9ff578084	4.756690969196033
92	0x401283fb6c67370f	4.628888791846989
93	0x401007dbd80006c9	4.0076745748535325
94	0x4012a82ae4e59c2b	4.664226128114971
95	0x40014d8e2fb00087	2.1628688550554815
96	0x3ffc67d9c3a8d6b4	1.7753541605901946
97	0xbfc6c6079123fa30	-0.17791838252010583
98	0xbfeeed433ce5220a	-0.9664627255779703
99	0xbff12c7f57ed8dfa	-1.073363631695314
100	0xc0071aee76e0b132	-2.8881501471825226
101	0xbffba1ad8715d02f	-1.7269721295133527
102	0xbfede8e7659c46e6	-0.9346806511477694
103	0xc007d1427c9baabf	-2.977177594662265
104	0xbfe5668189800896	-0.6687629399823602
105	0x4003c5b4d65b9db4	2.4715363260945313
106	0x40107709a56c1f01	4.1162477347604645
107	0x4008421d9b1e738f	3.0322830313365965
108	0x400af998034b4747	3.37187197278482
109	0x400dccaadb7e2f8e	3.724935259617218
110	0x3ff33d6bc4be6357	1.2024953542042647
111	0x3ff887095a274061	1.5329679032911587
112	0xbfa6aa168cf65e21	-0.04426641913158514
113	0xbfc1e6278a7fea50	-0.13983625662497667
114	0xbff393c473c3044c	-1.2235760232872677
115	0xc009365f9d5a7498	-3.151549557993871
116	0xc0084181e64e9e2b	-3.0319860451452505
117	0xc0098ea3ed5c48c7	-3.194648603800576
118	0xc00e337f610bb9e6	-3.7751453000739614
119	0xc004e0cb67dce04e	-2.6097629656106056
120	0x3fd3662dfb749d30	0.3031115489597651
121	0x40003530f2c49d46	2.02597226774711
122	0x3ffbb7ebab46bbe4	1.732402485893311
123	0x4004b8468d2df19f	2.5899783162733025
124	0x4002b00cd859d9e3	2.3359620001240144
125	0x3ff0e63b66c87835	1.0562089934314944
126	0x3fee2bfa8e02d49b	0.9428684972432565
127	0xbfe22284b81c48b1	-0.5667136760623831
128	0xbff03f1d7754e0a9	-1.0154089604748526
129	0xc001acb551cb1121	-2.2093302145095923
130	0xc00c8ff3d9a54adc	-3.5702893260544055
131	0xc0111fd8b9b61217	-4.281100179422103
132	0xc01325d7c6abe84d	-4.786955932848355
133	0xc01190d4913283b2	-4.391435879429013
134	0xc00cce8ddc57bbe7	-3.600856515338353
135	0xbff1c46c81a4db2e	-1.1104550422875934
136	0x3fefcc422aee4b54	0.9936838949673565
137	0x3fd3d2ab4230e018	0.30973321403462384
138	0x3ff638d06ec0f619	1.388870651847702
139	0x400345111839167b	2.408724011652166
140	0x3ff8198dc352656b	1.5062387113342435
141	0x3fef9bacc6137de8	0.9877532833742722
142	0x3fa859312dd4d0b2	0.047555481762544885
143	0xbff8eca22833049b	-1.5577718324932792
144	0xc0072f968f1edc3a	-2.898236387376099
145	0xc0115337cdddfd35	-4.33126756350912
146	0xc01721838875b47c	-5.782728321251053
147	0xc01617b90c8a358e	-5.523166843352909
148	0xc01a0ca0d4c0ac4f	-6.512332271823722
149	0xc0158d46854a9adc	-5.38796432750561
150	0xbff622dfffae102d	-1.3835144031045374
151	0xbfb00f443c439f85	-0.06273294898312372
152	0xbfc7f14ef15805bb	-0.187051647037192
153	0x3fff308425f7bb0f	1.9493447764504628
154	0x40036926641ca454	2.4263427563896958
155	0x40012e0429ed7f23	2.1474688792803973
156	0x3ff549cd81739096	1.3305182511040008
157	0xbfcef97834797879	-0.24198820650321176
158	0xc001061b5279a929	-2.1279818004014897
159	0xc00d2e9b99ad9185	-3.6477577215284236
160	0xc0140dbe3c858514	-5.013421006822018
161	0xc013e122d9111522	-4.969859496753346
162	0xc0190c784b25c93e	-6.262177633458405
163	0xc01c4ae725a6ce0f	-7.073147381120648
164	0xc017131ddc5ee745	-5.7686685975002705
165	0xc00479f4ae24dbe0	-2.559548721790165
166	0xbfff824db1747291	-1.9693123752432806
167	0x3fe6b7740e0150f2	0.7098942063844602
168	0x3ff9a2ce9ffd87d2	1.6022478341696922
169	0x400165c9fa92cb55	2.17470165024262
170	0x40050e6c495e8619	2.6320424777957325
171	0x3ffdfbcf82ec67c2	1.8739771951863848
172	0x3fe83f86de2ada65	0.7577547396857197
173	0xbffd3558a6162f7b	-1.8255239951858744
174	0xbfff4b0ef529e548	-1.9558248116212145
175	0xc015b0ea99143bb2	-5.422769920215545
176	0xc01473962ef019fa	-5.112877591519004
177	0xc01722bb5c651b65	-5.783917850180704
178	0xc01d148eb0c31771	-7.270075570971913
179	0xc016e614c909d603	-5.724688664651242
180	0xc0098ae71758fcd3	-3.1928235839874133
181	0xbfd95829033ad45b	-0.3960058719197314
182	0x3fe889850841829b	0.7667870675323515
183	0x3ff4be3ee6f8e685	1.2964467069963643
184	0x4004985182a9ec77	2.5743742187601657
185	0x3ffcf76c93a3a72a	1.81040628120031
186	0x4002f5f88c3894e1	2.370102973438961
187	0x3faf19814e1133c7	0.060741463451087045
188	0xbfeebe3cd534c1e3	-0.9607223667317694
189	0xc001a05c1e9139d5	-2.203300703818267
190	0xc010c2599e197d4e	-4.189794988923792
191	0xc011c69116cb90a1	-4.443912845778102
192	0xc014b846d91f2748	-5.179957764173942
193	0xc01494b8b2de81f0	-5.145235819655213
194	0xc015c4822a180628	-5.441902787891685
195	0xbff932b54e0ce299	-1.5748799370614164
196	0xbfe9fdea6d6636b2	-0.812245572729543
197	0x3ff52fc483e195bb	1.3241620208367368
198	0x3ffdd3cf507d7d59	1.8642113823078346
199	0x4007ca5d2ad0d23c	2.9738105149247342
200	0x4001f6f6ae0b39b6	2.245587691991399
201	0x3ff5426155cdade1	1.3287061073013933
202	0x3fe20be9aee8dd47	0.5639542022899285
203	0xbff06ae9c72400c2	-1.026101854222404
204	0xc0080d00a135a3c8	-3.006348857354599
205	0xc00c3194bcccb130	-3.5242094755141338
206	0xc00b55dedb489b3c	-3.416928971436759
207	0xc010acfd2b4438e1	-4.168934513129188
208	0xc012c6824ae2e85c	-4.693856401538223
209	0xc00f5dee5f6fdbb7	-3.92086481628527
210	0xc00a2f397862d1b4	-3.273058834567758
211	0xbfdd5c5fede46703	-0.4587631056943879
212	0x3fe1d4a78c765cb5	0.5572087996869387
213	0x3fe631ca12e1fa01	0.6935778015902657
214	0x3fd5f3d2f57d71d3	0.343006839500757
215	0x3fd519fad0ea704f	0.32971067811900395
216	0x3fef0e65251b9b12	0.9705072140467073
217	0x3fe8ac160bbc3f66	0.771006606026259
218	0xbf7fe1e8162a6bec	-0.0077838006860941715
219	0xbfe8d243aebcae06	-0.7756670391876817
220	0xbff6c67226d0834f	-1.423448707217364
221	0xbff565eeab3cf0e3	-1.3373858155237535
222	0xc0038b42b26d64fe	-2.442998308146911
223	0xc003c8f4e8e2abf0	-2.4731233781981175
224	0xc00dd8de6973967b	-3.730892967071495
225	0x400fdb33ff4c4f82	3.9820327706492558
226	0x400fd61506fc6efc	3.9795322938715554
227	0x4006295376795986	2.770178723886775
228	0x400936ca3f9be05c	3.151752945847006
229	0x4006e6337661b027	2.8624028442918816
230	0x4006ece6e0d92eb4	2.8656747404364413
231	0x3ffa85305dc5e8e1	1.6575168288241502
232	0x3ff0eae0da9a1a76	1.0573433436526591
233	0x3fc32c93e05e8a38	0.14979790168315943
234	0x3ff8c084c02ab914	1.5470016008872038
235	0x3fdfe1dc24689fa0	0.49816039615188323
236	0x3ff88d584995d152	1.5345080255911694
237	0x3ff58f112031f8bd	1.3474284417748514
238	0x40051539ca15639f	2.635364130761857
239	0x40067f31f7178ec5	2.8121070198120344
240	0x4011dd215a3bb49f	4.4659475420895935
241	0x401158a4c05a604e	4.336565976635098
242	0x40100be3e23be9dd	4.011611494929153
243	0x4014e68f788452d9	5.225156672550576
244	0x401143426ca9c103	4.315683076725921
245	0x400cd754b4640b0c	3.6051420300513026
246	0x4003fc1d87537ad7	2.4981031963683153
247	0x3ffabec224f707fc	1.6715718692726105
248	0x3fecbb4134a45fb1	0.8978582409063077
249	0xbfcdb99f711d0b10	-0.23222725890271834
250	0xbfa9734a259ef5c0	-0.04970771512260397
251	0x3ff3f53834f917d2	1.2473680562265952
252	0x3ff2f949769ef9de	1.1858610757477588
253	0x4006fc599f9fc498	2.8732178183204944
254	0x3ff2defbc0de7d11	1.1794393094967897
255	0x4010cf7a9a81ca19	4.20261613289997

sampling_frac f8 []
0	0x3fa9999999999999	0.049999999999999996
