figs/grid_search_recon/skmodel/sv-ideal-p=2/recon-cs_seed=24-sf=0.070-skmodel-sv-ideal-n=24-p=2-seed=2-12-15.npz (npz, 250958 bytes, 2 tensors)

recon f8 [12, 12, 15, 15]
3.3447830002256143 3.1388237229515283 2.9601698115180195 2.102801122193212 3.286056504605401 1.872373317898564 0.4609463484842486 -0.09683638202916851
-0.40194675536556135 -1.8187973797223438 -1.5310194341500591 -1.2061231885609232 -0.22243312552755404 0.9132559401536227 3.5202752381478755 3.8409517088872636
3.8579584905773756 4.356498776908768 4.225728547467107 4.388140319581536 2.662095080228349 1.5440396143941664 0.5933730415314161 -0.8411605423120586
-2.8273996771607925 -0.5885650456841203 -2.3494337409350208 -0.15284270058023602 1.5621203961121168 3.649013031326779 7.355349831373155 5.825661737142399
6.256773651955135 5.619863064918463 5.774746425073734 3.5427375558022565 2.254501468521473 0.14571503287704 -0.5267093167461282 -2.672813114149458
-2.7249041079920446 -1.531971879592779 0.03438357503745759 1.4881272348779704 3.7047835905796895 5.5770799123585455 6.005481338135707 7.269041395487371
6.373501614752351 6.447683635029334 4.454942357912325 2.123500308389358 0.7261141665166895 -0.5468914634654273 -1.9902056118308427 -3.4778575454321503
-2.4849083049274556 -1.9505749531434264 0.996461657788723 3.0597494298477454 5.02794177055268 6.27097187150149 6.124913898460215 6.469711129691678
5.961075659281038 4.285057430100362 2.5976994054217037 0.6284022465301353 -0.120919455094709 -1.950143156418198 -3.0174588770983624 -2.723724494745994
-2.420628204935055 0.22719283101707485 2.8989419542129613 4.012802106097631 5.0926591641538055 6.695874242615644 6.21327230806107 7.0080942371382875
5.2893044023898765 2.837815406815696 1.3100970281218232 -0.15516449320256787 -2.8506028598129647 -3.3000525467730606 -3.627582177679407 -3.115178342620796
-0.3842517364645914 -0.03147682062727737 2.519885749194366 3.34557986338741 5.658062620986805 5.514892820023044 7.029888929438202 4.880188827853846
3.5115774222697906 1.430608266317576 -0.12763084528408486 -2.573324109219138 -3.831957634916883 -3.9537263055068554 -2.9046472035353355 -1.4800986587873177
-0.06475853750652708 0.575521127560978 1.7991985762705418 3.8701593419094213 4.33957755363615 5.278486220377882 3.2110659887513915 1.6664124059864434
0.8857016427509031 -0.8948951240083928 -2.731436748271862 -4.644672341038795 -4.3975646300559665 -3.7684461334424815 -2.088697756799607 -0.6449026754650959
0.49950232152005825 1.850740387124888 3.343292511724973 4.0874996133384345 5.813892027768415 2.9506892760981827 0.552415915375687 -1.0325899271804901
-2.0830224960687174 -4.883359139085845 -5.991899807212295 -5.283880881082824 -4.392207066249544 -3.482286737736797 -2.15266677098965 -0.6500417526737869
1.6529820572043026 3.337945277240324 3.399004744332914 4.670332891534824 3.0669126233969832 0.6332347224379135 -1.111519189173937 -3.0627599510208197
-4.189135088391703 -6.84605767726106 -6.268977441636348 -5.982474724257755 -5.264698541746714 -4.141437772604343 -2.3228533459181335 0.7479630122528237
2.1212695478996215 2.9185501984498634 2.9828353699248646 3.576828153221357 0.5728514184094958 0.0702833327046849 -1.6481784416811611 -3.7886499107390925
-6.463156589395582 -5.412294148709166 -6.701455631835656 -5.442352745501287 -4.585457410720428 -2.209851423719756 -1.0469937118207726 0.6490584952153626
3.200873875151345 3.429400066721299 2.571522382699887 0.8691163812446502 0.22596295915478615 -2.2698719413572097 -3.2669721909441987 -5.5836823963406825
-6.048442390843705 -6.0653705032033995 -6.022997332641033 -7.557774905509573 -3.2391771900229323 -1.2671628296616102 1.5703711572355699 2.4860762789413857
3.333830565864571 3.451504094788134 1.029578852799415 -0.11908970166428075 -1.6038492922184089 -2.708594187014889 -4.890732520726887 -5.210488493552921
-6.174108867439381 -4.956411491811083 -4.407096789834136 -2.9997406749134288 -1.5967252882953613 0.37444832744443746 2.0836790419408637 2.6576800817890067
2.406810142502171 1.2232480913167567 -0.08014887525584968 -0.92369761979034 -2.2963095477763127 -3.9185500506192783 -3.981545497676999 -4.279650113238872
-3.2920161931218295 -3.247288968928301 -2.256806259091765 -0.2822410952374131 0.11212108695628796 1.8148484972757268 1.403985001898291 1.5520434354202308
1.0126552781014362 0.4931851096521945 -0.1720415038191438 -1.6383925920810465 -1.8914001693561102 -1.9314106803414997 -2.5052594703185003 -2.1620802656274494
-4.270565051838649 4.059610940179901 3.6825901535490715 4.5422373538185346 4.302513647416557 2.6896808954618066 2.4367710048924143 3.105046238906322
1.5429957356468191 1.2964924129101874 0.8142667196480926 2.000386506382208 1.3436055317310276 2.2866697551615474 1.9333915720503467 2.7797454436031845
4.4775649154642885 5.015280182781694 5.3060462242809665 4.555885796435884 5.376262179289882 4.315489060366803 3.2379799811924697 1.8322174049474986
1.1244601955835414 0.22490021870108978 0.5965211733230523 0.9304603930081136 2.0012134768195953 2.2020670082129374 2.987462646647253 4.532143472595367
00000000: 777c f196 1dc2 0a40 e0e2 af9c 4f1c 0940
00000010: 6c9c 9882 6dae 0740 dd7e 0e65 89d2 0040
00000020: c7b4 20fe d749 0a40 0070 64b9 3df5 fd3f
00000030: 73d4 fc1c 2580 dd3f 65d4 e0e5 44ca b8bf
00000040: 48d1 41e2 7eb9 d9bf ce53 ff47 cb19 fdbf
00000050: 5a70 f33b 0e7f f8bf 0010 1dd4 474c f3bf
00000060: 590d d84b b078 ccbf 26cd 7a85 6439 ed3f
00000070: 221c 6610 8629 0c40 277d b9e3 44ba 0e40
00000080: c3d7 5257 19dd 0e40 738c ef03 0e6d 1140
00000090: 4994 6462 25e7 1040 5e72 eba7 748d 1140
000000a0: d462 6381 f84b 0540 84d2 f8e1 62b4 f83f
000000b0: 4f93 f675 e9fc e23f 2f4f 7d83 c9ea eabf
000000c0: 3303 d1b8 839e 06c0 7e06 d95c 86d5 e2bf
000000d0: 937a cbea a3cb 02c0 da53 3680 5990 c3bf
000000e0: 2d75 dbf4 71fe f83f 8bcf 81be 2d31 0d40
000000f0: 198c 81d3 e06b 1d40 3257 3a45 7a4d 1740
00000100: b77c 16ac ef06 1940 e14a 1f62 bd7a 1640
00000110: d589 7920 5719 1740 74da a3c9 8657 0c40
00000120: 6bab e010 3809 0240 a708 5f4a caa6 c23f
00000130: 3f8a 3d7f cdda e0bf 15bc 8cd7 eb61 05c0
00000140: bd7e 6486 9acc 05c0 d6e1 13f2 f482 f8bf
00000150: f062 9c54 b99a a13f 9a67 e180 5ecf f73f
00000160: b560 4294 65a3 0d40 b408 5b09 ee4e 1640
00000170: ed1f 60e6 9c05 1840 c98d 6b96 7f13 1d40
00000180: 4a75 1135 777e 1940 1e9f 2d94 6dca 1940
00000190: ba31 d368 dcd1 1140 2ba0 ccba edfc 0040
000001a0: 523f cbc6 533c e73f 7775 c186 2280 e1bf
000001b0: f510 f2d6 e1d7 ffbf 2e39 0efa a6d2 0bc0
000001c0: 1ac7 f99a 17e1 03c0 2e5d 0215 8e35 ffbf
000001d0: cf74 fd8e 03e3 ef3f a934 b9e8 5d7a 0840
000001e0: 48dd 7ac4 9c1c 1440 73f0 78a6 7915 1940
000001f0: 59cf d26d e97f 1840 345f 52f4 fbe0 1940
00000200: f25f b637 24d8 1740 2b0d 4f18 e623 1140
00000210: b8ff 38a0 16c8 0440 388e 3207 df1b e43f
00000220: 6ef8 14d1 93f4 bebf 9759 754f c933 ffbf
00000230: 7e4c d17a c123 08c0 40fc 6111 30ca 05c0
00000240: 1dc5 ff51 725d 03c0 934f 8d99 a714 cd3f
00000250: a7c6 b27a 0831 0740 7809 ccfe 1b0d 1040
00000260: 75dc 3e0b e25e 1440 dfa6 e841 93c8 1a40
00000270: 160f 510e 64da 1840 182e 0fdb 4908 1c40
00000280: d369 cb69 3f28 1540 e7dd 6290 d8b3 0640
00000290: 9deb 254d 28f6 f43f c418 e71b 6edc c3bf
000002a0: fd3e 46df 08ce 06c0 42c6 1bf3 8166 0ac0
000002b0: ef7b 05ce 4905 0dc0 441c 769f e2eb 08c0
000002c0: fffb 6298 9497 d8bf ca38 5ad6 ba1d a0bf
000002d0: f191 13dc b928 0440 973d 1b60 bfc3 0a40
000002e0: f96e ef2a dba1 1640 d9c6 3b10 400f 1640
000002f0: 51cc 1934 9b1e 1c40 54bf 5738 5085 1340
00000300: 762a 50e7 b517 0c40 3b8a 537e c5e3 f63f
00000310: 905d 3a21 3556 c0bf 14d6 58f3 2a96 04c0
00000320: 1101 8d67 d9a7 0ec0 11e5 db41 3ba1 0fc0
00000330: 25d1 4cac b73c 07c0 1785 65ee 7bae f7bf
00000340: da31 baf8 0394 b0bf 9801 a148 ab6a e23f
00000350: c377 4172 84c9 fc3f 917a de19 16f6 0e40
00000360: b34a dd37 ba5b 1140 7ca3 e37d 2b1d 1540
00000370: 8ce1 775d 43b0 0940 66c4 150e a0a9 fa3f
00000380: 871d b4f8 aa57 ec3f bfe8 5e19 fba2 ecbf
00000390: a25c 8782 fbd9 05c0 ec96 75fc 2494 12c0
000003a0: ff8b b02e 1b97 11c0 21fc 1e16 c725 0ec0
000003b0: 8676 652b a7b5 00c0 3437 87ef 0aa3 e4bf
000003c0: 401a cd95 d8f7 df3f 8567 c1f3 a19c fd3f
000003d0: 4b90 f624 10bf 0a40 0dce a67f 9959 1040
000003e0: 3df6 66e9 6c41 1740 33ff abfa 029b 0740
000003f0: e782 4a24 64ad e13f 27b5 f603 7d85 f0bf
00000400: 5694 cbb2 07aa 00c0 55fc 534c 8f88 13c0
00000410: c48a 4395 b4f7 17c0 72d7 70ab b122 15c0
00000420: 2435 abba 9e91 11c0 1afe 2e26 b9db 0bc0
00000430: 16b1 245b a938 01c0 0697 985c 24cd e4bf
00000440: 9513 4950 9d72 fa3f c3ad 4ca7 1cb4 0a40
00000450: a2de 3e66 2931 0b40 fd4c dabe 6bae 1240
00000460: d66f 497c 0989 0840 cdff f176 7543 e43f
00000470: 530e 6658 c8c8 f1bf 5910 094a 8880 08c0
00000480: 7aac eca0 acc1 10c0 c276 99f1 5c62 1bc0
00000490: 6cc2 8cd2 6e13 19c0 af55 a7da 0dee 17c0
000004a0: 7467 7022 0d0f 15c0 da04 3f10 d590 10c0
000004b0: 00fb 9022 3495 02c0 f5ca 8720 50ef e73f
000004c0: 2ed6 312b 5cf8 0040 9e9c b0d8 3059 0740
000004d0: 526f 59ca d8dc 0740 81fb 2b14 589d 0c40
000004e0: e326 717f cc54 e23f 78a6 6ba7 16fe b13f
000004f0: a2e2 8f5b f05e fabf 18f1 34af 274f 0ec0
00000500: 1186 91b8 45da 19c0 f126 f46f 30a6 15c0
00000510: 0f51 9962 4ace 1ac0 36e5 3c1e f8c4 15c0
00000520: f6fa c025 8257 12c0 c329 4f95 c6ad 01c0
00000530: b434 767a 7cc0 f0bf b482 4452 16c5 e43f
00000540: a02a 23c3 639b 0940 debe 5b4d 696f 0b40
00000550: 2b06 b553 7a92 0440 f1a2 3b28 cdcf eb3f
00000560: 2cae d6af 5aec cc3f e1e5 d19e b228 02c0
00000570: d95f e850 c222 0ac0 f622 8ed6 b055 16c0
00000580: b1a7 d1e1 9a31 18c0 d386 357c f042 18c0
00000590: 985a de9c 8c17 18c0 bec5 4658 293b 1ec0
000005a0: 08c8 08bb d5e9 09c0 aba7 0188 4c46 f4bf
000005b0: ff88 ae81 3d20 f93f 2751 cbf5 7be3 0340
000005c0: 1a59 165c afab 0a40 3f00 c92d ae9c 0b40
000005d0: b4d3 d6ac 2779 f03f 6540 f0a5 a97c bebf
000005e0: 2ca7 1ce0 5da9 f9bf d1ea da6d 33ab 05c0
000005f0: c205 982f 1c90 13c0 f6f9 af4b 8ad7 14c0
00000600: 0a62 4e98 49b2 18c0 8163 bb88 5dd3 13c0
00000610: a993 1afb dda0 11c0 87df f909 78ff 07c0
00000620: c5cb ded0 2f8c f9bf c89b 1a1e f6f6 d73f
00000630: 15f9 e3ea 5fab 0040 781d 54c6 ed42 0540
00000640: cad2 0dad 2541 0340 2899 3197 6c92 f33f
00000650: 90f9 08fe a284 b4bf cb8f 8c4f ee8e edbf
00000660: d588 498a d75e 02c0 0a31 d9c4 3059 0fc0
00000670: 5478 a086 34da 0fc0 0fbc 6a99 5c1e 11c0
00000680: abe2 fa95 0c56 0ac0 3dab 91a3 72fa 09c0
00000690: 6aa8 a170 f00d 02c0 3971 68f4 3c10 d2bf
000006a0: 9752 abb1 f7b3 bc3f 64e7 ef93 9e09 fd3f
000006b0: 7ca4 33fa b876 f63f 409f 517f 2bd5 f83f
000006c0: 4a14 5905 d633 f03f 7124 3547 5890 df3f
000006d0: de9b 3abc 7405 c6bf bef2 8f26 db36 fabf
000006e0: 9f88 f0d2 2c43 febf be63 b3e2 0ee7 febf
000006f0: 1219 287a c50a 04c0 3a93 01bd f04b 01c0
00000700: a559 4401 0f15 11c0 d839 7aa6 0a3d 1040
00000710: e084 90d3 f175 0d40 df47 d544 402b 1240
00000720: bcfd 3823 c635 1140 c379 d56a 7784 0540
00000730: f1d4 eecb 817e 0340 185d 857b 22d7 0840
00000740: 5f87 e74b 1cb0 f83f d361 0fd4 6ebe f43f
00000750: 2483 6314 790e ea3f 942b 02a4 ca00 0040
00000760: b926 9883 687f f53f 905e 3983 194b 0240
00000770: 9f17 4500 2cef fe3f 74d8 db2d eb3c 0640
00000780: 648b f6c6 06e9 1140 104c b59b a50f 1440
00000790: 7567 712e 6439 1540 1c03 5020 3a39 1240
000007a0: 4116 6bdf 4a81 1540 b215 7290 0f43 1140
000007b0: 4698 620c 62e7 0940 7c95 9632 c350 fd3f
000007c0: 10f6 5af9 c9fd f13f 589b 17c6 87c9 cc3f
000007d0: eb68 5992 b316 e33f 532e c6df 54c6 ed3f
000007e0: 7409 1a36 7c02 0040 4400 bf4e d59d 0140
000007f0: f2f8 ead0 52e6 0740 d24e ee37 ea20 1240

sampling_frac f8 []
0.06999999999999999
00000000: eb51 b81e 85eb b13f
