figs/grid_search_recon/skmodel/sv-ideal-p=2/recon-cs_seed=12-sf=0.050-skmodel-sv-ideal-n=12-p=2-seed=7-12-15.npz (npz, 251278 bytes, 2 tensors)

recon f8 [12, 12, 15, 15]
000000 80 04 9d 8c d1 80 f2 3f 29 c5 2a 8f ef 01 f9 3f
       1.1564498417576772 1.5629726021255215
000010 48 4b 51 6a 59 ed f9 3f 3e 1f 59 ff be da ea 3f
       1.6204466012029162 0.8392024028080198
000020 05 85 ce 47 05 e4 ea 3f eb b6 99 fd 8e b9 ed 3f
       0.8403345491862245 0.928901191056608
000030 e9 2e 62 19 2b 41 d1 3f 7d 08 b2 e6 30 be e4 3f
       0.2696025607954043 0.6482166772623398
000040 ca bf cf 5a 17 cc bc bf 81 81 04 46 39 5c d1 3f
       -0.11248918501928454 0.2712538894429813
000050 4a 91 15 cd 9b 6e b7 bf 69 fa d5 5b 74 8a c5 3f
       -0.0915315032667127 0.16828779682323905
000060 c9 06 78 0e 1a 30 ed 3f 90 dd 37 2a 90 cf f2 3f
       0.9121217997164531 1.1756745957517047
000070 e3 27 c0 36 7a 2c f4 3f d2 fa 03 c9 20 21 fe 3f
       1.2608587397285127 1.8830879070443882
000080 ce 91 f0 4a 8d 05 04 40 00 ea 46 b3 bd 25 fe 3f
       2.502710900751686 1.8842141154296996
000090 9c 9d af 57 ac eb 00 40 c7 3b b8 6b a1 4a f8 3f
       2.115074811026444 1.5182203491019537
0000a0 8b 45 41 72 7d 3b f8 3f 8c bb fd 72 87 fb f0 3f
       1.5145239317974724 1.0614084712831042
0000b0 de 64 ed 26 c7 8e d6 3f 8b 12 a5 2d 92 7a d4 bf
       0.35246447373863343 -0.3199811406850947
0000c0 63 78 d4 57 3a ff f0 bf 75 d6 07 7f e0 29 d3 bf
       -1.0623114996774567 -0.2994309654744492
0000d0 41 0f 39 a5 19 ab c8 3f a1 86 45 01 b6 f8 d0 3f
       0.19272156302951696 0.2651801121156528
0000e0 bb 3c b7 b8 6b 31 d9 3f a5 c6 f2 2d 4f 37 fb 3f
       0.39364140547418075 1.7010032458169146
0000f0 1a 3a 02 99 50 db 07 40 6f 62 ef e0 37 c9 10 40
       2.9820873216442694 4.196502222643729
000100 0f 0a 77 81 e0 e3 0b 40 dd 6f 0e 62 e5 e0 08 40
       3.4862680544331464 3.1098125134139836
000110 fc 7d 9c 2f e5 a1 ff 3f 7f c5 0a 51 b4 9c 01 40
       1.9770252094093612 2.2015158015644256
000120 d1 9a a4 e1 46 78 fa 3f 7c 60 0a 43 46 38 7e 3f
       1.65436447278778 0.007377886257607821
000130 56 f5 5d da 9a bc 8d bf 42 0c da 47 ed 13 c4 bf
       -0.014519891537697543 -0.15685812004457672
000140 6d be f3 e7 8a 0c e1 bf b0 0a b3 90 c1 f5 e2 bf
       -0.5327810793223314 -0.5924995256576349
000150 8a 70 6a e1 c4 05 cb bf 41 40 16 69 e4 b5 e3 3f
       -0.2111135578787791 0.6159536411742083
000160 34 a1 41 21 a1 86 00 40 7d 79 6e 11 47 81 05 40
       2.065737018409118 2.688123832878033
000170 df f6 19 be 64 77 10 40 02 27 18 8f fe 4d 0b 40
       4.116595239958513 3.4130831889386863
000180 76 ee a2 7e bc cd 08 40 5b fb 6a 28 3d 06 05 40
       3.1004571813080544 2.6280463369034073
000190 97 b5 26 04 89 52 03 40 6a 48 64 e6 eb 08 00 40
       2.4153004001916076 2.004356193480864
0001a0 02 46 cb 21 0f c0 d0 3f 42 25 d3 e5 9d 07 d7 bf
       0.26172235775183605 -0.3598398918516815
0001b0 f2 59 d1 a5 43 b8 d3 bf 74 bd f4 2d 55 ba e2 bf
       -0.3081215972246404 -0.5852456948831972
0001c0 a4 61 ec fb 82 d0 ce 3f 58 76 cd dd d8 dd f0 bf
       0.2407382707686 -1.0541618980563694
0001d0 e4 41 f8 11 85 23 b1 bf be 2a 07 4b c1 e7 f3 3f
       -0.06694823921885235 1.2440808230191318
0001e0 ea c8 24 6b 94 86 02 40 f8 57 e3 e0 fe df 0e 40
       2.3157127733803593 3.8593728608493585
0001f0 6b 7e a4 e6 38 36 0d 40 e5 cd 0c 6e 9d 8a 08 40
       3.651475717444375 3.0676830861718707
000200 19 3a 19 30 55 13 03 40 35 de 43 52 00 12 00 40
       2.3844398267458584 2.0087896754228276
000210 77 02 ca 6c 5b 3a 02 40 6a 3a da 87 6a 2d e6 3f
       2.2784946917675444 0.6930439618461837
000220 91 7a dc 1c ad 63 5e bf 29 02 61 7a 53 30 e0 bf
       -0.0018548193506330616 -0.5058991804326683
000230 87 22 16 63 54 30 da bf 78 09 7d d9 78 f5 df bf
       -0.4091998069421056 -0.4993574260626228
000240 38 ad 5d 3a e5 3e e0 bf d5 27 26 32 46 69 d5 bf
       -0.5076776637992344 -0.3345504274117251
000250 5b 41 95 3f ac 51 ee 3f e5 61 88 67 12 b3 04 40
       0.9474698297363305 2.5874374474044424
000260 92 3a 65 5d 76 ff 10 40 16 46 ca 51 68 b2 0a 40
       4.249474963477626 3.3371130361417825
000270 df 5b 72 3e 5e 98 0d 40 b4 1e 6b 25 c6 9d 05 40
       3.6993985060357626 2.7020380900683794
000280 94 06 fb ac 27 3d 01 40 20 85 0d 7b c5 73 fd 3f
       2.1548608316523516 1.840764504122781
000290 8c 14 fc 5e e9 db e1 3f dc 13 6f 6b 5c 14 de bf
       0.5580946784181307 -0.4699927376898907
0002a0 57 9f ed 63 23 42 dd bf 77 19 5e 38 5c da ed bf
       -0.4571617580281688 -0.9329053021363468
0002b0 91 19 23 f2 2d 61 e9 bf 29 a8 14 52 e6 3b f1 bf
       -0.7931127290001304 -1.077123947742175
0002c0 48 cc ca 9e 11 71 ed bf 3f b8 2b 11 44 42 c7 3f
       -0.9200523473176725 0.18170977438370703
0002d0 bc 60 b7 a2 56 ce 06 40 4d f7 ff b7 94 66 10 40
       2.850751181813477 4.100176692006994
0002e0 3b ed 38 79 27 b8 0a 40 63 d3 b8 8e 61 1c 0a 40
       3.3399190397737164 3.2638579511789643
0002f0 3e 9a f6 bf 11 e4 03 40 1c 6e 3c 22 ed e8 00 40
       2.4863619801647294 2.1137335467044647
000300 bc ed 05 ed c6 d5 ff 3f 2f 4c cd d5 99 25 d1 3f
       1.9896916636197224 0.2679199779424292
000310 48 a7 a4 b3 1b 20 c2 bf c4 e3 18 1d 22 f7 f3 bf
       -0.14160486480369117 -1.2478352676973694
000320 ed 51 7e 12 47 ac e7 bf 68 4a 8c b9 4e f5 f6 bf
       -0.7397799836349442 -1.4348895309418825
000330 0c 81 4e dd eb 56 fe bf 03 41 dc 59 02 ec fb bf
       -1.8962210316458963 -1.7451194296045862
000340 44 b3 f0 10 f7 cd e0 bf bb b5 9b 7e c9 65 09 40
       -0.5251422243942234 3.1747007266301046
000350 e3 e7 e3 9d e2 86 04 40 48 29 a5 60 7f d8 05 40
       2.5658619246651013 2.7307117033389297
000360 36 00 dd 7b a3 b9 06 40 55 0b 25 3f 52 8b 0a 40
       2.8406438519305324 3.3180279668025983
000370 fd 1d b8 42 3c 8f fc 3f 0a 32 b1 07 23 14 ed 3f
       1.7849695783824011 0.9087081098783198
000380 cd 3b 7f 66 9e a0 a6 bc cf 45 0b a3 04 a7 f2 bf
       -1.5700924586837752e-16 -1.1657759064586235
000390 0b 4d 90 4f ba 97 f0 bf 59 96 76 83 f0 b8 f7 bf
       -1.0370429141956403 -1.4826512465746389
0003a0 36 f6 36 90 c3 c4 fd bf 8b 62 34 38 57 d4 02 c0
       -1.860538066233301 -2.3536819830881703
0003b0 20 01 ae a2 9f d6 fc bf a2 7d fe 34 1b 3c f5 bf
       -1.8023983339954341 -1.3271743841249664
0003c0 df 3f c7 8c e4 0d ee 3f 64 80 2b 70 19 ec 03 40
       0.9391958951546221 2.490282894446908
0003d0 45 dc 60 ce ea 32 04 40 62 df b5 df 74 75 01 40
       2.5248619197186906 2.1823518254640684
0003e0 54 2e 50 ab cf f6 fc 3f c2 96 01 ac e9 db f5 3f
       1.8102566425249238 1.3661896437637755
0003f0 16 b8 50 95 6a 57 eb 3f 4d fc 34 f4 33 d8 c5 3f
       0.8544209400477054 0.17066049026650135
000400 8f dd a4 f8 59 ce f0 bf f5 ec 99 30 b2 0f f4 bf
       -1.0503787720352624 -1.2538320444571671
000410 e9 3e 7c 0c d3 ee ff bf 88 56 05 44 ba ae 06 c0
       -1.9958067405422588 -2.8353162111405403
000420 d8 74 0d d2 18 2a 07 c0 0e 5d 78 b7 61 da 08 c0
       -2.8955551538807462 -3.106631692276671
000430 1d 0b 4f 1b c0 57 ee bf 05 53 b1 88 b8 23 b9 3f
       -0.9482117207884105 0.09820130669806922
000440 5d 45 9d 6a d3 20 00 40 54 7a be 03 84 87 fb 3f
       2.016028244900254 1.720584883332454
000450 f8 00 49 f6 d7 fd fb 3f c9 6c 0e fa 75 bc f5 3f
       1.7494735355867856 1.3585109489275047
000460 c0 ae e8 3f 11 03 f5 3f e7 bf be 49 51 05 a1 3f
       1.3132488724176454 0.03324369454583103
000470 30 7a 28 ec a6 59 b5 bf d6 2a c0 7b 98 a3 f9 bf
       -0.083399231582441 -1.6024403413782031
000480 3f ca 98 55 a8 74 fe bf 12 6e e8 9e a1 da 03 c0
       -1.903480848658219 -2.4817535795862193
000490 d8 68 1d 85 9d 25 08 c0 ef 76 96 60 b2 06 09 c0
       -3.0183668517685014 -3.1282699151914737
0004a0 ad 61 89 b1 01 8d 0b c0 2e 9c 51 65 7e 88 fc bf
       -3.4438508863497277 -1.7833236654057703
0004b0 2f 80 35 89 e3 7f e1 bf ad 36 85 c5 a8 32 f3 3f
       -0.5468614272940665 1.1998679843558577
0004c0 9d 11 76 83 15 98 01 40 47 a0 56 35 c8 32 f8 3f
       2.1992597837836017 1.5123979648142425
0004d0 4c cb 55 93 7c 02 00 40 43 47 b8 af 44 76 f2 3f
       2.0012141714627543 1.153874098210921
0004e0 20 34 46 7e 0e 96 db 3f 08 8a 07 ed ca da b3 bf
       0.4310337288996511 -0.07755726134158902
0004f0 39 f0 cb c5 1c 8f f8 bf fb fc f6 9a 84 c9 01 c0
       -1.534939549105742 -2.223397455847246
000500 f4 ce 8e d4 0a f8 01 c0 d1 7b 0c c7 9a 82 0b c0
       -2.2461144071656864 -3.438771777218314
000510 ec 77 bc c7 d4 56 0b c0 82 b5 e0 70 65 36 12 c0
       -3.4173980335608487 -4.553121341433668
000520 e8 45 d2 f9 f4 5a 02 c0 33 dc 05 bc af e3 e9 bf
       -2.2944125668807267 -0.8090437576601118
000530 65 89 dc 6c a7 b5 dc 3f c7 d4 b0 de d7 b9 f5 3f
       0.44858728056910585 1.3578718851907057
000540 0c b1 69 38 8b 91 f5 3f cf 32 ef b0 19 b3 fc 3f
       1.3480331615092522 1.7937256728647986
000550 3f 5c 6d 69 d5 b7 f5 3f d3 5a 65 0f 5b 8e dc 3f
       1.3573812597512782 0.4461887026167634
000560 7f 7c 53 ef ba 1d cf 3f 71 e9 c5 15 38 70 e6 bf
       0.24309479413838983 -0.701198618436406
000570 e3 04 02 03 9d 11 f5 bf 59 9f cd cb d1 5d 03 c0
       -1.3168001286979283 -2.42081031056652
000580 3a 02 17 70 58 a2 05 c0 1e 2e cf 3b f7 4c 04 c0
       -2.7042702443143556 -2.5375809357262957
000590 11 94 5c a1 f7 81 0b c0 c5 39 e4 d8 a4 0a 00 c0
       -3.4384605986001664 -2.005197233643431
0005a0 eb ac 6c d9 07 3c e0 3f 9e 4b db 09 76 cb ab bf
       0.5073279615948229 -0.05428665991134739
0005b0 20 34 18 8d b1 f2 e5 3f d9 3c 3e 31 ae 1c f2 3f
       0.6858756786110725 1.1320020602759568
0005c0 09 d7 2f 45 fb f6 f5 3f 71 bf 0b 6c b5 10 f5 3f
       1.372798223744612 1.316579267553575
0005d0 55 42 bc 37 e7 dd dd 3f 67 10 b0 e8 63 47 e0 3f
       0.4666688961306467 0.5087146324808715
0005e0 a9 5e 18 4e 2f cc d1 bf 8f a1 1b 9c cd cb f2 bf
       -0.2780874502800353 -1.174756631657235
0005f0 82 1c 9b cf 95 d4 fe bf de 4a 20 e7 c9 9e 02 c0
       -1.9269006833654037 -2.327533536599147
000600 0a 71 16 16 7f d7 00 c0 ad 11 b3 49 1e d4 04 c0
       -2.1052228665922756 -2.603573394562963
000610 bd f3 f1 96 f2 a3 f3 bf ab 86 57 90 11 51 e8 bf
       -1.2275262733739816 -0.7598960704019267
000620 81 c8 3d 78 9e cd e9 3f 76 00 d1 2e d8 76 f5 3f
       0.8063499783004461 1.341514761807074
000630 1e d6 e9 38 23 ec f4 3f d3 c6 0b 56 e1 3f f7 3f
       1.3076507781200983 1.45309575664253
000640 6a 5f ab 35 55 d3 f3 3f d9 64 0f 5e 0b 60 f0 3f
       1.2390949341260815 1.0234483408187798
000650 e5 f9 7c eb 6a 16 d0 3f 21 28 8c df 86 96 c8 3f
       0.2513682651223504 0.19209371486096052
000660 94 af 7a 83 dc db ef bf 7c 4e 15 54 1e 9e f5 bf
       -0.9955885475114763 -1.3511031422139288
000670 cf f4 08 96 cc 74 00 c0 8c cb 58 40 ee 36 02 c0
       -2.0570308419688454 -2.2768216158960453
000680 49 7d d2 89 d6 26 02 c0 42 04 ed ff bb 38 fa bf
       -2.2689638869630113 -1.63885116549524
000690 fc e7 9b 52 c4 9e f0 bf f4 68 41 4c da 5c e3 3f
       -1.0387614466585537 0.6050845612874398
0006a0 b9 69 d9 48 fd ae e2 3f ba 1d af 43 b7 37 f2 3f
       0.5838610098683638 1.1386025089176273
0006b0 2a 2d 76 e4 fb e0 e8 3f 33 4b 42 46 2e 39 d1 3f
       0.7774638616696496 0.26911503659464414
0006c0 2e 42 ad a9 f7 73 d9 3f a5 82 07 6f 54 31 d6 3f
       0.397703090381614 0.34676085322102274
0006d0 39 09 3d 65 e9 be b4 bf f3 63 d5 22 75 54 a4 bf
       -0.08103808137551462 -0.039706860067504034
0006e0 e8 c9 61 a6 5a 33 cc bf a3 1b 8d a5 51 6a ea bf
       -0.22031720279808487 -0.8254783852979596
0006f0 8b 42 e8 d1 ea 3b f1 bf 95 40 d4 49 04 2e f0 bf
       -1.0771282386305383 -1.0112345584821345
000700 1a 82 33 f7 40 3b f8 bf 42 e5 b0 a3 72 92 01 40
       -1.5144662529274968 2.1965077198371157
000710 8c ac 25 f3 fb 70 07 40 75 93 6b 3e 2b fb fd 3f
       2.930168056094379 1.8738205374040409
000720 3e 50 18 06 c3 09 fd 3f 24 5e e5 26 00 2f 03 40
       1.8148832548222482 2.3979495085475424
000730 77 f3 0a 68 25 8a fe 3f 88 75 8a 13 5f 4c f8 3f
       1.9087270797892566 1.5186453593554194
000740 74 3d e5 3e bb 25 f7 3f fb b5 ed 08 86 6f f9 3f
       1.4467117745260483 1.5897274349948691
000750 71 aa 67 6b d0 a0 f6 3f e8 28 ea bb c7 03 f8 3f
       1.4142612643724102 1.500922903100724
000760 cb d5 74 39 b0 40 f7 3f d2 83 b4 e2 c6 b9 00 40
       1.4532930607214094 2.0907113753641875
000770 37 e7 0a 25 f6 05 fe 3f 16 4f e9 ea 0c e5 04 40
       1.8764554450012392 2.611841044659637
000780 4a 23 dc ab 4b 1b 07 40 9f 74 45 7c f3 37 05 40
       2.8883279253535976 2.65231988036119
000790 f4 49 7b f7 4a 9c 08 40 a4 cf 54 36 a4 ba 07 40
       3.076314862680414 2.9661335224754612
0007a0 cc fe 18 d2 f6 9b 04 40 0f d1 7f 74 e7 56 02 40
       2.576154366863056 2.2924336530214826
0007b0 1c 91 0e 93 28 36 02 40 2c 9a 75 d1 16 7d eb 3f
       2.276444577104611 0.8590196696284855
0007c0 ab a0 13 38 56 5f e5 3f 9d 91 d5 71 62 70 e5 3f
       0.6678877921340435 0.6699688170743233
0007d0 e6 6e 7a bb 5a 1e e8 3f 17 32 da ad da 11 e9 3f
       0.7537053739246999 0.7834294696381815
0007e0 8d 41 4d 58 91 45 f2 3f 2c f5 5d ed f1 66 fc 3f
       1.1419843148506488 1.7751330635213192
0007f0 92 b8 06 6b ee 0c 00 40 56 c3 f4 ab 5d 87 0a 40
       2.0063141213823394 3.3160966333456754

sampling_frac f8 []
000000 99 99 99 99 99 99 a9 3f
       0.049999999999999996
