figs/grid_search_recon/skmodel/sv-ideal-p=2/recon-cs_seed=20-sf=0.070-skmodel-sv-ideal-n=20-p=2-seed=2-12-15.npz (npz, 251213 bytes, 2 tensors)

recon f8 [12, 12, 15, 15]
00000000: a54c 4b17 f438 0840 2e7e b185 1eaa 0240
00000010: 4d2b 7a50 01ff 0040 82bf de7d 2223 ff3f
00000020: ccdd 5ab0 560d f63f 5d8a 96f9 7014 d2bf
00000030: d24d 1b3a 1934 e7bf 26ec 9516 8f52 fcbf
00000040: 3389 36e9 4472 fdbf 8d56 9deb 3beb fbbf
00000050: fbd7 00f3 3539 f2bf 6616 036d 978f e4bf
00000060: 2df4 b314 9cd0 d6bf 817d 056d d9e4 cbbf
00000070: cc5f 898e 4330 f13f 63c6 66cd d86f 0a40
00000080: e2e1 6000 ce0f 1140 cb8e b4f4 047a 0e40
00000090: 8cd7 f1d7 0b27 0840 3885 6f41 d758 0640
000000a0: 7411 ac24 5e59 0240 1c57 080f cfe6 ca3f
000000b0: 81f3 a9b1 f139 f2bf 8a56 705f 5a84 03c0
000000c0: ea8d 3d1b f957 00c0 cb94 96f4 cbb3 06c0
000000d0: 1c67 5d62 e04a f7bf db6f 4c98 ca1a fcbf
000000e0: aee5 7d46 5aee e1bf 947c 51dc de1b f03f
000000f0: 7307 7d0b 1e09 1140 088a e2d8 5240 1140
00000100: 9ccb 789f 7456 1240 6396 53fa e40d 0b40
00000110: 7749 138f 4180 0c40 2d21 1c43 f312 0040
00000120: a49d 8495 b2ce dd3f 5e49 cb7f f3a0 e7bf
00000130: ca69 9ebf d951 01c0 7fea c741 e3bf 00c0
00000140: b73f b019 ff9b 03c0 8dc2 8a28 00f7 efbf
00000150: c8e0 f2d4 cea6 efbf d2b8 020f 1ea4 cbbf
00000160: fa7b 3561 961c f23f cca1 0a6d bb45 1640
00000170: 44ae 46de c087 1a40 e6c2 dded 9505 1440
00000180: 4772 c1d7 f648 1040 fb2b ed7f 8db8 1040
00000190: 879a 4325 2cd5 0440 2e20 4e1f 0285 f23f
000001a0: 8a93 8d0d 66de c4bf 8aa3 508f b90c f6bf
000001b0: 4386 8fda 212d fbbf 3e36 8ef7 956c 03c0
000001c0: b09c af4b 8264 f8bf 49a5 c566 e1e6 e9bf
000001d0: 1a42 2d99 6ab6 e3bf ab58 f3bd 6cdd da3f
000001e0: 37e5 d294 8315 1940 1ff6 2f91 21c5 1840
000001f0: f4f5 5a1c 3b07 1740 4c6c f0f6 6349 1240
00000200: ed8f f159 a3e8 1140 ee0c 4846 8b33 0440
00000210: 65cf d478 cdf1 f33f c731 cf5b 7f55 d23f
00000220: 462c b8d2 bb55 f6bf 9327 9def 67e1 fdbf
00000230: f797 601f 8c42 05c0 d96a f79e c89a f3bf
00000240: 6a86 8b2d 49b6 0cc0 baf7 003c 258a f7bf
00000250: aa15 79fd 4b26 a33f deea 2c64 11eb 1240
00000260: 3474 a812 8da3 1540 922c 5dad 7eec 1540
00000270: 4142 da48 66b8 0840 7d85 c6ee 5632 1540
00000280: 0a32 e83b 30fa 0240 1fb6 b317 0c96 f13f
00000290: f84b b6fe 6425 dabf f84b 6bbd 1b36 ebbf
000002a0: c582 f94a a830 04c0 cf94 d41f 1820 07c0
000002b0: d726 c385 8eea 02c0 0c38 98e8 b146 05c0
000002c0: 5a78 0e5b 2d10 06c0 d6cd c457 7bfd ebbf
000002d0: 904c f0c1 bf42 1240 8153 4c72 3908 1640
000002e0: cedf f52e 86f0 1240 1d8f 2324 522d 0f40
000002f0: c0cf dc6e 732b 0e40 1bc0 c159 3724 fe3f
00000300: 3c06 16b7 d6ae f03f 42c0 75a3 4dc2 d4bf
00000310: f0d1 d03f 1d99 fabf 548b 265a f58f ffbf
00000320: b8a2 5e60 d770 0fc0 dc1e f741 2ddf 03c0
00000330: 5960 ee64 60a7 04c0 5dee 407d 7861 07c0
00000340: ae9f 2e64 f22c 10c0 8679 01db 4314 0940
00000350: c7f4 5bff 485b 0f40 43ed cb86 b48a 1140
00000360: d3eb 4bd8 154a 0440 eebc 772c d2aa 0d40
00000370: fbff 08c0 4383 f03f cd3d 34bf 4e63 f13f
00000380: 7e67 446b 5123 f0bf 4ed2 cd24 7921 01c0
00000390: d8c8 2f11 378a 01c0 dcdb 5a38 da85 0dc0
000003a0: 2f9c 1544 cadd 0dc0 7472 7908 7130 11c0
000003b0: 83f5 59e7 bb9a 15c0 9a9d efb5 a6e6 0ac0
000003c0: f485 acba 6faa d63f d78d 6f32 9923 fc3f
000003d0: fbbd d48a ad54 0040 ce3d ac1c 083d 0140
000003e0: 75b2 a0e7 9cdf 0240 371b 006b bd38 fa3f
000003f0: 6f07 0a01 4f3e d83f c882 226e 7090 efbf
00000400: f7d8 145c 701f 00c0 ddfb f199 c1d4 0ac0
00000410: f58b fb9f 19b5 12c0 4662 1e9c 8c9d 11c0
00000420: 5a73 0130 c564 16c0 416d f856 e02a 18c0
00000430: 62a4 4938 798e 15c0 2441 a2a4 ba2d e23f
00000440: 8af9 2477 885d eb3f 9a37 c6c1 f01e fd3f
00000450: b81a bb6f c1a8 f03f 3d92 f6ee 3879 0540
00000460: 6f49 a946 f654 ee3f 2e98 eb4c 6afa e83f
00000470: 6eb5 431e a1b5 f9bf 9b33 b4c3 34d6 06c0
00000480: 29ea b063 a1e8 0dc0 d7b0 8d08 4861 16c0
00000490: 91ed 6d99 27d1 17c0 dbbe 3524 c5fa 19c0
000004a0: c138 3610 a615 1ac0 aca9 51f3 4a28 17c0
000004b0: bbe7 6316 b9d1 e7bf 4526 2190 6803 f73f
000004c0: 54b4 8de7 69d9 e23f d073 c695 0073 f53f
000004d0: 6269 9e05 0807 f73f ce6e 2cbe 4030 e73f
000004e0: 8d17 1e6e 1795 d53f 1ca6 9670 b8ab efbf
000004f0: d2ae 2047 f307 05c0 85da 5871 dc82 13c0
00000500: 3772 fd3d 4668 15c0 9249 465c 128b 15c0
00000510: 59f5 27b1 6373 1bc0 1d80 d0f1 d9a5 1bc0
00000520: 3fc0 fca4 6ae8 16c0 e6ed 5c2b 08bd fdbf
00000530: ed59 a9db a78f b9bf c7a8 59e1 21e9 ea3f
00000540: 7334 363e 8236 d43f 6f2c 78cc 6e6d f53f
00000550: a60c 0383 5adb fb3f bb47 cf79 ea9a 833f
00000560: 041e 4303 e5a0 dfbf e60e 472a 846b 00c0
00000570: f342 6f47 ccaa 0ac0 8c09 8a62 1d5c 17c0
00000580: b700 6445 16f9 13c0 927d b9d1 bbcf 19c0
00000590: cc62 8686 edcd 18c0 9931 a385 41d8 16c0
000005a0: ace8 cde1 8168 fbbf 3e8f 0e04 f55c f0bf
000005b0: 8d9d cc30 fa40 d1bf e567 842c 99ae e03f
000005c0: 0435 fe3b 6f90 f43f 2fac a919 e64f f83f
000005d0: f1e1 a916 4c59 f43f d91c fcd3 5865 e9bf
000005e0: 4ea7 63f2 bf3a 02c0 a140 f401 29d6 0ac0
000005f0: 3da0 927a 86e7 12c0 3bbd 989d 7d79 14c0
00000600: 1993 ecd1 5554 14c0 dfd0 733d a02b 15c0
00000610: c5a4 7429 a3a1 10c0 1e44 fc18 9001 f6bf
00000620: bf17 f0a2 6f21 e4bf 8f83 885d efa1 e0bf
00000630: 8b4c a693 509c e83f 51f7 e0f8 4691 cf3f
00000640: b818 b892 8474 f23f fd53 db90 a1b7 e73f
00000650: a28a 6512 b6f3 8b3f ba67 d403 9c07 01c0
00000660: 92fb e883 7ea7 0cc0 5dfd f085 9b69 11c0
00000670: 356c 6a0a bbba 0ec0 d842 4a5f c7d1 13c0
00000680: 6294 5b43 6d0b 11c0 28c5 d9e4 797a 0fc0
00000690: 1fef 8c67 f2bd febf d668 eba3 6751 f4bf
000006a0: f85a 1c17 e8de a53f 9d47 5393 ad66 d93f
000006b0: 06d1 eba1 41b2 ce3f cc90 c725 e64e df3f
000006c0: 24ea 31a6 c975 f03f 4b48 8615 53eb c53f
000006d0: ec0f 1175 7246 e2bf 85c9 facb 7d77 f3bf
000006e0: 3268 0909 791c f6bf 42e3 8d5f b817 01c0
000006f0: 847c 8572 bf62 05c0 3f12 3cb3 4268 0dc0
00000700: c65d 5d09 8779 0bc0 c251 3975 a1e8 0840
00000710: 44ad 62cb eb8d 1140 3528 339a a3eb 0a40
00000720: 9089 5a50 a030 0d40 6922 29c7 eec8 0440
00000730: 1368 ee14 cfa6 0040 5c37 410f d593 d43f
00000740: 74d2 abbc d3f5 e13f 1c0e 221e 386a c2bf
00000750: c490 15c8 567b c73f 80cd 1c47 05eb a7bf
00000760: 0424 ec27 bbed d53f 27d0 32a4 b6af f83f
00000770: 122d 55a0 3c4f ff3f 5e00 33c4 eed5 ff3f
00000780: 55b1 bccf 0daf 0f40 637f 3a94 7088 0d40
00000790: e62e 9731 ef7c 1140 696c 6b92 fe59 0f40
000007a0: 5c72 dba9 d7c7 1040 10d2 e416 ca9f 0740
000007b0: 5e5f 5b75 4f58 0240 ec11 e308 fea4 e23f
000007c0: 9c3e dbc5 33e6 ccbf d8a9 8b46 5ece dabf
000007d0: 14a9 a74d 0d40 c3bf 3cfb 0b2b bbc7 c63f
000007e0: 60e1 96d2 0fd9 ce3f ca12 67b7 c251 fa3f
000007f0: 2e33 2172 95d0 e33f 4ba2 40bf a8b3 1040
3.0278093166212607 2.3330660290519267 2.1245142257006706 1.9460778157044563 1.3782565010895835 -0.28249763845284354 -0.7251096854110364 -1.7701559908152915
-1.8403977498897575 -1.7449301913924586 -1.1389674656215891 -0.6425282601491744 -0.3564825250794595 -0.21792142699539954 1.0742831771694794 3.3046127364148545
4.265434270776014 3.80957976509112 3.0190655584983173 2.793379317489464 2.293636595250229 0.21016872629177719 -1.139146512984752 -2.439625497451577
-2.042955601516714 -2.837791357846617 -1.4557803957345135 -1.7565408658183432 -0.5603457810204213 1.0068043333228944 4.258903674608393 4.312816037012915
4.584429256198657 3.3817843968161454 3.562625043655483 2.0092530482253523 0.4657408199440971 -0.7383973594644819 -2.1649661035746464 -2.0936951769957086
-2.4511701590454 -0.9989014427029176 -0.9891122969775319 -0.21594596608105704 1.1319793507789186 5.568097785734107 6.632571671546945 5.005454746875989
4.071254130537063 4.18022727856714 2.60408810722885 1.1574727270945107 -0.16303706800240675 -1.3781066511384972 -1.6985186135792822 -2.428020414378607
-1.524538322113397 -0.8094336516634623 -0.6160176269277742 0.41976469564304847 6.27100975548938 6.19251086096986 5.757061427165798 4.571670397209413
4.477185635918414 2.5251679888475485 1.2465338439914941 0.2864683529449192 -1.3959310752131997 -1.8675307617108714 -2.6574938250878364 -1.225288983309545
-3.5890067632870357 -1.4712269157312066 0.03740155667450591 4.729558530084175 5.409717837840663 5.480951985179802 3.090038842354517 5.2991597469966765
2.3721623115764077 1.099132626138619 -0.40853237985828583 -0.8503550242988913 -2.5237584931749972 -2.8906710135221156 -2.3645296526127413 -2.6595190211728603
-2.757899009112447 -0.8746926035150249 4.565184622089092 5.5080316409192855 4.734886869198773 3.8971293280936963 3.7712162648331002 1.8838418489576785
1.042685237102332 -0.32435933077704615 -1.6623814099121965 -1.972646095419539 -3.930098297966051 -2.48397304091837 -2.581726826214475 -2.922593096298256
-4.04389339956826 3.1348950490784686 3.9195728254258912 4.385454279133515 2.5361744783562954 3.7084086870232715 1.0320470334409027 1.0867450207623393
-1.008622569096104 -2.141344344645666 -2.192487844725388 -3.6903576281288064 -3.733295947942245 -4.297306187069456 -5.401107420793212 -3.3626226629018676
0.3541526148784151 1.7586910219332503 2.0413466306852093 2.1548006286682044 2.3591859908977377 1.6388525180534097 0.378803015723057 -0.9863817359037848
-2.0153510278570326 -3.353884890267621 -4.676855563858216 -4.403856696466908 -5.598408460701501 -6.041871413147704 -5.389134292120703 0.5680821624282868
0.8551676108398152 1.820053822451405 1.0412001003730165 2.6841906231877872 0.9478713398078024 0.7805682661389761 -1.6068431074339418 -2.854592827736679
-3.738589075886257 -5.5950013481599035 -5.954252621969673 -6.494892659931533 -6.521141293820791 -5.789348413333226 -0.7443509518918668 1.4383321409280978
0.5890397570161761 1.3405767298311169 1.4392166347011757 0.7246402468039947 0.3372248244635266 -0.9897119711869808 -2.628881984410193 -4.877794047401612
-5.351830452531934 -5.385812227048875 -6.862684982360713 -6.911964205122811 -5.726969316412634 -1.8586503690593132 -0.09984826195555004 0.8409585381862364
0.31582695079197903 1.3392169940077812 1.7410531156208804 0.00957282242044132 -0.4941952258927531 -2.052498178761982 -3.3333974438504526 -5.839955844569328
-4.993249019840895 -6.45286491102833 -6.2011014003298435 -5.71118744667583 -1.713014490173502 -1.02269460282055 -0.2695909000926456 0.5213132733799709
1.2852623313404488 1.519506550069092 1.2718010793015504 -0.7936214580849096 -2.278686422029671 -3.354570403353208 -4.726098933410012 -5.118643248031101
-5.082358627380722 -5.292603454774706 -4.157848975891459 -1.3753815628044843 -0.6290815527324795 -0.5197674586125788 0.7690813907414776 0.24662100937160372
1.1534467440811067 0.741165907786694 0.013648436008854962 -2.128715543670265 -3.5817842774844815 -4.353132336458057 -3.8411770642974497 -4.954862107188738
-4.261158993210389 -3.9348028067548917 -1.9213737530653316 -1.2698742297275678 0.042716267415178366 0.39689196955907297 0.23981495291048577 0.4891906136456441
1.0287567607871404 0.171244035253553 -0.5710994993646614 -1.2166727035479152 -1.381951365756788 -2.1365821328330705 -2.6732167193400205 -3.6759084704119966
-3.434339593087972 3.1135892065160258 4.388594797036891 3.3650581404554267 3.6487432744626815 2.598111682837317 2.0814496646171476 0.3215229653331926
0.5612581906303391 -0.14386655303324936 0.18345150727976123 -0.046714940005041505 0.3426349534861972 1.5428987897876227 1.9568449271199069 1.9897296585113717
3.9604755620440906 3.6916209774353077 4.372006201603403 3.918942588713936 4.195158628481831 2.953022173746156 2.2931203049192126 0.5826406644414965
-0.22577521477659424 -0.41884571923460845 -0.15039221088165589 0.17797031022925036 0.2409992006557884 1.6449610866704227 0.6192118863196805 4.1754484065246045

sampling_frac f8 []
00000000: eb51 b81e 85eb b13f
0.06999999999999999
