figs/grid_search_recon/skmodel/sv-ideal-p=2/recon-cs_seed=24-sf=0.070-skmodel-sv-ideal-n=24-p=2-seed=6-12-15.npz (npz, 250931 bytes, 2 tensors)

recon f8 [12, 12, 15, 15]
00000000: 6b60 9ecc ba64 0440 0d9a 3022 6edd 0640
00000010: f2c6 f737 25e6 fd3f 223b c9d4 7745 f53f
00000020: e934 8fe9 bab2 0440 438f af29 448e f73f
00000030: 4a6b 88cd 451d c53f 2a81 9042 941a c13f
00000040: c945 2b6e e758 f6bf 2575 e885 583c f8bf
00000050: dae2 aa8a ce90 ecbf 0860 69ea b0aa e9bf
00000060: b251 6e4c 8aae ecbf 6d28 957b 451d c03f
00000070: 9ef2 9e6b eeab 0640 577b 6ebc 4497 0840
00000080: 2125 8198 85c6 0440 06a3 75c1 ee6a 0d40
00000090: e547 2f05 e66a 0d40 acb8 60f4 5251 0a40
000000a0: 0b8e f244 9735 fa3f 5ab2 0242 f6e0 603f
000000b0: 716a 704c 76d0 edbf 5eb4 9fbb bfe4 e3bf
000000c0: de8a 145a a3bd 05c0 c490 d6e8 1581 03c0
000000d0: c079 6d54 ebdb 02c0 1498 01f4 2d41 efbf
000000e0: 4b53 3e03 9e04 f43f 7499 6b27 165e 0640
000000f0: ee05 654a ed32 1b40 98a2 eb99 b187 1740
00000100: 3cd3 6263 393b 1240 4da0 8963 4acd 1240
00000110: 4c89 1588 a793 1240 af1f d7b5 67d1 0840
00000120: 196a 7788 c3c5 e13f b919 84d3 b259 e9bf
00000130: 2c22 48b5 cd7f 02c0 be01 e57b 3236 0cc0
00000140: 8913 9158 36dd 06c0 70a9 0703 f8ec 03c0
00000150: f978 2963 69fc e2bf 8254 605a 8584 e73f
00000160: a10b cf6e 3e45 1040 d823 a7fe 996d 1040
00000170: 0f51 3625 b642 1640 d518 a398 46bb 1840
00000180: 61f7 8989 ee55 1840 3786 fa31 5381 1240
00000190: e9bc 56db 1c5d 1240 3227 1575 b4e0 f63f
000001a0: f568 bd0e acf0 e73f 3cfb 2302 fa65 e6bf
000001b0: 1aaf e5ad bd9f 0bc0 335b 3b93 2fcf 0fc0
000001c0: 5ee4 9f02 1799 09c0 f634 4f60 e086 07c0
000001d0: 0c4b e959 a063 e33f 67ab c510 d3c0 0340
000001e0: 366f 8439 7519 0d40 5252 21b5 7b3e 1740
000001f0: 0345 b76e f8f8 1440 3021 97f4 7877 1a40
00000200: d9d8 e88b 0e5a 1540 0ba2 2d90 653c 0f40
00000210: d885 a45e 5a67 0340 8cb1 399e 2072 df3f
00000220: fa8d dcf7 9a1f ecbf da53 e33a 6b5f 00c0
00000230: bab5 5fc1 f860 09c0 9a34 4f99 4442 05c0
00000240: ad98 fb11 50f0 01c0 9110 5dbe bf9f ddbf
00000250: c29e 7980 cc9c 0440 78d6 18c4 36a5 0340
00000260: 1af7 7ba4 421d 1040 d6e5 0a64 892e 1740
00000270: 872a eb44 7bac 1840 6b2b 50b4 4eae 1740
00000280: de91 58c0 e61b 1640 cf63 542c 7772 fc3f
00000290: 50ae 9c18 8f58 fb3f 24fc 310d 0193 edbf
000002a0: f549 5aff 437d 0dc0 7833 dc9b e378 0ec0
000002b0: e89a 2354 4464 10c0 bb92 f779 97e8 0ac0
000002c0: 9be7 f85a 3062 fabf cc01 58d0 1b61 df3f
000002d0: 9860 b3a5 3154 fe3f 937d 04ed 2857 0840
000002e0: 4cfd bbd0 1cb5 1440 5344 4c1d 146d 1740
000002f0: e5ab 1fb0 938b 1740 16c6 e8a9 de00 1140
00000300: d155 10c0 657f 0640 7d61 77dd 68e9 d23f
00000310: c8cf 4f6a 6b9c f3bf 497f f9cb 5192 0ac0
00000320: f1b5 4ee4 1162 13c0 8fca 3555 aa8f 13c0
00000330: eaac cbfe 09fd 0dc0 7f7c 638a f9e2 fdbf
00000340: a7c8 e825 347a ca3f d082 6ec6 4b8f d33f
00000350: f962 1b00 68c7 0040 2604 f2ed 8344 0b40
00000360: 7cfb afa1 714d 1040 3e16 e9a9 002f 1240
00000370: fb91 511a 4743 0940 e156 67fa 5ec9 f13f
00000380: 436e 5629 7f8f c5bf e1e9 d7dc c5d6 fdbf
00000390: 18ab d5ff 4d46 11c0 674c a091 6333 0fc0
000003a0: cce9 0b17 1966 15c0 93d9 e254 e851 14c0
000003b0: 7fd1 0935 40fb 05c0 5b54 34c3 b66a ebbf
000003c0: f664 4a14 1186 dcbf dcfe 4879 fa50 f63f
000003d0: d24d 648a 4e4a 0640 8017 ef34 a132 1040
000003e0: b8f5 d8bb a7c1 1540 3774 9dc6 6a9c 0740
000003f0: f102 e6b2 c882 cd3f 52f1 2cdc ae24 f5bf
00000400: 99d9 01e4 f623 03c0 b7e9 2fc2 333b 18c0
00000410: 00cf 0307 07ea 1ac0 0241 86ab c3fa 17c0
00000420: 75a6 4b37 699f 13c0 5f25 ede1 3fa0 10c0
00000430: e158 212c 995a fcbf 4b33 ceb5 7470 ebbf
00000440: dc77 e965 dcec f03f ae84 866f 3a09 0540
00000450: e715 e8e5 dc4d 0740 74d2 9fb0 9702 0b40
00000460: 12fa 250c 88a3 0340 c974 2256 dc9f d13f
00000470: b470 ce87 8938 f9bf 6bfb e604 4b25 09c0
00000480: db86 ab65 4290 14c0 5877 b612 cad4 18c0
00000490: b5a0 904a 230c 1ec0 4efc 30c4 ec97 17c0
000004a0: 05de ddcb 6d14 14c0 e026 fc81 81b4 12c0
000004b0: 84c9 7833 10b6 09c0 13d0 59a6 4a82 bbbf
000004c0: 42c2 7f6f bcbf e13f c83c b47f dbf0 0440
000004d0: b9bd 0882 4e75 0440 5303 0a7a f43e 0540
000004e0: 6102 8933 8eab e4bf 599e af93 7e84 f8bf
000004f0: a680 e143 32bf 05c0 4b01 354c 0545 16c0
00000500: de0d d084 80e2 1cc0 a663 ada6 64c8 18c0
00000510: a89e e04a d275 1cc0 bfe0 1e96 3c09 16c0
00000520: 3d55 0126 187c 11c0 dc78 6bf4 b96b 06c0
00000530: 0633 e1c0 3fdb fbbf 7c74 4c07 7bef cb3f
00000540: 0118 fcdd e217 0040 ed6b fa3e fdfe 0240
00000550: 9f26 0c00 cc9d 0540 d793 0118 d912 e83f
00000560: 382d 72a8 3e83 f3bf a75c 28f7 84b7 05c0
00000570: ac42 4c0b 7d69 14c0 c64c aff9 c460 15c0
00000580: 0575 0955 eceb 19c0 29b2 276d 0e93 1ac0
00000590: 6856 b69f 00e7 19c0 b456 43d9 cc26 20c0
000005a0: a0aa 36b8 cb91 12c0 fae6 a389 03a0 ffbf
000005b0: e8bb 46d1 8152 e33f 59f9 4299 569b fc3f
000005c0: 9e07 7110 4795 0040 8244 0bc2 baf8 f93f
000005d0: 2b95 323d 3760 f13f bbc3 90cc 4f2a b9bf
000005e0: 2b43 73d7 189f fbbf 259b b932 e83d 11c0
000005f0: 837a 5c35 ed7a 16c0 5761 05ac 85fc 15c0
00000600: be06 b2d3 c1d8 1ac0 4df4 5cbe d9e0 14c0
00000610: a5ec 542b b0e5 13c0 1243 97f7 6833 12c0
00000620: d209 eb83 f9f8 05c0 d165 a509 9e1f cd3f
00000630: eee9 d831 be97 e43f 8ea4 715a 7872 f93f
00000640: b201 ceb0 0d6e ff3f c142 05ea e5d6 d93f
00000650: fe89 48f0 dca5 f1bf 015f 8360 8678 f7bf
00000660: 9c33 a22d e401 01c0 910b e044 8d8b 09c0
00000670: 7ec8 20e7 3c79 13c0 ed15 062d f3ee 10c0
00000680: 784a 99d5 1c02 11c0 e7ac 9723 bdb9 10c0
00000690: 8a06 4e54 d58d 08c0 0f96 0fe5 765b f2bf
000006a0: 8c25 d9c9 cba3 b2bf 53fe 90c4 b2d5 f03f
000006b0: e62c 2a37 ff23 dbbf 557d 500c 4ca9 db3f
000006c0: 24fa 44db 63c9 df3f b798 238d ee64 d0bf
000006d0: eb1c e749 0e61 e8bf 8809 34a8 f37a 03c0
000006e0: c8f9 1cf2 a3f3 00c0 298f dd0a 35d6 04c0
000006f0: 9248 1ee0 6956 09c0 c635 c2bc 879b 06c0
00000700: 6df1 8b1c 7d19 0dc0 aae9 c772 4df9 0d40
00000710: 9a81 c96a 8fc3 0c40 d782 5117 d3f9 0a40
00000720: 4314 1b6a f267 0a40 11be b6b4 3685 fb3f
00000730: c6ba 817d 01b5 0240 2b63 0731 c052 f33f
00000740: 3214 3f6a a53a e33f 1a3d 3d3d eb18 ef3f
00000750: 0a76 2bf1 927f e73f 8e8d 96ce 7c40 e93f
00000760: ce0c 0a05 900c f33f 1c4a 2f14 bae0 fe3f
00000770: fdf4 f959 da08 f23f d6e0 c1c4 447e 0240
00000780: 0e4d 360b 97d4 1040 364e 59db a9f8 0e40
00000790: 9ac6 aa5b 43f9 1040 3f36 3a26 de08 1340
000007a0: b0d5 c063 c578 1340 568e 5f88 c374 0e40
000007b0: 6a40 3783 2231 fa3f 8ea7 6176 ad76 ea3f
000007c0: 4038 c02a e139 91bf b001 5cfb ca57 b1bf
000007d0: b790 4083 251b e8bf 94a4 aca9 8771 ed3f
000007e0: 20d1 ba28 bc14 f53f b660 5141 5b1b 0040
000007f0: 718d ddea 8518 0540 cbe0 7668 46ea 1240
2.5491844163735116 2.858120219333847 1.8686878381963052 1.329459983058492 2.587270569498845 1.4722329738951465 0.1649558309153128 0.13362363100260072
-1.3967050841787219 -1.5147328596861567 -0.8926766117429807 -0.8020863130905136 -0.8963061802665406 0.125893292754259 2.833950844562721 3.073861572381627
2.59693450111503 3.6772132028603464 3.6771965413145034 3.2897090045945188 1.6380837147961553 0.0020603952144340578 -0.9316970341636318 -0.6216734566238633
-2.717596725227266 -2.438030070350665 -2.35738244971364 -0.9767064824816338 1.2511272551248165 2.7959406928741206 6.7997333168182035 5.882513432509448
4.557836106211479 4.700479083323512 4.64419376975486 3.1022485929751933 0.5553910889969443 -0.7921995288059441 -2.3124040758741753 -3.5264634780180293
-2.8580138129495407 -2.490707420035669 -0.5933119713552336 0.7349268689309982 4.06762097490983 4.107032755805413 5.565147954406952 6.18288649077859
6.083917759938999 4.6262939271123775 4.590930392426551 1.4298595975437363 0.7481289184463821 -0.6999483148391401 -3.4529985032767287 -3.976164961098584
-3.1997509198231873 -2.940857651154711 0.6059114223556619 2.469152575523754 3.637430619577482 5.811018781813418 5.2431351947173 6.616672345852109
5.3379461155766075 3.9044905914236145 2.4254653352697737 0.4913407845658859 -0.878858074287961 -2.046591243803488 -3.1723494632085165 -2.6573574044510453
-2.242340221872914 -0.462875305082215 2.5765619313350223 2.455670864112843 4.028574533525694 5.795445979275845 6.168438984731103 5.920222108262219
5.5272474340494835 1.7779456836344598 1.7091208421142206 -0.9241948373527333 -3.6861648511342033 -3.809027879388335 -4.0979169031840925 -3.3635701683691344
-1.6489718965153546 0.49030204149314893 1.8955551598246867 3.0425585286136054 5.1768677344073915 5.8565220430183045 5.886305572445939 4.250849394638427
2.812205791948806 0.2954961931950704 -1.2256883766940394 -3.3214450774684434 -4.845771376899834 -4.89029820576492 -3.7485542207629026 -1.8679137616925627
0.20685436106720553 0.305621093541089 2.097366333804868 3.4084547605020985 4.075628782621489 4.545900969363684 3.1578504615920315 1.1116628438371026
-0.16844167250097727 -1.864934790296154 -4.3186569189226915 -3.900092256264134 -5.349705085851792 -5.079987837167567 -2.747681059229023 -0.8567766010843444
-0.4456827829504414 1.3947701204014527 2.786282616792712 4.049443080037122 5.439116416089227 2.95137553375255 0.23055371032025776 -1.321455822048922
-2.39256075029989 -6.057814630674719 -6.728542432410677 -5.994887046879969 -4.905674804680179 -4.156493692492716 -1.7721187328184487 -0.8574775267494287
1.057827375501339 2.6295059884001466 2.913018985886754 3.3762658880971745 2.454849333676301 0.27538212215024466 -1.576303034299639 -3.1432094939222472
-5.140878285020984 -6.207802097689488 -7.511853375508669 -5.898364129533617 -5.01995008985205 -4.676275282874229 -3.2138980885731048 -0.10745684205340948
0.5546552827564215 2.6176061608199213 2.5572786482732366 2.6557397398286553 -0.6459418303057413 -1.5323472756371272 -2.718357591933528 -5.567403021559879
-7.221193385313624 -6.1956964534119034 -7.1150600146863 -5.509020181307448 -4.371185869056089 -2.802600774316586 -1.7410275968897522 0.21824586731318962
2.0116631834562217 2.374506465928326 2.7020492557247304 0.7523007840032915 -1.219542177192876 -2.7146090802376253 -5.103016068009918 -5.344501401256997
-6.480393723203865 -6.643609719798897 -6.475588317398071 -8.075781621427588 -4.642378691040591 -1.9765658737728118 0.603821667425902 1.7879243838102268
2.072889450501818 1.6232249812931347 1.0859901800661855 -0.09830187553667617 -1.7263420501732962 -4.310456078127378 -5.620045503396457 -5.496603668049224
-6.711676891079774 -5.21958062593792 -4.974304844911932 -4.550205105407047 -2.746569662676145 0.2275273844814323 0.6435233090954264 1.5904468090978159
1.9643685251649967 0.40374133924073524 -1.1029939065998629 -1.4669250268979683 -2.125923496735096 -3.19314054306728 -4.868396388412405 -4.233349517342032
-4.252063119393476 -4.181385570652515 -3.0692545496284014 -1.1473301837626229 -0.07281182935653002 1.0521724394201513 -0.42407207858259566 0.432208072686952
0.49666687405616217 -0.25616039069280866 -0.7618476336873788 -2.4350350514297965 -2.118965045460957 -2.604593357931567 -3.1671941289178642 -2.8259424921768383
-3.6374456625182376 3.7467297522791414 3.5954883902306394 3.371984655547162 3.300755337668791 1.7200228747495923 2.3383817486968352 1.207702819365475
0.6009089541554486 0.9717918582991019 0.7343229971262997 0.7891220126079348 1.190567035374261 1.9298649586168102 1.127161361189166 2.3116546031634284
4.207607436360616 3.8714177261952285 4.243421013162925 4.758659932425473 4.867940481800744 3.8070135740434052 1.6369958043688038 0.8269870102060268
-0.016822355493836705 -0.0677458633108532 -0.7533137858886424 0.9201086343720299 1.31756225500164 2.0133576491317298 2.6369741772520503 4.728784210448974

sampling_frac f8 []
00000000: eb51 b81e 85eb b13f
0.06999999999999999
