figs/grid_search_recon/skmodel/sv-ideal-p=2/recon-cs_seed=24-sf=0.010-skmodel-sv-ideal-n=24-p=2-seed=6-12-15.npz (npz, 251721 bytes, 2 tensors)

recon f8 [12, 12, 15, 15]
00000000: 5205 5627 b438 0540 adf3 e794 78de 0040
00000010: dc08 2702 adea 0b40 7300 1229 0b9d fc3f
00000020: 1438 9723 11bb 0440 d526 fc8a c9e9 f33f
00000030: 42d5 7ce9 e0ff f63f 6cf7 94d5 e106 ef3f
00000040: 6ee5 4c16 80b6 e3bf 3e95 4e0f e436 0840
00000050: 51aa 4651 2188 f63f e419 c43c 4377 0440
00000060: d86d 90bd 1871 0540 4a33 66ce b0b6 0240
00000070: c24f 585b d9e2 0140 2160 449e 338b 0740
00000080: 198d f1a3 815d 0340 1701 5536 562b 1140
00000090: 1861 7df5 d554 0540 9a18 5139 c71f 0840
000000a0: 36c2 1fd9 9527 e83f 384c c13e aa2c dabf
000000b0: a429 0bf9 b032 d23f 17f0 e934 6ee8 e43f
000000c0: 2b9a 1f3d 1f13 e43f 719a c362 dc34 1140
000000d0: 7254 f0ba 3c16 0340 b060 f0b0 a27c 0440
000000e0: 4392 fd73 b95e f53f 79bc 757a 051d d13f
000000f0: ff61 51a5 fe4e 0b40 d459 a65e b87f f63f
00000100: 44fc 25ec 9536 1140 eec8 ca81 59a3 fe3f
00000110: 9f3c b5eb 195b 0840 976f f898 5be6 fa3f
00000120: e90a 2fa8 9045 bd3f a48b f305 4c69 f83f
00000130: c3e9 1653 42bb fc3f a995 ad94 3f84 983f
00000140: 0e1c a4d4 5972 f43f 06f5 e9b9 2f65 fe3f
00000150: 5c4d 321b 0be4 0640 1074 94e7 ab8f ff3f
00000160: e9d8 6eb9 093e f83f 171d f390 3506 0440
00000170: e911 a5e4 1be8 0040 8b4e ea14 d471 d43f
00000180: 092b 9e73 b858 0040 965b 062f 54bd f33f
00000190: fdcd 6d3a 3a38 0940 072e a763 592e e03f
000001a0: eb3d 694c 830d 0140 e9ef bc2c f327 f73f
000001b0: b82f 4896 2192 cd3f 1b13 efe7 0b58 0240
000001c0: 82a4 ef51 1d2f c93f dadc 531d ce41 fd3f
000001d0: 4e79 0eb2 76a6 fc3f 7c7a cd02 e6a4 ea3f
000001e0: 7ee3 7410 6ac3 f73f 7bd9 5a8e 8e18 f73f
000001f0: ca0d 3370 67d6 0840 18ed ff6d 9ff7 f03f
00000200: 58d6 cdff 47b3 f0bf 6aff 72d6 1f97 ee3f
00000210: 2185 cec5 2573 edbf b923 fabe 5563 b1bf
00000220: 2796 b1e4 ce28 f83f 5796 10b0 a571 fc3f
00000230: dc99 1308 fce0 f53f 4f5b d168 f6ef e03f
00000240: 95e9 eeef 9981 e13f c558 bc7e 725d 0440
00000250: 4bd4 513a d026 eebf c46e dfe1 477b 0840
00000260: 75d3 f127 6b09 f53f 6cab 781c 085f e93f
00000270: ee78 de07 e8ba eb3f e340 fb37 62a6 0240
00000280: fcfd 6306 4a6e 0b40 794c e5dc 143d f5bf
00000290: 5e11 9824 8086 e83f ebe6 6cab 516a dc3f
000002a0: 4cf9 ae56 276c efbf 0cf4 4977 17f6 b33f
000002b0: c377 fb85 f29c d13f 9156 01ad 17f2 ff3f
000002c0: fc33 241a d2fe f13f f213 5deb 2ef7 f1bf
000002d0: 36b2 27db 726c 0140 c84f 3d6b 2138 fbbf
000002e0: 330d fd29 1a4f 0440 b910 3d82 2463 f03f
000002f0: 27c4 fd5b 5d51 eb3f d3b5 e4d9 a36c f33f
00000300: 8f48 75b6 d4cd ec3f 9589 daab 90d7 e73f
00000310: 263c 94e1 0c1b b9bf 08b1 924c 51f6 eabf
00000320: 888f 2045 8c97 f23f 38bd acfa 179c d1bf
00000330: 76fb 9eac 009e f9bf 3aea d209 b427 f93f
00000340: 52f0 c735 ff0a d0bf b0cf fd2a 1afa 0940
00000350: 4d1f e2a4 1657 d23f 1ff1 f2da ebd4 d0bf
00000360: 709c 6b92 97b5 b13f 6e57 8b66 cef0 f3bf
00000370: f28c b55f ae5a e93f 5fc1 fd0c 61ee c2bf
00000380: 3461 1b2f 56a9 e73f c264 45e1 5fff f93f
00000390: 29cf d641 5d84 d6bf e839 9ad6 221f d5bf
000003a0: e40a b485 c728 e03f 29c2 8a7a 758c e8bf
000003b0: 15de a1cf 568c f93f 69b9 99e7 a02a 07c0
000003c0: b337 8ae7 5395 bdbf 5b01 af8e 0289 f7bf
000003d0: 502a ec3f f86c efbf 7ce2 6b8e 4e4c f2bf
000003e0: 6057 1897 90d2 e73f 88aa 917f fb51 e33f
000003f0: 6282 b431 fa51 f8bf a75a 926c 1e91 b0bf
00000400: 15b0 52f0 b872 d2bf dc16 4cc1 5e96 03c0
00000410: 0690 935e 2dc4 f6bf 54da c9c7 fef2 dfbf
00000420: 9551 1712 614a eabf e560 5720 341d e2bf
00000430: 8107 8eb1 c11c efbf caf3 78e2 d251 ef3f
00000440: cc86 a04d 7bba 0cc0 0f1e 4ed8 7723 e6bf
00000450: 3c05 eb0c 424a febf c9ae 621b 8c14 05c0
00000460: 8b8d 61dd 23d0 e8bf 495b eaa9 3924 a43f
00000470: 724c 2b92 1173 fbbf c8cd 340e 7e43 cf3f
00000480: 0b33 3ecb 6c71 eabf a437 dc27 63d3 b8bf
00000490: 46f6 ed11 2bd7 00c0 edd4 2a38 0624 05c0
000004a0: edce aedd 0f6b df3f be7e cdfd 9242 0ac0
000004b0: 3aff 364e c17f f1bf b911 2a09 1c5d 00c0
000004c0: de80 dc9c 7447 fbbf 4c1f bb3a 7624 e6bf
000004d0: 45b1 4426 93cf 00c0 b177 d5ec aa17 f23f
000004e0: 8327 c91e b988 debf 824e 77a1 fc39 00c0
000004f0: 0b4a fc26 81b9 f1bf 9901 354c 0545 16c0
00000500: 4401 7cd3 22bf f4bf 6ff0 87bf 3518 07c0
00000510: 05d4 f65d e57f f7bf 3ed7 41ea 749b fbbf
00000520: 79c2 6e1d b933 05c0 0526 e433 c865 f6bf
00000530: 3b3b 938a 1f94 08c0 f1f1 d8f9 da4c fbbf
00000540: 699a 7cc5 f5f2 ebbf d4a5 13d1 fad4 c13f
00000550: 71c5 8c86 c607 e93f 1550 0628 6d86 d8bf
00000560: 971f e1ef dbe9 e1bf 4a50 f00d 1bdd f5bf
00000570: a57a 19a3 1813 05c0 0c92 4253 ed78 09c0
00000580: 3ea0 c0ca 52c3 efbf c58d adce 1459 06c0
00000590: 6996 a177 e212 ecbf 096f ffd5 2c7c 04c0
000005a0: 3e5f 7809 8e34 f4bf 98c1 f093 7294 03c0
000005b0: c055 ff86 e7e5 07c0 ca85 31e0 51a9 e3bf
000005c0: 3ce2 d960 0177 10c0 47ff 3deb f53c f9bf
000005d0: 2bc1 e973 2829 e9bf 5b92 074a 2819 e1bf
000005e0: 48b8 6a58 858b ddbf 76a9 acda 4949 f6bf
000005f0: 672e 9cc0 dc35 e4bf 9d0a 056d f62e 04c0
00000600: a457 c9fc 9c07 0dc0 5eaf bc79 d787 fcbf
00000610: 2864 b0c7 2333 03c0 7f97 b04c 7177 09c0
00000620: b7df c49e dbfc 0bc0 ac6b 9eee 04bd f4bf
00000630: e001 c3cf 2869 f2bf f720 38b9 ba2b c9bf
00000640: 16c7 35c4 bddd f2bf 6d57 4c2c 171c 06c0
00000650: 0630 1f28 6565 07c0 8644 c16a 7bbb 02c0
00000660: af65 0de1 70f9 03c0 4843 2ecd 5a79 f6bf
00000670: 63bb 77f3 6eb3 de3f 263e 3b8b 79bf f6bf
00000680: 4596 15e0 c7c4 febf 276b f84c a422 12c0
00000690: 5b5a a09c 72c0 0dc0 d84b 0054 2688 11c0
000006a0: df86 4c71 0138 11c0 fff7 7185 b73c fabf
000006b0: 3a0e d458 f4c6 0ac0 a870 d3c1 61c3 ebbf
000006c0: ca2d e9af c40b c13f c3ab ffff d97a f9bf
000006d0: 6077 1353 a870 e9bf 1d19 34d2 1477 05c0
000006e0: 0294 0054 f022 03c0 8ba9 5320 7100 04c0
000006f0: 3dbe c85a 212e 14c0 4795 eab6 1182 04c0
00000700: 480b 27f3 3f31 03c0 f58f d588 e05e 0940
00000710: b935 b822 154d 0440 54ba c270 df88 1040
00000720: 9ba9 d3bc 62a5 0e40 72f8 e316 2707 0340
00000730: 7aa8 6349 6d28 0c40 18ea 4e6a b7c3 f73f
00000740: c435 424a 127d 0940 4683 03f1 d958 0540
00000750: 96e8 39b5 7ac2 0940 5f0f ea9b 5768 f43f
00000760: d3bc a8be 20e2 0540 38f0 dd67 4bb7 fc3f
00000770: b895 996b 47fe 0f40 2106 962c d55c f03f
00000780: 21f0 e7f0 f178 1340 0462 57f7 b1dc 1540
00000790: d290 bfca b610 0340 0eae f4e0 5d91 0a40
000007a0: 401e 2587 2101 0d40 cc62 9862 41cf 1140
000007b0: e694 ee97 2832 0c40 f2f6 5322 a09d 0a40
000007c0: 0a01 6a81 a50e 0840 733c 6bbc 7563 1140
000007d0: 0658 fa0a 8f43 f43f f2eb fbd2 faf4 fc3f
000007e0: 1238 19f9 5e12 e03f e0a8 3106 10b3 1140
000007f0: 759d d128 c0f4 0740 9033 f0d2 9e2b c53f
2.652687365830084 2.1086284287725534 3.4895877998506943 1.7883407215413427 2.5913412838481324 1.2445769719219488 1.4374703522310743 0.9695901080628864
-0.6160278735689368 3.026802177034056 1.408234899029271 2.5582337138505284 2.6802229699803597 2.3392044186533996 2.235766137726359 2.942969547711997
2.420657425698334 4.292321061075447 2.6664237193000524 3.015516708171231 0.7548321953491441 -0.40897613647865994 0.28434395142235247 0.653372863147072
0.6273342317406948 4.301621955097844 2.3858580212204794 2.560857183776612 1.335626080596868 0.2673963256738215 3.413571635767084 1.4061816880472309
4.303306283777662 1.914880282402517 3.0444830336269457 1.6812396979721365 0.1143427286724933 1.5257072670435514 1.7957175489124075 0.0239419874664201
1.2779177004138123 1.8997037184011005 2.8613493084646233 1.9725760503854453 1.5151459926105935 2.503031856936683 2.11333445194963 0.3194475368738742
2.043320563568504 1.2337228619487397 3.1524548115501134 0.505657858500343 2.1315980882279653 1.4472533938960572 0.23102207029330457 2.2929914588770663
0.1967503213957436 1.8285657067879613 1.7906405406316313 0.8326292090167295 1.4852085726581374 1.4434953270661868 3.1046894803600695 1.0604547783721667
-1.0437698356958176 0.9559477985821847 -0.9203060973560789 -0.06792198097731629 1.509962933859592 1.777745902779676 1.367427856015289 0.5292923018667838
0.5470704733082125 2.545628538248908 -0.9422379626327112 3.060195698386311 1.3147994575822086 0.7928505474168168 0.8665657190029188 2.3312420247603867
3.4288521289124656 -1.3274124745119293 0.7664185251929145 0.44398919811975074 -0.9819523518597548 0.07797381079031157 0.2752043064518796 1.9966046102539716
1.124712087740817 -1.1228474801912367 2.177953445576601 -1.7012037457507052 2.5386241226530273 1.0242047393267468 0.8536822125153137 1.2140234481297412
0.9001258433948055 0.7450641018406708 -0.09806900508213853 -0.8425680633131671 1.1619990062981476 -0.2751522014613843 -1.6010748618134278 1.5721931823487822
-0.2506711983876403 3.2471202238757186 0.2865654573620205 -0.26299568540322754 0.06917712521281927 -1.2462905889164761 0.7923194760627708 -0.14789975294435018
0.739420978551641 1.6248472976351853 -0.3518288748702952 -0.33002539593954205 0.5049779521362692 -0.7671458619498185 1.596762476981785 -2.8958147138393326
-0.1155598106654157 -1.4709497045115174 -0.9820519684302074 -1.1436296046578311 0.7444537116123051 0.6037576190550036 -1.5200139943700823 -0.06471433783222356
-0.28825210064928913 -2.4484229184480295 -1.4228948301688447 -0.4992062521991205 -0.8215794900266241 -0.5660648948351336 -0.9722603290431239 0.9787382529535702
-3.5910554947484794 -0.6918296074590574 -1.893129396878364 -2.635032857846316 -0.7754077266549059 0.03933887671626352 -1.7155929288608402 0.24424720472016603
-0.8263458222951113 -0.09697551463270188 -2.105062618326687 -2.642589987570878 0.4909095444556744 -3.282506926377976 -1.093690209891021 -2.04546363029132
-1.7049451949497363 -0.6919509074295802 -2.1013548841203 1.1307782412836611 -0.47709491735860626 -2.028313886121226 -1.1077891848441392 -5.567403021559948
-1.2966640721425202 -2.8868212664947843 -1.4687246008372778 -1.7254532957717426 -2.650255422537438 -1.3998491312980843 -3.0723257852727364 -1.7062635192552273
-0.8734082085764615 0.13931212624383582 0.7821991565635199 -0.38320473583849096 -0.5597972569603255 -1.3664808792573404 -2.6343243353033636 -3.1840464119616225
-0.992593189240331 -2.793496718093339 -0.8773052536532308 -2.560632392747611 -1.262830769532186 -2.4474841649864167 -2.987258009593205 -0.6144189242151523
-4.116216195391242 -1.5773829640529173 -0.7862741722038086 -0.5343209691896605 -0.4616406787344016 -1.3928926984759449 -0.6315749895015416 -2.5229309575236827
-3.6287173985428627 -1.783164477858882 -2.399970588751348 -3.1833215705291305 -3.4984657672721045 -1.2961472817466797 -1.150673686570478 -0.19664701503666723
-1.1791360535102675 -2.7637160740659312 -2.9245093473928163 -2.3415439930182087 -2.496797331067419 -1.4046276106712003 0.4797017457594192 -1.4217467726447324
-1.9230421784681238 -4.533829882299677 -3.718968604701599 -4.382958710210879 -4.304693002982929 -1.6398234570219754 -3.347145742389128 -0.8676003251707884
0.1331716402950021 -1.5924930572461882 -0.7950021383837615 -2.683145181860836 -2.3920599520374717 -2.5002157712489796 -5.04504911279906 -2.5635103502596936
-2.399047755841284 3.171326703088193 2.5376379692522417 4.13366485775494 3.830754733285358 2.3784925258942673 3.519739697793793 1.48528234030403
3.18607004179532 2.6683844403454797 3.2199606092736515 1.2754741754915455 2.7354140181774738 1.7947496468832593 3.9991596609349607 1.0226642362253033
4.868110431820271 5.465522637089183 2.3831611480437482 3.3209798407240276 3.625552230663544 4.452397862006091 3.524491488426622 3.3269655877946827
3.007151614234435 4.347128814740347 1.2664938381981314 1.809809517056007 0.5022425523000058 4.42486581495379 2.9945071400613252 0.1653936891529182

sampling_frac f8 []
00000000: 7b14 ae47 e17a 843f
0.01
