figs/grid_search_recon/skmodel/sv-ideal-p=2/recon-cs_seed=16-sf=0.090-skmodel-sv-ideal-n=16-p=2-seed=7-12-15.npz (npz, 251091 bytes, 2 tensors)

recon f8 [12, 12, 15, 15]
000000 b8 f7 fc 6d ed 9b fe 3f 26 a0 9d 37 fc 7e 04 40
       1.9130682274257946 2.5620045037249097
000010 5a 5a 2d c3 4f f4 01 40 d9 4e 04 b6 25 21 fa 3f
       2.2442927597251527 1.633092604640231
000020 f3 57 ee b7 db 78 fa 3f 23 7f a8 e2 48 b7 e6 3f
       1.6545064148717727 0.7098736216466687
000030 a7 7c 42 87 40 6a db 3f e7 c4 82 24 b9 c3 b4 bf
       0.4283601113219881 -0.08111149922730797
000040 19 32 b6 cb b0 c7 f2 bf f0 a6 13 a3 fb 0c e2 bf
       -1.1737525899399144 -0.5640848336308562
000050 7a 47 0c a9 e0 1c e9 bf db bd 1d 3e 1b 93 ed bf
       -0.7847750951498107 -0.9242073262411695
000060 e1 fc 39 97 18 6f 93 bf 41 de 6c a1 10 1f e7 3f
       -0.018978485326894726 0.7225421097600205
000070 2d 28 72 13 19 7f ef 3f 39 5a f1 7d 3e ef 02 40
       0.984264886837314 2.3668184127120893
000080 41 97 90 9e a2 37 0b 40 17 ea 62 8a 46 b9 08 40
       3.402165640628397 3.0904665767132076
000090 0b c9 b4 f0 23 b3 0b 40 62 e2 21 e4 9a 94 05 40
       3.462470894353037 2.6975610564079924
0000a0 50 08 ac cd e7 ff 00 40 86 c9 79 a2 ae ef e8 3f
       2.124953848660006 0.77925807698766
0000b0 e9 a4 b9 7f 48 7f b5 bf a2 ce 64 1c 7a db f4 bf
       -0.08397343748369547 -1.3035832509166672
0000c0 cc 75 09 1f 8c da f8 bf b4 d1 b5 9c 96 9b f4 bf
       -1.5533562862759593 -1.2879854318135644
0000d0 02 65 63 3d b4 93 f1 bf bd 4b a8 07 a5 4f df bf
       -1.0985605619410426 -0.4892361235408165
0000e0 e9 01 b2 ce d3 48 e4 3f 99 f6 bb 10 ca fd ec 3f
       0.6338900601404563 0.9059801413383922
0000f0 ad da 14 04 67 43 0c 40 fd 10 8d 75 dd cc 12 40
       3.5329113310684392 4.700063549742706
000100 7d be 12 ab 07 f6 10 40 e8 f5 74 d6 47 de 10 40
       4.240263627070473 4.217070914162356
000110 64 2d fc b3 5b e7 0c 40 9f ff 34 96 36 c1 04 40
       3.6129678784688384 2.5943423972057214
000120 39 35 e7 68 90 df f3 3f 9e 97 07 7c b0 00 d2 bf
       1.2420810792712713 -0.2812920771815416
000130 fb b0 03 87 d6 a4 e8 bf 36 80 61 33 4b 62 f7 bf
       -0.7701218258858086 -1.4614974982323594
000140 95 ab a4 30 d0 8a fa bf fa 2d 5a 88 bd 48 fd bf
       -1.6588899517180142 -1.8302588773975672
000150 d2 10 36 ef 10 fd f1 bf e7 a0 63 23 4b 02 c2 bf
       -1.1242837280452034 -0.1406949923323346
000160 e0 d8 75 15 b3 da cf bf f0 98 ab f9 70 55 14 40
       -0.24886168048732937 5.083438778971171
000170 50 41 a5 ad 01 b7 14 40 a5 93 9b de b4 da 11 40
       5.1787173397172666 4.4635805876213555
000180 28 6d e7 1c 3a f9 11 40 c6 bf 00 c7 44 9f 0f 40
       4.493385745644709 3.952767901144372
000190 3c 50 ae 30 0d cc 05 40 ed 0d 7c 53 d9 91 f9 3f
       2.7246345332332833 1.598107648955984
0001a0 ca 0d e0 e0 e1 bb d5 3f ac 93 2b f8 31 a7 e2 bf
       0.3395924278304078 -0.5829095694613122
0001b0 52 ac bb fb 3c 9f f0 bf fc 3d c4 39 30 ed fd bf
       -1.0388765176128527 -1.8704073196894333
0001c0 97 82 d0 9e a1 20 fe bf 5b 6d a4 de 36 b0 f8 bf
       -1.88296663319503 -1.5430210778202624
0001d0 fc fa 34 c2 23 85 d1 bf e5 cc 1d f4 ab ed dc 3f
       -0.27375120130083963 0.4520063289593977
0001e0 9a 6e 35 db 0c 61 0c 40 a7 48 bb 1b 32 13 14 40
       3.5473878026658214 5.018745835595985
0001f0 9e 34 ee f3 f6 50 14 40 24 32 6f 76 fb b5 11 40
       5.079067050374901 4.427717066323144
000200 9d 38 fd 5c b7 4d 11 40 04 de 6f a1 d5 37 06 40
       4.32589478774585 2.7772629368080306
000210 9c 7f cd c3 83 fb f7 3f 47 f7 14 c3 c4 69 c6 3f
       1.4989049576324538 0.17510280156596478
000220 43 f2 a1 70 bb 35 e8 bf 2f bc 0c d9 f6 a1 fe bf
       -0.7565591049056554 -1.9145420530801507
000230 2d bb e7 99 d5 aa 03 c0 12 2c 6e 09 07 3a 04 c0
       -2.4584152244418847 -2.5283337342020866
000240 a1 89 d3 c8 31 47 03 c0 96 eb b0 68 76 16 e5 bf
       -2.409762925105682 -0.6589920086620278
000250 e9 19 a0 f9 1f ba e3 3f 6a 42 f6 60 5d 97 10 40
       0.6164703250404361 4.147817149191363
000260 c4 b7 b0 b4 16 41 16 40 12 48 eb fd 89 b1 15 40
       5.56356317833519 5.42337795971436
000270 c4 f6 68 e4 72 00 12 40 d4 cb bf b5 a0 2a 11 40
       4.500438279062738 4.2916286848366845
000280 b2 e7 86 9a 1b 41 05 40 49 44 87 76 47 27 f3 3f
       2.656790930978752 1.1970896368041102
000290 72 6c 97 94 1c fa 01 3f 89 4f fc 70 b2 58 ef bf
       3.428840370719382e-05 -0.9795772749662187
0002a0 9d fd 75 07 b5 f9 03 c0 6c 4a ca 94 8c 6d 09 c0
       -2.496927316940584 -3.1784907936319566
0002b0 21 43 c0 ba 7e 50 08 c0 e1 90 e6 e6 a5 6b 0a c0
       -3.0393042173312925 -3.302562526618303
0002c0 15 3c bf e2 ef 70 fe bf d2 ff 90 59 35 80 e6 bf
       -1.9025725228600596 -0.7031504391998118
0002d0 71 99 d3 2a 71 5d 07 40 26 bc 31 de 10 a4 13 40
       2.9206260057282454 4.91022059610899
0002e0 f6 92 25 75 88 ca 12 40 40 7e 17 c6 92 ea 13 40
       4.697786169451083 4.97907552259818
0002f0 0a c0 05 6e 64 e8 0d 40 56 fe 7e c7 ef f5 08 40
       3.7384728045944984 3.1200862489347783
000300 81 5b 55 e2 c8 27 fa 3f 1f 52 5d 60 68 36 d2 3f
       1.634713062396003 0.28457078371619277
000310 46 3f aa c9 f1 ca f3 bf 43 52 6e f5 8d 04 01 c0
       -1.2370469930210262 -2.1272238897602462
000320 ca 59 c5 2c d5 0a 0e c0 c3 bd 64 fe e6 cd 0c c0
       -3.7552894113279978 -3.600538241814975
000330 21 be f9 11 94 d4 0a c0 47 35 09 52 bd 64 0d c0
       -3.3537980465259953 -3.674189225107202
000340 17 02 96 8a 7b 97 00 c0 01 90 4b 98 e2 d3 02 40
       -2.0739661051777705 2.353459539228425
000350 be 1b 94 e0 b9 ff 09 40 20 c8 32 f3 c0 fc 0c 40
       3.249866251487645 3.623414897906528
000360 7f 17 28 2c 69 68 10 40 64 15 1c 92 0e 5c 0e 40
       4.101963701197632 3.7949496664829656
000370 29 17 f1 7d b9 2c 02 40 fd 2a 99 3c 39 02 f5 3f
       2.271838172836301 1.3130428664323397
000380 71 6f 1f 03 13 a6 bc 3f bd da 30 84 92 5f f8 bf
       0.11190909219970792 -1.5233330882744405
000390 75 27 d1 91 ab f3 02 c0 19 b9 0e b7 7d 83 0d c0
       -2.368979586787584 -3.6892046262138476
0003a0 28 6f 3e 19 64 bd 0d c0 d0 e5 60 f9 af e7 0e c0
       -3.7174760791948707 -3.863128612775405
0003b0 25 e9 57 68 58 df 0a c0 72 2f f4 92 a0 48 fa bf
       -3.3590553428486083 -1.6427312603363728
0003c0 54 84 2d de 43 4a 01 40 42 48 00 c2 6e 0d 0c 40
       2.1612622602120073 3.50655891002046
0003d0 8f d9 c8 aa 3e e9 0d 40 c4 de 59 ac 90 a8 0f 40
       3.7388890593094355 3.957307192318554
0003e0 ee 0e b3 65 4d f8 0d 40 64 25 f0 05 91 30 04 40
       3.74624137356465 2.523714109793831
0003f0 7c 40 c7 af b4 31 ea 3f 5c a2 8b 59 33 1e d1 bf
       0.818567603413626 -0.26746829743072964
000400 b6 bf a7 78 d0 5d f5 bf 63 29 f3 ff f1 b5 06 c0
       -1.3354038918587157 -2.838840484245496
000410 c1 57 d8 1c 86 23 11 c0 a8 67 4a f0 48 55 12 c0
       -4.284691286758915 -4.583286051312747
000420 27 8c b5 c6 eb dd 11 c0 0a 0e ea ac 8c 79 12 c0
       -4.466719727354792 -4.618700696740698
000430 20 74 3b ae 8d 00 12 c0 45 33 69 aa 40 63 01 40
       -4.500540468577157 2.1734631837229323
000440 c0 f3 49 4c 5a 2e fd 3f 6b d0 4c 4a ce a6 02 40
       1.8238165836366846 2.331448154896909
000450 0e 33 e5 f1 af 0d 0c 40 e4 f5 f6 8c 2d 73 09 40
       3.5066832445212475 3.181239224707257
000460 a3 35 7d d0 ab c8 fc 3f d2 1f 6a d2 b7 8e f6 3f
       1.7989919799905258 1.4098432750051768
000470 9d 06 86 94 1c fa 01 3f 24 b8 04 cf 6a 12 f6 bf
       3.4288403699467655e-05 -1.3794963919313057
000480 b2 79 eb f1 7d 4c 03 c0 12 98 9c 4e d8 13 11 c0
       -2.4123495960222607 -4.26937983351492
000490 e5 c2 d4 74 17 9c 12 c0 7c 2a 8c c1 82 f1 15 c0
       -4.652433228956146 -5.485850357227374
0004a0 a2 b3 54 52 46 b5 17 c0 15 55 88 74 42 8a 10 c0
       -5.927026068134099 -4.135019131489817
0004b0 84 4c c8 fc 9f 40 d8 bf 1e 12 3b 82 d0 0a d1 3f
       -0.37894439397604907 0.26628506391378604
0004c0 2a 45 80 4e a1 61 00 40 f5 d9 72 42 dc 9f 01 40
       2.0476709492583227 2.2030568305301537
0004d0 80 3a d0 92 c8 ff 03 40 c0 98 06 43 b6 01 fc 3f
       2.499894282321577 1.7504179590410303
0004e0 96 57 b0 fd 32 8f ef 3f 61 75 e7 26 9a 2e cc bf
       0.9862303690776908 -0.22017218494049032
0004f0 b7 48 f0 04 a8 a4 f8 bf 46 ca 0e 05 7c 5e 09 c0
       -1.5401992981829105 -3.171134986413821
000500 e0 93 74 95 fb b8 0f c0 4e 77 2f 2a 92 4d 14 c0
       -3.9653236080362007 -5.075752886912438
000510 50 e2 bf fa f8 f3 13 c0 c6 be 9f ad 4e a6 13 c0
       -4.988254468881294 -4.912409508586
000520 6a 7c 8f c5 17 34 10 c0 c7 68 27 51 a5 76 c5 bf
       -4.050871931917849 -0.16768328154177523
000530 95 fc 75 7b 92 ee e4 3f c1 f8 ff f1 72 51 f7 3f
       0.6541225825639169 1.4573850110169106
000540 d5 4a a8 69 a3 6f fc 3f 41 01 8c 28 32 a9 00 40
       1.777255451893031 2.0826152007795433
000550 7f 69 13 73 14 41 f2 3f 27 7b f4 74 d8 9b e9 3f
       1.1408886428021956 0.800274113109343
000560 77 a3 fc 27 ad c8 d1 bf f3 68 97 26 87 58 f9 bf
       -0.2778733149048586 -1.584113264797051
000570 cc 2b eb 4b 41 2b 04 c0 fb 95 12 8a 06 e4 0d c0
       -2.521120637049057 -3.736340597812839
000580 05 43 09 36 07 6c 11 c0 3f 92 be ab 6b 1a 12 c0
       -4.355496258082671 -4.525801356798694
000590 6b 8c 98 43 89 48 12 c0 86 ce 81 db 58 d5 0a c0
       -4.570836120782682 -3.3541733883847114
0005a0 19 05 cb 58 5c a9 e5 bf 56 e3 de 04 67 87 e0 3f
       -0.6769239172209921 0.5165286154870994
0005b0 fe a8 a1 76 e3 15 f6 3f 9b 38 a7 c4 1b 83 f0 3f
       1.3803438791315439 1.032008903671829
0005c0 b4 26 b1 30 f8 07 02 40 c2 49 b8 29 e6 fd fb 3f
       2.253891353994584 1.7494870786364207
0005d0 04 82 f6 a5 70 b1 f4 3f 5d ea a3 83 7d cd cb 3f
       1.2933203204084984 0.217208565976608
0005e0 59 90 8f 63 f6 00 f3 bf 49 90 ec 74 aa 43 04 c0
       -1.1877349747747046 -2.5330399641698347
0005f0 39 71 f5 cf 68 09 0c c0 86 4b 62 ce ce 18 0f c0
       -3.5045944449213065 -3.8871132014987237
000600 cc f7 39 78 8f b7 10 c0 6d 39 89 27 55 1e 11 c0
       -4.179258230722507 -4.279621713400371
000610 5f 42 5f ec de fe 0a c0 df e2 c8 30 48 35 f3 bf
       -3.3744486300059147 -1.2005082994129948
000620 33 10 26 d8 ad 3a dd bf cd 84 c7 66 64 ef ea 3f
       -0.4567064867808341 0.8417226798448155
000630 f6 eb 7a 52 c2 8c f4 3f df a6 04 91 23 f5 f5 3f
       1.2843650075799338 1.3723483719608607
000640 1d 49 dd 8f b0 99 f4 3f 59 fa 07 e5 fd 86 ec 3f
       1.2875218982413295 0.8914784882798116
000650 33 8a 66 e9 d5 ed b7 3f ce 5a 92 ad e5 4a ec bf
       0.09347283313994907 -0.88414272213671
000660 2e d9 f9 37 96 5c fd bf 3d 4a d4 64 56 15 05 c0
       -1.8351041971741995 -2.6354186894689335
000670 9e 3d 22 d5 19 6c 0a c0 9f 77 e3 d4 b2 15 09 c0
       -3.3027836466860228 -3.135595000449896
000680 6f bb 8c 07 25 3c 0b c0 cc 71 68 46 15 e1 04 c0
       -3.4043675031493232 -2.6099038601516664
000690 e6 fc 28 4a 94 14 f1 bf 34 f3 7c 3e 4c 7f ed bf
       -1.0675242325667624 -0.9217892857046537
0006a0 9f 18 53 17 89 bb c4 3f e4 89 f1 2a 92 8c ed 3f
       0.16197312964340413 0.9234095419636188
0006b0 96 f3 83 fa a3 ba e3 3f ab b6 c6 23 1a 41 e9 3f
       0.616533269203148 0.7891970347170248
0006c0 54 5d 7b 6d ce 0e f1 3f 61 8e 2f 28 b5 f8 de 3f
       1.0661148335110129 0.4839299099387287
0006d0 b7 be 02 4b 41 8c d4 bf 4f ca 0d ef b9 be f2 bf
       -0.3210604889418209 -1.1715640390435913
0006e0 c9 3a a4 12 f0 4b fe bf e6 5f b6 4e d9 55 fb bf
       -1.8935394981560185 -1.7084591936782032
0006f0 be b6 56 16 b4 b6 03 c0 b3 dd 8f 57 68 18 07 c0
       -2.464210676690384 -2.8869177666453765
000700 f7 f4 97 f5 99 8b fc bf 62 1b 45 25 31 bf 01 40
       -1.7840823739527971 2.2183554565157673
000710 a9 c7 7a f8 ba d8 07 40 a1 e8 72 0c 13 21 05 40
       2.980825368163057 2.641149613625274
000720 35 ce 5c 2d 2a 76 08 40 d2 c4 f4 ef 37 bd 01 40
       3.0576976341197004 2.217391848237278
000730 9c 8a 84 5b bb b4 ff 3f 52 4a 9c 51 31 c6 fb 3f
       1.981623990527317 1.7358868778143415
000740 86 18 ec 51 34 96 f3 3f ae e9 e7 32 aa a7 ec 3f
       1.2241709899986133 0.8954668993240398
000750 42 c9 a4 aa df 22 e3 3f 78 32 83 10 ef fe e4 3f
       0.5980070431599318 0.6561198542127178
000760 53 1e 7d e8 5e 59 e9 3f 92 ce ee e5 47 0b f0 3f
       0.7921595135494023 1.0027541143180412
000770 20 70 86 19 69 c3 f2 3f d4 90 1a 04 6b ab f7 3f
       1.1727076527668103 1.479350105314599
000780 e3 99 2d c9 3e 61 05 40 f6 6d 83 90 7e a2 0d 40
       2.6724830357591016 3.7043429651364432
000790 5c 78 66 38 5d ea 10 40 fb d3 07 08 2c e6 0e 40
       4.228871232275278 3.8623886706723147
0007a0 88 52 5f a5 1e 22 0c 40 27 0e a0 e6 d6 eb 07 40
       3.5166600150790295 2.990155984649181
0007b0 36 a7 be 62 4c 3d 00 40 ee 30 65 fa 53 7b f4 3f
       2.0299308504517297 1.280109384638361
0007c0 f4 22 b5 81 e6 4c ea 3f 76 d7 81 35 46 3e d8 3f
       0.8218872578955527 0.3788009188204947
0007d0 76 ff 91 16 44 cd e3 3f 82 db 06 6c 23 34 dd 3f
       0.6188068810297256 0.4563072733830539
0007e0 c5 82 85 67 57 aa e2 3f 80 9b 0b 7b 8c b5 f1 3f
       0.5832936307816331 1.1068234259089138
0007f0 fa e3 68 b0 ec 77 f0 3f fe e3 eb 6f 3a 85 0c 40
       1.0292784586911226 3.5650528663504693

sampling_frac f8 []
000000 09 d7 a3 70 3d 0a b7 3f
       0.08999999999999998
