figs/grid_search_recon/skmodel/sv-ideal-p=2/recon-cs_seed=20-sf=0.090-skmodel-sv-ideal-n=20-p=2-seed=1-12-15.npz (npz, 251004 bytes, 2 tensors)

recon f8 [12, 12, 15, 15]
000000 d8 0d 96 dc 76 b9 09 40 39 ef b9 ba d3 5a 0a 40
       3.2155587418835516 3.2943491542809196
000010 ab ae 26 c5 93 da 05 40 3a 41 00 43 55 10 09 40
       2.731727161639204 3.1329751238301045
000020 16 41 22 8d 6e c8 02 40 e0 25 e6 54 de 05 fe 3f
       2.347867109878403 1.8764327350967207
000030 b1 c4 ec 36 d2 88 dd 3f 96 e4 15 a1 9e e5 da bf
       0.4614759003043885 -0.4202648709393285
000040 33 7c 7e fb 1c c7 d7 bf a6 6e a3 a6 e5 3a e1 bf
       -0.3715279060360814 -0.5384395842224492
000050 39 d9 b3 8b 72 df d4 bf 70 db c9 17 f6 76 d4 3f
       -0.3261381496698906 0.31976082156273034
000060 ff 7e 20 39 3a 29 de 3f fb 0b 52 eb ad 1e ee 3f
       0.4712663228874447 0.9412450405219482
000070 ee 31 3d 6d 26 3d fa 3f 2e 15 c9 c9 e5 75 0a 40
       1.639929224696171 3.307567192505892
000080 bf 7b 56 2b 2f 84 0f 40 96 e9 1c 1e 97 ce 14 40
       3.9395430932777056 5.201748343004871
000090 ee d3 51 67 9a c6 12 40 79 70 03 fb fe aa 0e 40
       4.693948377961517 3.8334941492485624
0000a0 29 78 e6 c1 25 6f 09 40 20 c3 f1 35 95 22 f3 3f
       3.179271235319011 1.1959430796816335
0000b0 c8 b2 d5 6e 7b 42 cb bf ba 5b 4c da d6 6b f0 bf
       -0.2129663745103214 -1.0263279464031556
0000c0 0a 7f 2c ae 72 22 f3 bf 3f bd c5 e8 b1 a4 01 c0
       -1.1959101489700878 -2.2054174599976757
0000d0 7a 92 01 0a 1c ec f3 bf 29 5c 6c 55 1e 5f f5 bf
       -1.2451439276566405 -1.335722287831013
0000e0 fb 1a 1b 15 f8 0a bd 3f 39 6c 03 b6 6b 75 f5 3f
       0.11344862475662502 1.3411671743294973
0000f0 a8 a4 90 79 68 39 14 40 fc 1a ee ea a7 93 13 40
       5.056062602475471 4.894195242674638
000100 a3 a2 f4 60 4c b9 16 40 96 5b f1 69 41 e6 16 40
       5.680955424243311 5.7248589089930615
000110 43 f6 d1 6e 84 15 16 40 08 8f 66 0a 8b db 0b 40
       5.521013003888188 3.4821987927006184
000120 79 21 de 79 5d b4 fe 3f ee 1e 97 f4 49 c0 de 3f
       1.9190344582039798 0.48048638234875696
000130 0b df 73 b0 bf 9f e8 bf ea a7 e9 56 5f 82 fa bf
       -0.7695005842533374 -1.6568292040851653
000140 50 ae d9 42 64 a1 02 c0 02 28 d5 f4 d8 83 f2 bf
       -2.328804514186949 -1.1571893276000087
000150 32 f0 03 4a 0c 56 f3 bf 74 05 96 76 07 1b d8 3f
       -1.2085078135705882 0.37664972859064183
000160 d8 b3 2f 68 de 9a ea 3f b7 27 f1 4c 29 82 18 40
       0.8314048800362981 6.127110674113218
000170 c4 19 6d 17 b7 46 19 40 ec cc 51 6f 84 28 18 40
       6.31905781367681 6.039567698829369
000180 aa 78 b6 77 b6 0b 19 40 44 2d a0 fe 8d df 15 40
       6.261438246261756 5.468315104032914
000190 8d 73 85 1d f2 29 0e 40 8c 7d 80 17 66 3e 01 40
       3.770481329569924 2.155468162163464
0001a0 7a 69 ff b1 c3 e9 de 3f 0e 2b 42 69 fe 2e f7 bf
       0.483017848802454 -1.4489730941447223
0001b0 18 71 34 05 26 56 f5 bf 95 d4 f3 13 88 48 01 c0
       -1.3335323527636032 -2.1604157980714924
0001c0 cd 21 48 7b ee 22 f8 bf 5a 02 48 d6 67 f5 e7 bf
       -1.5085282149976706 -0.7487067399197926
0001d0 bc 2e d8 3d 6d 77 c7 bf 1b a2 54 67 68 11 ea 3f
       -0.18333211440800834 0.8146249788451912
0001e0 af 39 55 54 c9 26 1b 40 d2 72 b2 4f 16 c0 18 40
       6.787877385808698 6.187585110918649
0001f0 34 10 99 bc 58 69 1c 40 ee d7 d1 9b 80 4a 19 40
       7.102877566187136 6.322756228144483
000200 a4 83 36 7a 29 b1 17 40 1c 92 9b 76 15 d2 10 40
       5.923009786202702 4.205160001035008
000210 34 c9 c2 80 a3 77 07 40 41 15 34 10 ce 62 e0 3f
       2.933417325920482 0.5120611492608661
000220 70 df 3c 8b 3e 44 f0 bf 0e 4a 7a e6 c8 fd 02 c0
       -1.0166612090087845 -2.373918343169186
000230 25 60 8b fa 58 4a 05 c0 70 9b 09 ca 26 66 fe bf
       -2.6613025258811995 -1.8999393360224666
000240 ec 8e 19 de 59 2c 06 c0 e6 4d 89 7c 55 72 dd bf
       -2.771655783801057 -0.460103389375233
000250 73 69 43 e9 a7 50 d5 3f 4a 5b 82 26 5f 7e 15 40
       0.33304784564611295 5.373409845072112
000260 0b b8 79 7e e1 ef 16 40 bc a5 57 c9 e8 00 1b 40
       5.7342586290160495 6.750888010000775
000270 51 a1 e9 92 52 fc 14 40 51 6b 46 da 85 9f 16 40
       5.24640874434438 5.655784044788406
000280 81 ae d2 53 eb 11 0b 40 44 f3 8e c9 cb b5 04 40
       3.3837496327085437 2.588767599749561
000290 8c fa ff 3f 78 5a c4 3f 10 00 98 41 c3 2c ec bf
       0.15901091694827973 -0.8804641991737316
0002a0 43 f6 94 2f c0 97 ff bf 2d d6 c7 65 3c db 08 c0
       -1.9745485171000758 -3.1070487929926203
0002b0 06 c6 5d 3a 35 99 03 c0 a9 30 f1 74 2b 89 ff bf
       -2.4498085555903826 -1.9709887092640577
0002c0 49 b3 a4 54 89 7a f8 bf a7 b0 23 18 a5 78 e0 bf
       -1.529916124952438 -0.5147271605942664
0002d0 87 36 73 8d 19 3e 16 40 67 ef 9a 88 91 a6 14 40
       5.560644350201648 5.162664541679852
0002e0 2b 44 c9 9c 58 ad 16 40 d4 c9 bc 4e 98 f7 14 40
       5.669283342155761 5.241791944763879
0002f0 1e 39 17 23 d1 4f 14 40 ae 5c b8 ec e6 41 0a 40
       5.0779462321209206 3.282178735138209
000300 e1 98 9f 3f 62 f4 01 40 50 aa 68 95 11 d2 d4 3f
       2.2443280191974826 0.3253215750761784
000310 3f a1 63 f6 1a e4 fa bf 02 3f 74 f7 c3 55 02 c0
       -1.6806897759034454 -2.2918776829100134
000320 c2 3b 3f 56 e1 9d 10 c0 12 fe 49 61 06 b3 0d c0
       -4.154179904565298 -3.712414512701579
000330 62 10 ca fa ec 88 08 c0 96 46 8d ff e8 50 ff bf
       -3.0668582528033292 -1.9572534544462648
000340 61 aa 56 e0 de 7f 0b c0 9f b8 12 1c 07 73 13 40
       -3.4374368215988373 4.862331808703089
000350 a9 b4 db 04 ed 0e 10 40 b9 44 a0 27 92 42 14 40
       4.014576030645153 5.065010661274919
000360 24 cd 7b 4d e9 b2 12 40 48 3d 6a 9e e4 02 14 40
       4.674718104058488 5.002825236543977
000370 96 cd e4 92 75 f7 07 40 41 fe 25 12 5c d9 fe 3f
       2.995829722983852 1.9280663212702083
000380 59 3e 5c 13 50 81 cb 3f 7c 0b 8d e2 e7 7b 00 c0
       0.21488381333664355 -2.0605008792203403
000390 6d 75 72 68 84 2f 05 c0 3c 61 06 e0 9e 6e 13 c0
       -2.6482017669610998 -4.858027935399431
0003a0 d6 69 87 47 38 ee 11 c0 c4 8b 87 31 ef 31 15 c0
       -4.482636563911418 -5.298764013193196
0003b0 76 44 6c 45 8e 15 0c c0 75 71 76 54 33 2a 0b c0
       -3.5105252669969174 -3.395605716576194
0003c0 7b d8 41 52 ab 0b fa 3f 8d 0f 59 41 de c9 05 40
       1.62784893161509 2.723568449526232
0003d0 15 1d ed 4d e5 98 0b 40 ef 91 c9 b1 1d b9 0b 40
       3.449656113432534 3.465388668979578
0003e0 49 70 c6 e6 22 cb 10 40 b1 49 b9 a1 72 49 08 40
       4.198375326024753 3.035863173930203
0003f0 de e9 ae 8e d6 af f6 3f c1 4c b9 3c a7 62 a0 3f
       1.4179292272152604 0.03200266472108516
000400 41 13 00 f2 20 7d f6 bf 2a 5f 79 25 63 f2 0b c0
       -1.4055489972244717 -3.493353169218513
000410 c3 61 00 2e 59 57 13 c0 07 a8 0e e8 4e a7 11 c0
       -4.835301131032284 -4.413386941809228
000420 16 72 4e fd 7f 6e 15 c0 a6 ac c0 af 9e 18 14 c0
       -5.357910116112654 -5.024042841086304
000430 a7 a3 cc 40 fa 14 13 c0 a1 4d 0f 72 b9 7f f9 3f
       -4.770485889902296 1.5936827140293206
000440 51 25 a1 12 cf 79 eb 3f d8 00 1d 08 50 7c 09 40
       0.8586192478043505 3.185699523339377
000450 83 fa eb 21 76 d0 02 40 a8 a7 be f3 ab c8 05 40
       2.3517878198757116 2.722984222656084
000460 f5 fd 7e 60 04 4d 00 40 0d 9c 75 7c 93 9d f4 3f
       2.0376060045962228 1.2884707318969533
000470 b4 fa ff 3f 78 5a c4 3f 5e e7 2e 52 fd ee 02 c0
       0.15901091694828084 -2.36669410901679
000480 0b b1 de 10 8a b0 0a c0 12 3a 77 19 d0 3b 17 c0
       -3.3362008398017955 -5.808411024000195
000490 79 f8 a3 99 41 58 17 c0 2c bf f7 72 65 b0 16 c0
       -5.836187744744273 -5.672261997576964
0004a0 e1 36 0a 9b ec 19 16 c0 22 84 48 b6 02 72 15 c0
       -5.525316641329227 -5.361338470626864
0004b0 f3 35 92 14 e8 ec e2 3f 87 78 c9 cc d2 37 f1 3f
       0.5914192582874293 1.0761287688724523
0004c0 da de 7f 17 3e 7e fe 3f 32 57 e3 88 db 50 04 40
       1.905820934100055 2.5394812292460296
0004d0 e5 95 d4 2c cd 4f 0c 40 52 23 e4 46 59 8a fd 3f
       3.538965559232326 1.8462765473543254
0004e0 e0 7d 27 b6 9e 75 f9 3f 43 93 04 be 75 66 cd bf
       1.5912158122445064 -0.22968932893959434
0004f0 b7 42 b7 fb c7 1c 07 c0 d0 7f 22 8e 70 37 0e c0
       -2.889053312807245 -3.7770701507833806
000500 9c f5 61 9a 14 37 15 c0 a1 1f 73 ab a8 7f 19 c0
       -5.303789531926125 -6.374666861440262
000510 d2 a1 7b 80 93 bc 1b c0 33 fa af 27 0c 98 16 c0
       -6.934156425043016 -5.648483867755703
000520 40 2b a7 31 10 04 17 c0 8d 2f aa 17 bb c4 dd bf
       -5.753968025043662 -0.46513249693884334
000530 1e 69 61 57 8e 41 de 3f 19 3c ce 3e 8b fd 00 40
       0.47275122197392416 2.1238007456481793
000540 bc 86 db 79 52 d0 fc 3f 87 39 e9 ad f9 80 01 40
       1.8008599052485996 2.187976225547746
000550 10 be e2 12 0e fc ff 3f 10 11 8b 2b 2c 3a 00 40
       1.9990368592951917 2.0284045602621816
000560 69 90 b3 01 29 a4 de bf 14 5e 29 91 50 d7 f5 bf
       -0.47876954237131614 -1.365067069089382
000570 f8 c8 94 83 1e d4 0a c0 92 7c aa 58 f1 61 15 c0
       -3.353573825815257 -5.345647225766827
000580 e6 5f 9c 3d 26 61 16 c0 b1 91 60 2e 95 23 18 c0
       -5.5948724390691265 -6.034748768467055
000590 5f 9e ba b6 ed e1 13 c0 49 ae d0 eb 74 a0 13 c0
       -4.970633368625925 -4.906696018802514
0005a0 62 46 e8 bb cb 0f e5 bf cd 36 5f c6 08 b0 bf 3f
       -0.6581782026352807 0.12377981989922233
0005b0 00 1b 0b a7 7d b5 f7 3f 00 62 76 c8 17 f4 f7 3f
       1.4818092846996365 1.4970929937900337
0005c0 71 13 2b 37 85 7a 02 40 4a da 7f 3b 46 a8 fc 3f
       2.309824400903772 1.7910826038547776
0005d0 de 28 d0 79 03 92 f2 3f f2 ee c6 66 28 74 a2 3f
       1.1606478460621967 0.03604246382334776
0005e0 70 c7 25 2e 5b ad f9 bf 43 75 c2 70 eb c4 0b c0
       -1.6048232844009043 -3.471152192053212
0005f0 c1 2c 97 51 a4 09 17 c0 57 23 4f e5 0e d7 15 c0
       -5.759415888645152 -5.460017760234073
000600 9f 18 4f af 7f 05 15 c0 ff 66 9d 71 9d 6c 13 c0
       -5.255369891359947 -4.856069350463939
000610 ac 26 01 f1 4a 2d 10 c0 4d 1a de 64 e0 63 df bf
       -4.044231191344505 -0.49047098017073126
000620 00 b7 26 51 bd b2 d0 3f fd 1f 02 4b a1 80 f2 3f
       0.2609093945019225 1.156403820992636
000630 13 4e d3 2a 1e 7b f5 3f ff da 34 57 6b db fc 3f
       1.3425580666415768 1.8035691648962595
000640 80 91 5c 41 ad ad f6 3f 37 a1 ad 47 9a e9 f3 3f
       1.4174015572726546 1.244531898491983
000650 53 3a 70 35 96 68 d3 3f 5c 27 1c fb 0b f3 f2 bf
       0.30325846880524415 -1.1843375977500363
000660 ff a7 be 90 ef 5a 07 c0 0f a5 21 da a4 ff 0f c0
       -2.919402247255675 -3.9998261491315428
000670 e7 dd d2 4c 06 94 12 c0 b5 10 d9 e6 44 dc 10 c0
       -4.644555282945908 -4.215106589315998
000680 30 6e 7c b8 aa 23 0b c0 46 fd 00 b4 75 7a 0f c0
       -3.39241546754581 -3.9347948134233404
000690 64 15 d5 b4 ca d5 e8 bf 60 92 4d cc 76 90 e8 bf
       -0.7760976344949708 -0.7676347723286874
0006a0 08 ee ca d3 7e 76 b8 3f 33 d5 55 38 62 e9 c0 3f
       0.0955580966064461 0.13212230444666204
0006b0 29 d9 62 e5 79 6b d6 3f 80 6f 23 e3 3a b8 e5 3f
       0.35030982399929883 0.6787390171334522
0006c0 23 a3 61 1a 54 c1 eb 3f 38 4b ce 06 19 04 e2 3f
       0.8673496737729675 0.5630002148558111
0006d0 dc a4 da 95 10 26 d6 bf ad 68 30 c5 1c 5f 00 c0
       -0.3460732901972514 -2.0464415936849805
0006e0 8e e6 46 8d b2 3c fe bf 64 29 81 c1 d4 68 07 c0
       -1.889818717825992 -2.926187049631311
0006f0 84 9f ed 42 6f fb 02 c0 eb 4f 9c ab 47 cb 03 c0
       -2.3727708081023042 -2.474257794101495
000700 9c 47 cd 6d 16 4f 07 c0 a5 4b 33 ad 66 ab 0b 40
       -2.9136169985076332 3.4586919337538853
000710 5d 87 e5 50 b9 62 13 40 b8 a9 28 bc c5 0b 0e 40
       4.8464100494473685 3.7557482433232643
000720 15 44 46 5b f5 55 0d 40 9c 97 cb 8d 8b ed 0c 40
       3.6669718867128815 3.6159888341671387
000730 0a 2e d9 e0 e6 ec 06 40 d8 8b ed 26 67 1b f7 3f
       2.865674740436366 1.4441901703473743
000740 74 c2 b9 10 11 7f e9 3f b8 a3 fc 44 4b 90 d8 3f
       0.7967610670730907 0.38380700814246493
000750 de e3 ff 5e 5a 6f d3 3f 82 01 0d 7a 7a e7 f5 3f
       0.30367144849111394 1.3690132873162786
000760 aa d4 9d b4 cc 97 f3 3f 05 1e eb 28 3c c6 f3 3f
       1.2245604567845398 1.2358972166420028
000770 18 5a 54 5c 6f c1 00 40 5f d3 fe 15 62 88 01 40
       2.0944506848566213 2.191593334044611
000780 03 49 34 4c 2e 05 12 40 70 28 ef 01 de 64 10 40
       4.505059424105869 4.098503141614955
000790 86 b8 95 d5 8e a8 15 40 b8 7d f8 82 f5 ce 14 40
       5.41460736967395 5.202108427445118
0007a0 e9 5d 22 f4 2a 43 12 40 00 ab 78 3c df fd 0c 40
       4.565593542668901 3.623960945541853
0007b0 0a ae a8 f4 9f 49 03 40 bc 7a ff 79 6f dd f3 3f
       2.4109496225335123 1.2415613904519622
0007c0 4e a7 5d 12 51 0e e0 3f 60 7e 65 12 c7 ac c5 3f
       0.5017476423938463 0.16933525465263966
0007d0 64 21 96 4a dd 95 cf bf 58 b9 3d d1 c4 ec e3 3f
       -0.24676099912563665 0.6226524435749452
0007e0 1c f4 b9 89 3e 38 e5 3f 5c c6 85 c0 13 d2 f7 3f
       0.6631157579391842 1.4887883682644292
0007f0 b8 7c de c0 fb de f2 3f 12 2d 05 53 cb 69 14 40
       1.17943930949677 5.103314683142587

sampling_frac f8 []
000000 09 d7 a3 70 3d 0a b7 3f
       0.08999999999999998
