figs/grid_search_recon/skmodel/sv-ideal-p=2/recon-cs_seed=12-sf=0.070-skmodel-sv-ideal-n=12-p=2-seed=2-12-15.npz (npz, 251182 bytes, 2 tensors)

recon f8 [12, 12, 15, 15]
00000000: b5d9 4b47 a592 f23f df9b 860b 768d f23f
00000010: ca97 169d 7352 fb3f 37d8 0c4a 0c7e e13f
00000020: 62f2 3b48 7bc8 e33f ca1b 55a2 2ff8 cd3f
00000030: 163a c8ee 6f19 ddbf e6cd 5256 fd1b d9bf
00000040: f3e0 f752 3d94 edbf 8be9 9389 2c94 f0bf
00000050: e18b f27f b905 ebbf 40d4 efcb 5837 e3bf
00000060: 5b0f 3e20 8469 e13f be5d 9706 460c dc3f
00000070: facf 901a 5b4f db3f 6aeb 7c29 6997 f43f
00000080: 82bd f03f 599a 0240 42c0 3709 7cc6 0140
00000090: 2ace 33b5 addd 0140 8bf1 a9fd 5454 f03f
000000a0: 2f1c 4cfd fb04 f53f eb18 fc65 6c43 c73f
000000b0: a220 afed ac40 d6bf bf4d 73f3 90a8 f1bf
000000c0: 8990 c4f5 ab05 fabf 5b00 8723 f0ad fbbf
000000d0: a566 a819 afd4 f3bf 2d5b eb12 5deb aebf
000000e0: 6e06 8cf4 88a4 bcbf 9c5c 4733 3166 a73f
000000f0: 86e2 4070 d329 0040 7a55 aace 5694 0a40
00000100: 1154 99e1 1e54 0a40 b85b aad1 c1ad 0740
00000110: 9923 9b3e 385f 0140 d5ad 5521 2d93 f83f
00000120: fc1e fa59 c00b be3f 3e38 147c 6d6d d7bf
00000130: 1a9a f96a 1505 f5bf 83cf de0e ff36 fdbf
00000140: d349 9de7 9cbb fbbf c443 dbe0 cba0 f2bf
00000150: 6c35 4d7e 8179 d9bf 412b a472 98a1 a7bf
00000160: cfc7 12c7 f3d4 d83f f57f b6be 8b83 0240
00000170: d8de 3c38 d36c 0f40 10ef e85f 4c49 0d40
00000180: 7f96 d415 636b 0f40 66ea 98e4 24f8 0640
00000190: ef09 60f7 a14c ff3f 83df e00d ec93 e53f
000001a0: bf06 600a 5f37 dabf b97a eb6a c9bf e4bf
000001b0: 8067 6610 bbc6 fdbf 1e08 2b59 5929 00c0
000001c0: 022d ea91 e799 00c0 1664 6bee 3575 f4bf
000001d0: 18ae efb0 9e51 ddbf 16dc 1bc0 976a d7bf
000001e0: d838 c297 5055 0640 ef7e 5cb8 5836 0f40
000001f0: 9dc9 0db7 3115 1040 9e54 6510 8ea0 0c40
00000200: 6da7 b022 fa2c 0740 382a 2423 6da5 fd3f
00000210: 9c41 6196 6cd8 ed3f e5fb f5d9 0264 d5bf
00000220: 7e88 eae5 687d f3bf 61e8 165a a44d 03c0
00000230: e0a1 da15 005f f8bf d9a8 cf04 2f27 02c0
00000240: bd33 4424 cb10 f7bf 554d 50d5 3e8b e3bf
00000250: 31c7 51f8 d409 c43f f799 4b50 566e 0740
00000260: b404 047d e4d2 0c40 9c23 823c 9c0b 1040
00000270: 23e3 8dd3 adc6 0e40 2047 de3e b96e 0440
00000280: 532b 922a 70c0 fe3f e8dc 035d 51d6 ed3f
00000290: 4c2f efc1 7cee e4bf e73d 8931 349e f3bf
000002a0: 49f2 3785 3eb3 fcbf e28f d660 0efd 02c0
000002b0: bbb9 7cbc e47c 03c0 dced 5b7e ce11 01c0
000002c0: 5c47 1b5e 7781 f5bf 39d0 3d88 9d15 c1bf
000002d0: 42ec d221 0b8a 0240 224c 7196 6cf0 0c40
000002e0: 7659 2a52 8b9e 0c40 3e5c 682c da4a 0e40
000002f0: 6b5f 3af2 6ba0 0340 8d1c 52c8 2979 0040
00000300: b8a8 d5ef d9fb f13f fe3c 6522 55ed dabf
00000310: 625a 8ff7 0f95 f5bf 454b f8f8 48ac 02c0
00000320: 74ec d5f6 2290 ffbf d58d d921 2e49 06c0
00000330: eb52 dc70 cc65 05c0 1f55 ebfd 2b47 fbbf
00000340: f306 a9a0 ebae eebf 84ff 47b7 5104 0540
00000350: 08ad d214 6f66 0640 140d a3ff 7d8b 0a40
00000360: f036 234f a624 0a40 8845 b518 f580 0640
00000370: 3c0b 9253 7ad1 0040 0acd f01a c79c e73f
00000380: f070 67d5 c87f c03c 730c 4670 e8e1 f3bf
00000390: 0764 2a70 2656 00c0 ef05 ea68 e08b 09c0
000003a0: 09e0 762b 998c 0ec0 f642 249d 2747 0ec0
000003b0: 145b 435b 43c5 05c0 346f bf1b a7f0 00c0
000003c0: 681d ff93 765f e43f 4fe9 305a dbbe fa3f
000003d0: 9df1 9370 0bcb 0340 1efd a7da d774 0840
000003e0: eaaf 79ab 2e4f 0240 92f7 371b 5e42 ff3f
000003f0: cedb f42f 0423 e63f 97a6 e184 cad6 aabf
00000400: 54e5 311b 1349 f7bf 1e23 a8be 77cf 02c0
00000410: 40d9 8f62 dcd6 06c0 8e65 d8ad 77a4 0fc0
00000420: e023 cdd8 11b8 10c0 abb5 d328 c813 0dc0
00000430: c76c c2f6 deb8 0cc0 f95d ee9d cf12 c03f
00000440: 8a1b 51a2 6625 c93f 5cac 3d16 b37c fa3f
00000450: 6116 a9ff 0415 0140 8678 1951 3d85 fc3f
00000460: 2fa6 b298 03e6 f53f c856 b1a3 73a8 d13f
00000470: c2c5 4235 662e 88bf 8187 5cdb 1aff f8bf
00000480: 4e38 1bd3 d7b2 01c0 55f8 33fa 7547 09c0
00000490: e70f df0c ebd7 10c0 1ca7 5a18 dfbe 0ec0
000004a0: 9cf8 f35b bc90 11c0 4ec7 1fa9 2c26 07c0
000004b0: 5ac0 9263 0217 dbbf 8a60 b88a c525 99bf
000004c0: 8394 5888 1f03 fa3f 67e3 f4a5 22d2 ff3f
000004d0: d78b 69f0 1f5e fb3f 350c f4c5 1312 f63f
000004e0: 1e7b ca21 0c6b de3f 1519 cd00 f11d adbf
000004f0: 0bb5 4807 da94 f7bf 92fe ff97 bb9f 04c0
00000500: bf0f 9b8f 0ef1 06c0 549d 4dff 46db 10c0
00000510: 73ce fbec b1c1 11c0 6742 7f5a 7fee 12c0
00000520: 88c9 845c f6c0 0ac0 1b58 2e61 e64a e8bf
00000530: c09e 8523 16c8 dcbf 2b65 8a69 16e4 e03f
00000540: f8c1 ae1c 9c77 f83f fb40 9a21 0cd6 fa3f
00000550: e53c 46ac 28d7 f43f c9d4 c85d b757 e23f
00000560: 3fe3 846e ae16 d23f 44af e850 13c5 f9bf
00000570: e597 0575 90c8 01c0 8be9 34bc 899d 04c0
00000580: a25f 35ab d660 0fc0 c659 e357 c180 0bc0
00000590: 0659 c5d0 71d9 10c0 cb19 af33 d3ae 0ac0
000005a0: 9fcd 45ff bce5 c03f b6bd 1fbb 9539 e6bf
000005b0: 8e8c 0717 6c15 c33f 3ebe 84c3 e4a1 eb3f
000005c0: ef8c 94c8 f5b4 f43f 0328 5363 bcd1 f13f
000005d0: 7a77 197a 637b e43f 30f8 2f3f c8b6 b9bf
000005e0: f6f2 f854 4769 e8bf b332 da5e 115b fcbf
000005f0: c0af 8569 2de2 05c0 573e 432c 3cd9 0dc0
00000600: 9238 2d78 f762 0ec0 97e5 0724 d522 0dc0
00000610: 40b9 9290 9c65 08c0 c781 f5c7 9c0a efbf
00000620: 6dd1 9018 015d edbf a0d7 f5fe d42d adbf
00000630: ec57 6a7c 865f e63f d05b 0ee0 c6fe e73f
00000640: d943 1346 a3b6 e53f ece2 6e7b b76e d03f
00000650: 68c1 8ee2 e449 d7bf 93eb fa5e 0d62 debf
00000660: 968e fa51 340c f9bf 212c 60da 33ce 01c0
00000670: 00f1 e56b b849 0ac0 3dcb 5718 39b5 06c0
00000680: 68e6 a236 4405 07c0 661a e724 4679 02c0
00000690: 392a 299c 86bd f6bf a655 dd89 eb02 f9bf
000006a0: d883 f6b5 2abb e7bf 210d a57f 4a94 d4bf
000006b0: 7b5d e53b 3236 c43f 0b90 3578 62de 94bf
000006c0: 553e 685c e511 c93f c2d0 1446 06c9 dbbf
000006d0: 9856 564b d3d0 bebf 8c8b 6984 3ee1 e0bf
000006e0: 4444 8cd0 fb55 e6bf 9ac9 d66c 9c29 f6bf
000006f0: 6e5c 60fe 2dcf 03c0 8ad0 e8fc 8476 fcbf
00000700: 2715 4fa4 c720 fcbf 5a6b f7a8 c737 0040
00000710: 3fbb cfbb adfd f83f caf8 4e85 2578 f63f
00000720: d55a 460a ce98 f33f 0cd7 0aa2 d998 f93f
00000730: 87af cf86 157d f43f 3cd7 7f77 2785 f23f
00000740: 3542 5f9c 9ace e43f b22e 3b20 9f0d c93f
00000750: 70da db6d bf12 e33f 4618 d1bd 8b4f dc3f
00000760: c0ec 5ada bf05 e53f 601c 1ccd 21dd ec3f
00000770: 7e06 e8c4 3332 e93f 2f8e 0fe5 a7d8 f83f
00000780: 58e1 723a ff9b 0340 7ddd 9cb9 e1a0 0240
00000790: d1f7 5d32 933b 0040 7f51 1f5f be33 0540
000007a0: eff8 4172 9211 0040 5651 72d9 4b29 0140
000007b0: b7d0 aac5 fdbf f43f 8499 dace 4f7b e63f
000007c0: 9f57 d264 7733 e73f e826 1962 62fa c3bf
000007d0: c412 9485 15b6 bcbf b8c2 e9b1 10f7 cabf
000007e0: 2eef 87bd 721e d63f fccf 19d6 6bd0 e73f
000007f0: 385f 55ea c928 f83f cf79 29e1 8a06 0640
1.160802153111587 1.159536404631346 1.707629788995734 0.5466367193500962 0.6182228480170802 0.23413653780354898 -0.45467756575172424 -0.39233334951424437
-0.9243456478571076 -1.0361752866870997 -0.8444488047574589 -0.6005062087193735 0.5441303853735734 0.4382491173141395 0.42671849817565966 1.2869655247329441
2.3253655429213618 2.221916267408262 2.233241477626298 1.0205888661140274 1.313716878359411 0.18174509982799888 -0.3476974793561657 -1.1036538610249946
-1.6263846969896198 -1.7299653423106267 -1.239424801088185 -0.06038943153332919 -0.1118856045759686 0.04570153952561748 2.020422818164948 3.3224311967593936
3.291074526302062 2.959842336665556 2.171493996724575 1.5359317114006121 0.11736681172089541 -0.36605393521393015 -1.3137411287986027 -1.8259268360970686
-1.7333039328992654 -1.1642569335419788 -0.39804112753048204 -0.04615475081853627 0.3879975742412371 2.3142313861317185 3.928137244565601 3.6607902043305174
3.9274350839139625 2.8711641177335876 1.9562091506091936 0.67430689535739 -0.40962959302133223 -0.6484114731100227 -1.8610182419419914 -2.020189949632381
-2.0751487159337794 -1.2786158860456047 -0.45810668257647214 -0.3658809066832317 2.7916576248309006 3.9015364077785004 4.020697460381055 3.5783959656642557
2.8969614706192517 1.8528872845369175 0.9326689660174909 -0.33422919545404134 -1.2181176167582914 -2.4129111326447377 -1.5231934407876153 -2.2691326499817532
-1.4415999809891524 -0.6107477346689999 0.1565500462052625 2.9288755677291607 3.602974869427806 4.011338181918202 3.847011235015445 2.5540642654022037
1.9219819701126724 0.9324118439389197 -0.6541122234134291 -1.2261239943508089 -1.7937607959603545 -2.373562580631174 -2.4359831548274236 -2.1336946365170046
-1.3441079784428984 -0.1334721484414574 2.3174040453427844 3.6173946145368214 3.5774141711401013 3.7865489453647845 2.4533308910430853 2.0591617250498246
1.12398713765519 -0.4207356296437438 -1.3488921804725114 -2.3341235590718576 -1.97268959446117 -2.7857325214879247 -2.67470634624839 -1.7048759382935896
-0.958852590360236 2.6271089857909278 2.80001655834133 3.318111416972565 3.2678953344937938 2.8129674845046715 2.102284100431829 0.7378879095253137
4.579436337827677e-16 -1.2426533113182614 -2.0420655024468064 -3.193299121515103 -3.818651523175508 -3.784743526143184 -2.721319878571544 -2.1175062339588298
0.6366532221372099 1.6715959094131738 2.474142913355719 3.0570523340717406 2.288663234377954 1.9537030280330083 0.6917744576120357 -0.05241997596824637
-1.4553404867459294 -2.351302613741054 -2.8549125385426635 -3.9553063947357208 -4.179755580445061 -3.634659117661348 -3.590269019897821 0.1255740662715963
0.19645388532282154 1.6554442280564876 2.135263440463675 1.7825291793774638 1.368655773616762 0.2759064768373318 -0.011807249546424429 -1.5622814720922806
-2.212325715320765 -3.1598929926977157 -4.21085758315528 -3.8431989576973944 -4.391343533292595 -2.8936398709128417 -0.4232793781657215 -0.02455814990216302
1.6257624937072996 1.9888025744132507 1.7104796782593803 1.3794133884955617 0.4752836542119655 -0.056869059894369446 -1.4738407406360376 -2.577994525432424
-2.8677035540767686 -4.21413802062246 -4.439155295247121 -4.732907690064713 -3.344219897081704 -0.7591430566851644 -0.4497123095411375 0.5278427182521787
1.5292016144195468 1.6772576630210654 1.302529023119683 0.5732075530746893 0.28263436119918944 -1.6106141243462426 -2.2229317800838424 -2.5769228652617975
-3.922284448210079 -3.4378687731034203 -4.212348234219695 -3.3353637731372365 0.1320110556076601 -0.6945294050946618 0.14909125446783772 0.8635124033662078
1.2941797099272738 1.1137050514103073 0.640062082744165 -0.10044528525028862 -0.7628513965242678 -1.7722333626908664 -2.735438179390229 -3.731071801950559
-3.79832357299808 -3.6420080962095187 -3.0496150297905444 -0.9700454621743625 -0.9176030616568319 -0.05699029552754031 0.6991608076084481 0.7498506904693105
0.6785446518571191 0.2567576127435547 -0.3638851368405285 -0.47473463321119275 -1.5654795839590512 -2.225684839305828 -3.285996287302737 -2.8384878064911434
-2.877571513029398 -2.3092158206011844 -1.4212709522277136 -1.5632129082999682 -0.7415975145305493 -0.32155096497827357 0.15790393757445628 -0.020379580103863797
0.19585864078588835 -0.43414456218603104 -0.12037392224587007 -0.52749563085341 -0.6979960511399743 -1.3851589442752812 -2.476161944690424 -1.7789354209208192
-1.7580028932873775 2.0272362900263206 1.5619332634339143 1.4043326575625081 1.22480587018588 1.5998169259814317 1.2805381074967686 1.1575083415932133
0.6502202085631043 0.19572819780147693 0.5960385461501811 0.44235509430689424 0.6569518341779244 0.9019936567355096 0.7873782010867243 1.5528944919286791
2.451170403128497 2.328555536365171 2.029089349262883 2.650265448706875 2.008580105436628 2.145164202500534 1.2968728753449292 0.7025527038684207
0.7250325173542825 -0.1560786227221833 -0.11215338240806277 -0.21066483199276376 0.34560841092001027 0.7441920453697999 1.5099581864978529 2.7531945791990675

sampling_frac f8 []
00000000: eb51 b81e 85eb b13f
0.06999999999999999
