figs/grid_search_recon/skmodel/sv-ideal-p=2/recon-cs_seed=16-sf=0.070-skmodel-sv-ideal-n=16-p=2-seed=1-12-15.npz (npz, 251250 bytes, 2 tensors)

recon f8 [12, 12, 15, 15]
000000 61 4a 69 cb 45 39 06 40 80 c3 11 16 0a 04 02 40
       2.7779651538378833 2.251972362916092
000010 50 4b 74 6d 3c 81 02 40 6e 60 1c 04 d9 53 ff 3f
       2.31310353766586 1.9579706345157564
000020 f8 bd e7 a7 86 2b fa 3f cb c7 d5 a2 ad c8 e1 3f
       1.6356264647291692 0.5557468586323407
000030 82 41 0c b5 08 85 ed 3f e1 62 b7 12 ef d2 df bf
       0.922489503487711 -0.4972493822838669
000040 92 ed c4 2c 43 87 da bf ae c0 5a dc 26 2c c0 bf
       -0.414505761833163 -0.12634740600106426
000050 b8 a1 23 77 5f 61 d4 bf a8 73 01 8b 52 59 c1 bf
       -0.31844317087827845 -0.13553840434442788
000060 45 21 c8 27 01 29 dd bf 64 0c 46 44 a2 43 f6 3f
       -0.45562771687447806 1.3915121714533365
000070 a9 06 52 fc 94 04 fd 3f 61 46 b9 57 c9 0e 0a 40
       1.813618646265619 3.257219968167917
000080 36 0e 94 98 f8 d9 0a 40 7a 80 fd d7 d6 6f 06 40
       3.3564311905081707 2.8046090006101254
000090 42 fa 79 53 77 77 09 40 c8 b9 76 52 1e 57 04 40
       3.1833330651855087 2.542538303611966
0000a0 45 1c 0e 13 8f b7 01 40 25 1e e2 ec e8 7a e9 3f
       2.214628361576191 0.7962536455751815
0000b0 8e b2 57 6a 44 06 c1 bf 5e ea 1c b7 82 1f e1 bf
       -0.1330037612200567 -0.5350965095925166
0000c0 62 c4 b5 8f f7 94 f0 bf 45 07 4e 49 37 cb ed bf
       -1.0363689054177248 -0.9310566360220284
0000d0 93 af f0 da 2c 3b e7 bf bc 40 44 e2 9f 33 ce 3f
       -0.7259735370803234 0.23595045612501575
0000e0 28 9f da 4e d1 7f de 3f 67 96 f2 68 26 7a fd 3f
       0.4765513677652842 1.8423217868343273
0000f0 22 8d 94 a9 30 f8 0b 40 92 87 22 09 29 36 14 40
       3.4961865662059077 5.052890913708227
000100 05 56 03 5a 46 41 0e 40 7c a0 30 da e9 7f 11 40
       3.7818724663036414 4.3749155132464885
000110 73 20 4d 2d a3 c6 09 40 2f 65 03 23 86 d0 01 40
       3.2219909228479593 2.2268183455859325
000120 a7 ab 8e 47 df 61 f9 3f f3 ee 61 f1 2c a7 d4 3f
       1.586394576569299 0.32270358631625057
000130 d7 23 cd 12 a4 47 d2 bf 5c 80 ec 95 a3 1e f7 bf
       -0.28562261425082397 -1.444980226173377
000140 19 b2 9b 59 42 0b f9 bf 20 d4 fd c2 97 b4 ff bf
       -1.56524882319639 -1.9815900437217877
000150 79 cd 3d c8 01 c0 ee bf cd 5e bd ac c7 b2 c9 3f
       -0.9609383498158613 0.20076843199307462
000160 86 f4 9b 94 c0 0e fd 3f 1b 37 90 87 e2 51 15 40
       1.8161016278311606 5.329965704133225
000170 91 a8 19 13 98 a3 14 40 47 5e 9a e2 cf 1d 12 40
       5.159759806099957 4.52911333148183
000180 31 33 c2 53 f8 99 13 40 c0 bb 73 37 a0 3b 10 40
       4.90036135552218 4.058228365362936
000190 fa 3b 8f 5a 6f 8b 06 40 fc 13 56 dd ce 58 f7 3f
       2.818083484169162 1.4591816564509363
0001a0 10 4f 5c 08 3b c8 da 3f ef f3 61 f3 e7 fc ad 3f
       0.4184711057325652 0.05857014509181357
0001b0 3e 53 7a cf 47 8f f7 bf c3 15 c8 57 b8 19 fa bf
       -1.472480593166622 -1.6312793187110948
0001c0 be 56 17 e8 27 65 02 c0 7d 35 ae 1b 24 7e f3 bf
       -2.2993925220606277 -1.2182961541433024
0001d0 5d c9 b0 7e d9 b4 e7 bf b3 c4 ed 6e 85 17 fa 3f
       -0.7408263658929105 1.6307424863009998
0001e0 dc fa b1 a6 b2 cb 0b 40 36 54 62 0d ba 3c 15 40
       3.474461843782917 5.30930348313
0001f0 92 db ea 70 e2 31 13 40 1d 53 56 43 94 14 16 40
       4.798715366682602 5.520096828597869
000200 00 19 e4 fd d5 8e 12 40 79 c4 f1 61 44 ae 0a 40
       4.639488188788391 3.3350913669497086
000210 93 4a 80 62 92 50 fa 3f 18 49 e2 55 7f ea e6 3f
       1.6446708533955288 0.7161251714153734
000220 64 5f 5a cc 34 c9 df bf c1 7e 9c 04 47 09 ff bf
       -0.4966556544909422 -1.93976499367993
000230 e8 5f 80 10 56 40 01 c0 34 d7 e6 49 3b e8 04 c0
       -2.156414154927905 -2.6133943341800663
000240 28 d6 f8 da a6 7e 01 c0 de f7 24 f0 8e 79 ea bf
       -2.1868416888417137 -0.8273386659927799
000250 1e e6 88 1c 9a 56 f6 3f 78 81 7f d9 bc 5c 11 40
       1.396143065894996 4.340564154059727
000260 2f 82 3c e8 fc 33 16 40 5f b4 32 98 ef af 16 40
       5.5507694518023944 5.6718124180743805
000270 31 b8 9f f6 cc 14 16 40 2f 3a 47 1e 11 1f 12 40
       5.5203131232247395 4.530338738534325
000280 51 fd 4a 03 12 b0 07 40 d7 48 4c 4e 07 53 f3 3f
       2.9609718568096146 1.2077706392779441
000290 85 31 0a 81 01 85 c8 3f eb ab d1 5b 3e a0 e8 bf
       0.19155901718876236 -0.7695609849300785
0002a0 3b 8f 1c 3d 38 42 02 c0 b9 c9 a7 aa e5 17 06 c0
       -2.2823338293400446 -2.7616685230688884
0002b0 7c 16 44 38 a0 a4 08 c0 06 59 ef 1c 8c d5 08 c0
       -3.08038371999538 -3.1042711506407867
0002c0 a9 a1 11 bf f7 d1 f4 bf cd 1e 64 1f 60 0c d4 3f
       -1.3012616599681712 0.31325533929382915
0002d0 34 08 1d ad a3 0d 08 40 e0 1a b4 f0 0d 8d 13 40
       3.0066598438725354 4.887748490326629
0002e0 b4 83 a4 6c 22 05 14 40 ea 34 97 84 a4 65 15 40
       5.005014131108442 5.349260398606228
0002f0 58 82 81 84 6b 23 10 40 3a 03 fd 76 1b 3f 0b 40
       4.0345898345991245 3.4058141036952323
000300 5e 18 63 36 a1 5a fc 3f ad 8f a5 ac 13 90 da 3f
       1.7721264004226422 0.415043753242794
000310 6d 19 b0 4c bf a0 f6 bf 12 86 24 53 a6 67 03 c0
       -1.4142449374790786 -2.4256102080842163
000320 12 2a da 33 96 29 0d c0 65 0c 12 c5 9a 2a 10 c0
       -3.64530601987395 -4.0416060249582175
000330 66 05 09 ae f7 57 09 c0 2e be 67 41 9c bd 0b c0
       -3.1679528805258768 -3.467583189943773
000340 fa 2b 9f 8b d8 e7 e8 bf d1 ed e5 8e 15 d4 01 40
       -0.7783014990794748 2.2285567439955476
000350 a1 0f 4b 8d 91 fa 0e 40 45 a0 ea d6 43 b4 0b 40
       3.872347930768186 3.463020018611163
000360 17 54 60 fe 96 1f 12 40 bc 1d 52 e0 f4 a3 0c 40
       4.530849432591842 3.5800569081363545
000370 33 fc 5e 59 ca d8 05 40 7a 33 77 d3 cf f2 fe 3f
       2.730854700289933 1.934280229604353
000380 bd ce a1 ea b9 d4 b0 3f 44 d4 74 f3 89 9b f0 bf
       0.06574594477006719 -1.0379733572019783
000390 fb 62 e8 d1 5e 15 fe bf 05 55 47 6d eb 91 08 c0
       -1.8802173804780853 -3.0712498223680336
0003a0 be ee 88 43 d7 ae 12 c0 15 d1 2b 87 ff 51 0b c0
       -4.670743041260435 -3.4150381622549824
0003b0 3e bc fc 33 bd f7 0d c0 b2 43 c6 d0 57 40 f6 bf
       -3.745966344976778 -1.3907087474110367
0003c0 5a fc a2 b3 ec c6 f8 3f d2 a0 26 c5 f3 16 08 40
       1.54856558008739 3.0112071421063797
0003d0 30 68 ab 27 a1 d0 0a 40 02 e6 88 41 ae 8a 13 40
       3.351869878691126 4.885430358868236
0003e0 ea 21 71 37 57 cb 0e 40 de 74 34 fa 28 5f 08 40
       3.849287446155576 3.046464876867147
0003f0 bb c0 f4 dc 16 41 f4 3f 77 8f 41 8d af 86 d0 bf
       1.2658909445854494 -0.2582205657438332
000400 cc 8d 10 af 6c 48 f4 bf 8a 34 da 7f f3 e9 00 c0
       -1.267681773992865 -2.1142339695421173
000410 d4 fe b7 56 ab 88 0f c0 10 f4 08 01 dd a4 13 c0
       -3.941733052721114 -4.910999313518019
000420 b5 16 ee 5a fd f9 0d c0 32 75 4b 0f 94 ce 12 c0
       -3.7470652679356484 -4.701736678104952
000430 e0 7a aa ca 4c 43 11 c0 7f 29 b4 1a ab 07 03 40
       -4.3157226244499896 2.3787443243247135
000440 77 e7 1c 9d 8e 4a ff 3f 01 be 44 ed c2 38 05 40
       1.9557024132941174 2.6527155434230285
000450 9f e8 ac 78 b7 72 10 40 82 67 8e c3 4f b3 0a 40
       4.112028012803562 3.33755448129972
000460 51 20 a5 9d 2d 86 04 40 5e a8 a0 fd 76 ee f8 3f
       2.5655166927354363 1.5582189471556585
000470 f2 0c cc 3c b5 5b b3 3f 87 53 f3 30 74 25 f7 bf
       0.07561810240081338 -1.4466440117005008
000480 7d ec f0 a8 fd 0c 02 c0 12 8e 9e b1 99 c6 0e c0
       -2.2563431929134468 -3.8469728352081427
000490 45 49 3e e2 3e a3 14 c0 e8 3d 35 ed 34 40 14 c0
       -5.159419570018433 -5.062701898932097
0004a0 39 fb 56 ce 09 d5 16 c0 be 32 26 c7 21 8b 0d c0
       -5.708045219477577 -3.692935520032136
0004b0 89 9d 70 a0 31 f2 f1 bf d1 c0 bc d9 dc b6 e9 3f
       -1.121629358976721 0.8035721066171623
0004c0 c4 f6 d5 bf 9b 1e fa 3f 9e 68 42 05 bf 8a 0b 40
       1.632472752913075 3.4427471552745166
0004d0 03 d6 22 cd ba 1c 05 40 6a 99 1c a6 68 d9 01 40
       2.639028170228586 2.23115663313654
0004e0 d8 e1 e0 fa 4c 4f f0 3f 4e aa 4e 20 d3 35 cc 3f
       1.0193605232180882 0.22039259984497267
0004f0 a1 eb 38 28 bc 65 f6 bf 32 10 19 8e 7e 20 0a c0
       -1.3998376437363975 -3.265866384639616
000500 c8 4e 94 d1 b4 bf 0f c0 17 dd 8e c9 8c 73 15 c0
       -3.9686066029915743 -5.362841748566345
000510 a5 ce 7d 1c 8f de 12 c0 e6 13 b9 22 b8 c3 13 c0
       -4.717342801264441 -4.941132109209297
000520 1f fa 70 5d 76 22 0d c0 0a 8e 56 d2 df b0 f8 bf
       -3.641827325830732 -1.54318220294306
000530 5d 8c 6a 5f a5 65 f0 3f 10 87 21 87 15 22 ff 3f
       1.0248159148402671 1.9458213118127254
000540 bf 5b 31 97 8c 85 01 40 0a ac c9 a5 86 a3 02 40
       2.190209561532782 2.329846663682024
000550 f2 e7 0c 74 ca e4 f4 3f bb c3 2e 9a af 34 ee 3f
       1.3058571370333962 0.9439313899402956
000560 7c bd 01 8a ba 01 d6 bf 98 2f 9e a0 3a 0a fc bf
       -0.3438555095408089 -1.7524973177087073
000570 8c 12 7d 61 86 3c 00 c0 a0 32 e6 70 01 8a 0a c0
       -2.029553186063202 -3.317385561013296
000580 90 8e 90 b5 c2 96 11 c0 7f b4 85 e0 e0 76 13 c0
       -4.3972271317940255 -4.866092212830266
000590 2b cf 8a df 44 fc 12 c0 b6 93 ab 74 62 b9 0d c0
       -4.7463564804527705 -3.7155198206769127
0005a0 d3 ba 1e b1 5c 7a f7 bf 86 cb f0 ea 22 7f d2 3f
       -1.4673735541106694 0.28900978988092907
0005b0 57 ed 61 08 cd ba ed 3f 4d c7 de d9 01 77 f9 3f
       0.9290528453561063 1.5915544996791653
0005c0 a3 2b 06 8a eb f7 ff 3f 70 c0 9b 6a c7 22 fc 3f
       1.9980273620192086 1.7584909595862221
0005d0 e4 e1 b8 db 64 82 e1 3f cf c1 e5 b8 19 9d d6 3f
       0.5471672336053044 0.3533386521949326
0005e0 be 01 cc b3 ce 7a f3 bf 82 84 ba 98 80 ba fe bf
       -1.2174822829548329 -1.9205327955208138
0005f0 af e6 32 4b ec 07 0a c0 29 e2 26 1e a9 47 0c c0
       -3.2538686633023057 -3.53499053531802
000600 30 59 43 c7 77 19 11 c0 58 40 fe 0f 89 25 0f c0
       -4.274870980725879 -3.8933278321710922
000610 4f 4c 0f 86 84 75 07 c0 25 ff 2e c2 5d ae fc bf
       -2.932381675092564 -1.792569883851635
000620 c7 4f 7a bc e6 ad e0 bf 3b c6 45 00 31 f9 d7 3f
       -0.521228187676109 0.37458443667046354
000630 b8 9b de c2 6f 8a eb 3f 5b a5 16 b7 2f 86 f6 3f
       0.8606489950224079 1.4077603485005372
000640 93 54 a0 d5 e4 f0 ef 3f 9b 09 a8 94 9e 7b f0 3f
       0.9981559917820441 1.0301805312052241
000650 f9 1e 66 c4 24 b1 d2 3f 89 84 69 bb bb ac e1 bf
       0.29206198863583627 -0.5523356113809693
000660 40 49 8e f2 26 9d f0 bf 39 23 16 7b 02 b2 f9 bf
       -1.0383672213398114 -1.6059593971314838
000670 43 95 7a ed 3e c2 08 c0 cf 77 5d 56 04 8a 07 c0
       -3.0948465874704723 -2.9423910853647395
000680 7c 93 c6 ae ba a4 08 c0 51 a1 7d 2b 32 7f 05 c0
       -3.0804341940260525 -2.6871074102129247
000690 8a 43 86 43 d9 3a fb bf 1a 18 f3 8e f7 1a f1 bf
       -1.701867355124906 -1.0690837463348601
0006a0 bf 44 f6 c6 d1 e6 ce 3f 47 88 b6 01 66 fd d5 3f
       0.24141905035916086 0.3435912148216897
0006b0 15 c5 7a 75 04 e5 e4 3f a6 7e 84 5c e6 a6 fa 3f
       0.6529562277338835 1.6657470334975328
0006c0 3a 59 62 6c 8b c3 ef 3f b7 95 bf 08 36 ee de 3f
       0.9926201931837462 0.4832892499383336
0006d0 b0 9f 65 2a de cd d7 3f da 25 fd 2c 00 3c cf bf
       0.37194017544106384 -0.2440185756370699
0006e0 53 6a 3b c4 40 f9 f5 bf 34 f5 a0 5f 10 21 f7 bf
       -1.3733527818027553 -1.4455722556588855
0006f0 04 6e 30 e4 c4 cb f8 bf e3 44 32 a9 43 5e 00 c0
       -1.5497483171119493 -2.0460274904695424
000700 e3 ec 67 9b 44 b1 fe bf c0 c4 a9 cd 4e fa 03 40
       -1.9182783194108246 2.497220618003297
000710 f1 2a 32 47 b3 5a 06 40 e2 08 07 1d 89 bd 06 40
       2.794287258356569 2.8425466792842693
000720 61 02 9a 53 02 f7 04 40 22 a4 1b 13 0b 9a 04 40
       2.6206099063277155 2.5752164357004554
000730 d2 9a bb 07 b3 ee fd 3f 21 95 9f ec 0a ed f8 3f
       1.8707762052596775 1.557871746358906
000740 e9 cb 8b d8 6f 46 f2 3f e0 94 e5 50 c1 01 f3 3f
       1.1421965082961327 1.1879285011321414
000750 38 01 5d db 8c 84 d3 3f 29 ca 4d 64 6c 6f f2 3f
       0.3049652235240674 1.1522029798621907
000760 47 ee c2 d7 43 5b ef 3f a8 e2 c0 f2 42 d8 f0 3f
       0.9798907484141147 1.0527982218319867
000770 d3 a5 b5 95 03 7f f6 3f 3d 8a 17 ef 5e a7 00 40
       1.4060092781095264 2.081724040895351
000780 66 53 e9 ea be f9 04 40 11 f1 13 df da 4f 0d 40
       2.621946177716768 3.663991682811805
000790 c2 3b b1 58 22 e7 12 40 97 fb ca 7e 79 cd 10 40
       4.72571695882556 4.2006587802306035
0007a0 30 7e 25 c0 98 bc 0f 40 b4 cb d0 7f 07 cf 05 40
       3.9670882235948497 2.7260885224909206
0007b0 0b 52 44 34 c6 e9 00 40 e3 02 94 d1 3d 40 f2 3f
       2.1141475756978756 1.1406839548728207
0007c0 8d 50 09 34 07 36 e3 3f 80 2f c8 a2 f5 6e c7 3f
       0.6003452316604282 0.18307371567095387
0007d0 5d 05 38 40 2b 5e f1 3f 25 6f 53 26 64 a1 e4 3f
       1.0854904659793967 0.6447010754158994
0007e0 b7 1f 86 4d ab ee e2 3f b5 69 48 98 8a d2 f3 3f
       0.5916344179286089 1.238901705603536
0007f0 da 94 dd 6e 46 14 f2 3f 0a df 95 08 3a 36 0d 40
       1.1299499827085158 3.6514778776871752

sampling_frac f8 []
000000 eb 51 b8 1e 85 eb b1 3f
       0.06999999999999999
